Assignment_1/word2vec_model.pth (torch, 229253 bytes, 3 tensors)

embedding.weight f4 [283, 100]
0	0x3e980910	0.29694414
1	0x3ec51207	0.38490316
2	0xbe6ffb5d	-0.23435731
3	0xbf88b70e	-1.0680864
4	0x3e22730a	0.15864196
5	0x3fc022e0	1.5010643
6	0xbeca185e	-0.39471716
7	0xbe794edf	-0.24346493
8	0x3e5772ef	0.21039937
9	0xc04775c9	-3.116564
10	0x3cd0bdcd	0.025481129
11	0x3e848299	0.25880888
12	0x3f0fa42a	0.5610987
13	0xbe9e89f2	-0.3096462
14	0x3f8e2cba	1.11074
15	0xbf07ddf7	-0.53073066
16	0xbdff6254	-0.124699265
17	0xbdf93883	-0.12168982
18	0xbe5ad84a	-0.2137157
19	0x3d3c3f9b	0.045959096
20	0x3fd13942	1.6345599
21	0x3df889a5	0.121356286
22	0x3fe91f7a	1.8212731
23	0x3f9640bc	1.1738505
24	0x3eda67ab	0.42657217
25	0xbe729a72	-0.23691729
26	0x3edd664b	0.43242106
27	0x3ddb93cb	0.10721549
28	0x3f38028e	0.718789
29	0xbe9f87ae	-0.31158203
30	0xbc94b266	-0.018151473
31	0xbf0f9780	-0.56090546
32	0xbebc1bef	-0.36740062
33	0x3d74388f	0.05962425
34	0xbee83a02	-0.45356756
35	0xbe9e7a2f	-0.30952594
36	0x3eace7df	0.33770654
37	0x3f2711eb	0.65261716
38	0xbf88ac60	-1.0677605
39	0xbee01af2	-0.43770558
40	0x3f911af0	1.1336346
41	0x3ef54122	0.47901255
42	0xbf0c8150	-0.54884815
43	0x400fda67	2.2477052
44	0xbf4c60b8	-0.7983508
45	0x3fccd511	1.6002523
46	0x3f477537	0.7791323
47	0x3fdeade5	1.7396818
48	0xbe6057b0	-0.2190845
49	0x3dd5f888	0.10447794
50	0x3f20c7db	0.62804955
51	0xbf300a81	-0.6876603
52	0x3f7491a4	0.9553473
53	0x3ebefdc8	0.37302995
54	0xbfa256cf	-1.2682742
55	0xbe3c0207	-0.18360148
56	0xbe9d4c03	-0.30722055
57	0xbf4858fc	-0.7826078
58	0x3db08b03	0.086202644
59	0xbead1897	-0.33807823
60	0xbe5d4da3	-0.21611647
61	0xbf905af0	-1.1277752
62	0x3ed0f10a	0.40808898
63	0xbd50ee99	-0.051008794
64	0x3f439f42	0.76414883
65	0xbc7f7b07	-0.015593297
66	0x3e4d4334	0.20045167
67	0x3def32a9	0.116795845
68	0x3f8d15b2	1.1022246
69	0x3e8eb1a8	0.27869916
70	0xbe9545a4	-0.29154694
71	0xbe795b86	-0.2435132
72	0xbf2af760	-0.66783714
73	0x3c7ba450	0.015358999
74	0xbf9acfea	-1.20947
75	0xbe0524c5	-0.13002308
76	0xbf138104	-0.5761874
77	0xbf748e05	-0.95529205
78	0x3addf418	0.0016933708
79	0x3f1215fa	0.57064784
80	0xbf4c9436	-0.7991365
81	0x3ee5b405	0.44863907
82	0x3e8bbf3b	0.27294335
83	0x3dc133a4	0.09433678
84	0xbda7ea6e	-0.08199011
85	0xbe7909ce	-0.24320146
86	0xbedc7181	-0.43055347
87	0x3dea5c41	0.11443377
88	0xbe8c3d1a	-0.27390367
89	0xbf7b5912	-0.98182786
90	0x3e0d6f2d	0.13811941
91	0xbf08e5d7	-0.5347571
92	0xbf0f13fe	-0.5588988
93	0x3f17a723	0.59239405
94	0xbd90d09c	-0.07071039
95	0xba73278d	-0.0009275608
96	0xbe13f791	-0.14449908
97	0xbeced1df	-0.40394494
98	0xbefa41c3	-0.48878297
99	0x3d603009	0.05473331
100	0x3f12c61e	0.5733355
101	0xc00605e0	-2.0941086
102	0x3ed8279f	0.42217728
103	0x3fdabb2a	1.7088368
104	0x40ba5cf1	5.8238454
105	0x3f8430a6	1.0327346
106	0x3f06c65a	0.5264641
107	0xc003eb79	-2.061247
108	0x3d32d4d0	0.043659985
109	0xc006918d	-2.1026337
110	0x4080b46a	4.022023
111	0xbeb81c79	-0.35959223
112	0xc09ebe41	-4.9607244
113	0x3f556e46	0.8337139
114	0xbf8ff462	-1.1246455
115	0x3e71982c	0.23593205
116	0xc000d8a2	-2.0132222
117	0x3f10b9a6	0.5653328
118	0x3f1b0e13	0.6056835
119	0x400008dc	2.0005407
120	0xbe96ccc8	-0.2945311
121	0x3f8904a4	1.0704541
122	0xbfd4b8db	-1.6618913
123	0x3fb8dda9	1.4442645
124	0xbf385203	-0.7200014
125	0x3fb7b10c	1.4350905
126	0x40908dcb	4.5173087
127	0x3f5a8740	0.85362625
128	0xc0219b97	-2.5251215
129	0x3eab91db	0.33509716
130	0x40205cfe	2.5056758
131	0x3fa8e74e	1.3195589
132	0xbd90986b	-0.070603214
133	0x3fcad912	1.5847495
134	0x402ba720	2.6820755
135	0xc0fbf3c3	-7.873506
136	0xbfa8be17	-1.3183011
137	0xbff95588	-1.9479227
138	0xbe94483e	-0.28961366
139	0x3f01a99f	0.50649446
140	0xc0462603	-3.09607
141	0x406dc51d	3.7151558
142	0xc00b4079	-2.17581
143	0x40280c2d	2.6257432
144	0xbf992cd9	-1.1966811
145	0x3e57463b	0.21022885
146	0xbf35207e	-0.70752704
147	0xc00e01b0	-2.218853
148	0x40165219	2.3487608
149	0x40014d7a	2.0203538
150	0xbf30ad5a	-0.69014513
151	0xbfec14aa	-1.8443806
152	0x3e1a9a0a	0.15097824
153	0x402bf8c8	2.6870594
154	0xbf97bf79	-1.1855308
155	0x3e422cbd	0.18962379
156	0x3ec1252b	0.3772367
157	0xbfb86b78	-1.4407797
158	0xbf6e5cd9	-0.93110424
159	0xbf8034a8	-1.001607
160	0x4060acee	3.5105548
161	0x3d98fb76	0.07469837
162	0x409dfe0c	4.9372616
163	0x3f5e1c14	0.86761594
164	0xbfa34d60	-1.2757988
165	0x402c3100	2.6904907
166	0xbf29c0b8	-0.6630969
167	0xbfc1cb43	-1.5140156
168	0x3ea5cf7e	0.32384866
169	0x404f9013	3.2431686
170	0x3f44d726	0.7689079
171	0xbf8ce128	-1.1006212
172	0xbf9a1a89	-1.2039348
173	0x3fc4d572	1.5377638
174	0x3fc605d6	1.5470531
175	0xbe8ca1b0	-0.27467108
176	0xbedcb713	-0.43108425
177	0xbe4c4056	-0.19946417
178	0x3e4aeb42	0.19816306
179	0xbfcb1ccb	-1.5868162
180	0x40101cab	2.2517498
181	0xbfcb3bd0	-1.5877628
182	0x3f6b7b39	0.919849
183	0x3ec6f6cf	0.38860175
184	0x3ff01d1d	1.8758885
185	0x401f799e	2.491798
186	0x4031d647	2.7787035
187	0x4047cd88	3.1219196
188	0x3fbbcf1b	1.4672579
189	0x3f7feb4e	0.9996842
190	0x3f2c4afd	0.67301923
191	0x3fff0eb9	1.9926368
192	0x3fc26ed5	1.5190073
193	0xc02c9535	-2.6966069
194	0xbf56b0e2	-0.8386365
195	0x3f5bd5af	0.8587293
196	0x3fa579d2	1.2927802
197	0xbf1baae5	-0.6080764
198	0xc04da5cd	-3.2132447
199	0xbfc66546	-1.5499656
200	0xbfcde396	-1.6085079
201	0x4061a8c7	3.5259264
202	0xbdd87f12	-0.10571112
203	0x3f100093	0.56250876
204	0x3f306148	0.6889844
205	0x4081eb8d	4.0600038
206	0xbf5adadb	-0.85490197
207	0xbf92ca08	-1.1467905
208	0x3eb76d09	0.35825375
209	0xc0253b77	-2.5817544
210	0xc04f4915	-3.2388356
211	0x40a24eeb	5.0721335
212	0x3ffbc383	1.966904
213	0xc04aaa5b	-3.1666477
214	0xbf02e8fa	-0.51136744
215	0x3e93716e	0.28797477
216	0x3fe3110c	1.7739577
217	0x40842f94	4.130808
218	0x3fad9458	1.3560896
219	0xbe28e792	-0.16494587
220	0x3f8bafe3	1.0913051
221	0xc017d4a6	-2.372354
222	0xbfb1a719	-1.3879119
223	0xbf290e69	-0.66037613
224	0xc069f163	-3.655358
225	0x3f78a9c4	0.9713404
226	0x403d4b57	2.9577234
227	0x4011007b	2.2656543
228	0x3f8d8e93	1.1059135
229	0x4086d475	4.2134347
230	0x40102b72	2.2526517
231	0x4004f4f6	2.0774512
232	0x3f1ad60d	0.60482866
233	0x3d9aaed5	0.07552878
234	0x3f56a950	0.838521
235	0x3f8edb40	1.116066
236	0xbea1ceb8	-0.31603026
237	0x400c5a37	2.1930063
238	0x4037fd7c	2.8748465
239	0x3faa682d	1.3313042
240	0x3e841399	0.25796202
241	0x3fa4e2a7	1.2881669
242	0xc05d342a	-3.4563088
243	0xbeb724f8	-0.35770392
244	0xbf339899	-0.7015472
245	0xbf60cead	-0.8781536
246	0x40661906	3.5952773
247	0xbf07b893	-0.5301601
248	0x3f13c520	0.57722664
249	0xbe28d390	-0.16486955
250	0xc009eca1	-2.1550677
251	0xc04449b8	-3.0669994
252	0xc02fc857	-2.7466028
253	0xc00874f1	-2.1321375
254	0x3dcf0aa6	0.10109453
255	0x40128b13	2.2897384

linear.weight f4 [283, 100]
0	0x3ff288aa	1.8947957
1	0x3fdbfb32	1.7186034
2	0xbf6d170b	-0.92613286
3	0xc01aecee	-2.420711
4	0x3f81687f	1.0110015
5	0xbf44b8e6	-0.7684463
6	0x3facc2e3	1.3496975
7	0x3f6db16f	0.9284887
8	0x3f56cbfe	0.8390502
9	0x40a603ff	5.187988
10	0x3dd3189b	0.103074275
11	0xbf7a75ba	-0.97835886
12	0x4066e3ec	3.6076612
13	0xbf5fff93	-0.8749935
14	0x3fc1bd96	1.5135982
15	0xbf6031f3	-0.87576216
16	0x3df5d4c5	0.12003473
17	0x406c9918	3.696844
18	0xbebebf08	-0.3725512
19	0xbf897baa	-1.0740864
20	0x401659d8	2.3492336
21	0xbe06f2f4	-0.13178617
22	0x3f9b8c5a	1.2152207
23	0xbdaca377	-0.08429616
24	0x3fa807a7	1.3127335
25	0xbfd2a21e	-1.6455724
26	0x40098446	2.1486983
27	0x3f0141f1	0.50491244
28	0xbf1f5d57	-0.622518
29	0xbed1bd0e	-0.4096455
30	0xbff63222	-1.9234049
31	0x3e0963ec	0.13417023
32	0xc04705c0	-3.109726
33	0xbfba0c0c	-1.4534926
34	0xbe95fd73	-0.2929493
35	0x3fbb860c	1.4650283
36	0x3f45666b	0.771094
37	0xbf930960	-1.1487236
38	0x3fe71301	1.8052675
39	0x3f57c440	0.8428383
40	0x3e8e7492	0.2782331
41	0x3f4be86d	0.7965153
42	0x3ee5ab84	0.4485742
43	0xc019a7cd	-2.4008667
44	0xbeaf542f	-0.34243914
45	0xc0341ae8	-2.8141422
46	0x3ffdcc5c	1.982799
47	0x3d529ae2	0.05141724
48	0x3ff216e0	1.8913231
49	0x3fb29540	1.3951797
50	0x3d854360	0.065069914
51	0xbf3180dd	-0.69337255
52	0xbfea3263	-1.8296627
53	0xbe5ad1b1	-0.21369053
54	0xc09ba19c	-4.8634777
55	0x3f9cf361	1.2261773
56	0xbe203f87	-0.15649234
57	0xbf3f5c71	-0.7475043
58	0xc0329e7c	-2.790923
59	0xc019cc98	-2.4031124
60	0xbfc19d36	-1.5126102
61	0xbf06a0c3	-0.5258905
62	0xbf5dee54	-0.86691785
63	0x3f4afd84	0.79293084
64	0x40024ca7	2.0359285
65	0xc037d26c	-2.8722181
66	0x3f533e4a	0.8251692
67	0x3f938470	1.1524792
68	0xc08b73ef	-4.357902
69	0xbfd5ad86	-1.669358
70	0xbe7be63b	-0.24599545
71	0xbf09c889	-0.5382162
72	0x402796f8	2.6185894
73	0xbf9a799d	-1.2068363
74	0xbe9dd48e	-0.3082623
75	0xbe94ae84	-0.29039395
76	0xbf59fb01	-0.85148627
77	0xbfa997d0	-1.3249454
78	0xbea675d1	-0.32511762
79	0xc0106e9a	-2.2567506
80	0xc003535b	-2.0519626
81	0x40775660	3.864647
82	0x3f99e85a	1.2024033
83	0x3fdfe7f1	1.7492658
84	0xbfd5552c	-1.6666617
85	0xbde43559	-0.11142988
86	0x3faa04c7	1.3282708
87	0xbe7c5559	-0.24641933
88	0xbf8e391e	-1.1111181
89	0xc026bd72	-2.6053128
90	0xbe6f3326	-0.23359355
91	0xc011573a	-2.270949
92	0x3fa2f6f9	1.273162
93	0x3f4db662	0.8035642
94	0xbf682286	-0.9067768
95	0xbf34fed8	-0.7070136
96	0xbf7f7dae	-0.99801147
97	0xbf1e84a7	-0.6192116
98	0xc05b5e50	-3.4276314
99	0x3d5ffc57	0.05468401
100	0xbf017d72	-0.5058204
101	0x3fa11a07	1.2586068
102	0xbeff80c2	-0.49902922
103	0xbe7acc76	-0.24492058
104	0xbdb0894a	-0.08619936
105	0xc0242f37	-2.5653818
106	0x3f8296fa	1.0202324
107	0xbf5704d0	-0.8399172
108	0xbedc7f59	-0.4306591
109	0x403daa30	2.9635124
110	0xbf20a8e0	-0.6275768
111	0xbee7888d	-0.45221367
112	0x3e6aac60	0.22917318
113	0xbf531c62	-0.82465184
114	0x3fb07d8c	1.3788314
115	0xc0455394	-3.0832262
116	0x3fc63c0c	1.5487075
117	0x3ffe445f	1.9864615
118	0xbf05ddf0	-0.52291775
119	0xbf5e4a54	-0.86832166
120	0x3e8fd893	0.2809492
121	0xbe363ea0	-0.17797327
122	0x3f768f9d	0.96312886
123	0x3ed4c8d6	0.41559476
124	0xbe8b440a	-0.27200347
125	0xc01adfd6	-2.4199119
126	0x3fa0276b	1.251203
127	0x3e67356e	0.22578976
128	0xbfa61ca7	-1.2977494
129	0x3d7887d4	0.06067641
130	0xbf2a51d5	-0.66531116
131	0x3fee163f	1.8600539
132	0xc03eb25f	-2.979637
133	0xbea698fa	-0.32538587
134	0x3fa4fbe4	1.2889371
135	0xbf38f1b0	-0.72243786
136	0x3f9b8e87	1.2152871
137	0xbfa808c4	-1.3127675
138	0x3e14a979	0.14517774
139	0xbf54ce13	-0.83126944
140	0xbeed7ae7	-0.4638283
141	0xbd9f46b6	-0.07777159
142	0xbf9f08c1	-1.2424546
143	0xbef2307c	-0.47302616
144	0xbf182e8b	-0.5944602
145	0xc04fe64a	-3.2484307
146	0x3fc2b73f	1.5212172
147	0x401016b3	2.2513855
148	0x3fad2c67	1.3529176
149	0x3f57afc4	0.8425257
150	0x3e612058	0.21984994
151	0xbe1ddeb9	-0.15416993
152	0xc007477c	-2.113738
153	0xbeca8f22	-0.39562327
154	0xbfe377f3	-1.7770981
155	0x3f192b45	0.5983165
156	0xbf21a510	-0.6314249
157	0xc008556e	-2.1302142
158	0xc044f500	-3.0774536
159	0xbfa62e5e	-1.29829
160	0xbf0c8717	-0.5489363
161	0x3f4f125e	0.808874
162	0xbfa99875	-1.3249651
163	0x3f88880e	1.066652
164	0x3f399ae0	0.72501945
165	0xbefccbc4	-0.4937421
166	0x4063c814	3.5590868
167	0x3fba203d	1.4541088
168	0xc0014009	-2.0195334
169	0xbe5839e6	-0.21115837
170	0xbfc37000	-1.5268555
171	0xbf225d3e	-0.63423526
172	0x4022b482	2.5422673
173	0x3f214f37	0.630115
174	0xbf7773a4	-0.9666083
175	0xbf1577e0	-0.5838604
176	0xc0444c03	-3.0671394
177	0xbe576c9d	-0.21037526
178	0xbf5acc98	-0.85468435
179	0x3ed8d97f	0.42353436
180	0xbf081787	-0.531609
181	0x4042260b	3.033572
182	0x40068c4a	2.1023126
183	0x402a4055	2.6601765
184	0xc02b2373	-2.6740386
185	0xbea7ce72	-0.32774693
186	0x3f40d3a9	0.7532297
187	0x3f6d804a	0.9277388
188	0x3f8ed0b9	1.1157447
189	0xc003bd30	-2.058422
190	0xbf835235	-1.0259463
191	0xbfa94b91	-1.3226186
192	0x3eaea9e5	0.34113994
193	0x3f21f5e7	0.6326584
194	0x3f8bbc06	1.0916755
195	0xbfcad1a3	-1.5845226
196	0xc04addf9	-3.1697981
197	0xbf642624	-0.891207
198	0xbff55fe7	-1.9169892
199	0x3fbbb078	1.4663229
200	0x3f0d1fc9	0.55126625
201	0x40060e48	2.0946217
202	0xbfa2a9ea	-1.2708104
203	0xbfc514ff	-1.5397032
204	0x403ffe5c	2.9998999
205	0xc01add3e	-2.4197536
206	0x4010bb20	2.2614212
207	0x3f9b6703	1.2140812
208	0xbf5dfabf	-0.86710733
209	0x40b2ada0	5.5836945
210	0x3edfce42	0.4371205
211	0x3f84e225	1.0381514
212	0x3f65707e	0.89624774
213	0x3edf2124	0.43579972
214	0x405f6d47	3.4910448
215	0xc01b6ea9	-2.4286292
216	0xbc81358f	-0.015772609
217	0x3e6de1b2	0.23230627
218	0xbfc86ce7	-1.5658234
219	0xbc5a6395	-0.013329406
220	0x3eee7b0a	0.46578246
221	0xbf226989	-0.63442284
222	0x3f791e4f	0.9731187
223	0x3fc5b69f	1.5446357
224	0x3f443113	0.7663738
225	0xbecd957f	-0.4015312
226	0x3f3804d4	0.7188237
227	0x3f9b3180	1.2124481
228	0xbed7909a	-0.4210251
229	0x3f64b67d	0.89340955
230	0xbfca5d66	-1.5809753
231	0x3eaad90e	0.33368725
232	0xc000f7d0	-2.0151253
233	0x3d535d3b	0.051602583
234	0x3d2048f6	0.03913208
235	0x3f58ce14	0.8468945
236	0x3fbb1892	1.4616873
237	0xbf95dffc	-1.170898
238	0x3f4af150	0.79274464
239	0xbfc784b8	-1.5587378
240	0x3f9b74be	1.2145002
241	0x3f716899	0.9430023
242	0xbf985726	-1.1901596
243	0xbf0f1ac7	-0.55900234
244	0xbd27d189	-0.040971313
245	0xbfed48e3	-1.8537868
246	0x4048ecba	3.1394486
247	0x3fd0f35c	1.6324267
248	0xbed61f46	-0.41820735
249	0xbfad504f	-1.3540133
250	0x3f92f62a	1.1481373
251	0xbe7ccfc6	-0.24688634
252	0xbf1b3233	-0.6062347
253	0x3de4cfc1	0.111724384
254	0xc0a7b2a5	-5.240557
255	0xbfad2ec7	-1.35299

linear.bias f4 [283]
0	0xc0e77f28	-7.234272
1	0xc0d1b0e4	-6.552843
2	0xc10ed5b7	-8.927176
3	0xc0fa3f81	-7.820252
4	0xc0b1a913	-5.551889
5	0x3fce8011	1.6132833
6	0xc023a116	-2.556707
7	0xc0e9dce1	-7.3082128
8	0xc0ffec7e	-7.9976187
9	0xc0a93e9a	-5.288892
10	0xc0853117	-4.1622424
11	0xc0e59f93	-7.1757293
12	0xc0aefeb8	-5.4685936
13	0xc0f53c58	-7.663616
14	0xc0b01157	-5.5021167
15	0xc0d9b01a	-6.802747
16	0xc10d6eda	-8.839563
17	0xc07d9b58	-3.9626064
18	0xc0ad3c21	-5.41359
19	0xc0f63539	-7.693997
20	0xc0ef449c	-7.477125
21	0xbf005205	-0.5012515
22	0xbed0cf71	-0.40783265
23	0xc1034a50	-8.205643
24	0xc0bda521	-5.9264073
25	0xbe719869	-0.23593296
26	0xc102859c	-8.157619
27	0xbff1c4ff	-1.8888243
28	0xc0d1f35b	-6.5609565
29	0x3f18a3c2	0.59624875
30	0xc08d29bd	-4.411345
31	0xc114c0cc	-9.29707
32	0xc0b1132d	-5.533591
33	0xbffdac5d	-1.9818226
34	0xc0bfa9e9	-5.989491
35	0xc0e9b1d5	-7.302958
36	0xc0fb6e9a	-7.857251
37	0xc0c79399	-6.2367673
38	0xc0cf7f67	-6.484302
39	0xc0e48695	-7.1414285
40	0xbf93e839	-1.1555244
41	0xc08e136b	-4.4398704
42	0xc0295aeb	-2.6461742
43	0xc0e81f97	-7.253856
44	0xc0f83dcb	-7.757543
45	0xc0c6157a	-6.1901217
46	0xc0d57359	-6.6703305
47	0xc0bbf83f	-5.8740535
48	0xc0f6f065	-7.716845
49	0xc0ca4996	-6.3214827
50	0xbf908938	-1.1291876
51	0xc10947d0	-8.580032
52	0xc0db0c99	-6.845288
53	0xbe70b1f9	-0.23505391
54	0xc0977194	-4.7326145
55	0xc106f798	-8.435448
56	0xc0de34f3	-6.9439635
57	0xc1091405	-8.567388
58	0xc0aa8cd3	-5.3296905
59	0xc03ba626	-2.932016
60	0xc0f2b0f2	-7.5841
61	0xc106a118	-8.41433
62	0xbf99b489	-1.200822
63	0xc09e892f	-4.954246
64	0xc0dbf6c4	-6.8738728
65	0xc10219e1	-8.131318
66	0xc10f6c5d	-8.963956
67	0xc0e39075	-7.111384
68	0xc0f10ce0	-7.5328217
69	0x3f28aaee	0.6588582
70	0xc0edd8e4	-7.432726
71	0xc0e4d5a3	-7.1510787
72	0xc0927fe6	-4.5781126
73	0xbfbea3d8	-1.4893751
74	0xc0fdb9f1	-7.928948
75	0xbf196042	-0.599125
76	0xc10efe6d	-8.937116
77	0xbf430db1	-0.76192766
78	0xbe9bd8c9	-0.3043883
79	0xc102b302	-8.168703
80	0xc08c0b45	-4.3763757
81	0xc0500187	-3.2500932
82	0xc0dee721	-6.965714
83	0xbfdad86c	-1.7097297
84	0xc1048f3a	-8.284967
85	0xc11a6ab3	-9.65105
86	0xc1037fd8	-8.218712
87	0x3fa9796f	1.3240184
88	0xc0aa27ec	-5.3173733
89	0xc0c11305	-6.0335717
90	0xc0d895b2	-6.7682734
91	0xc082adf6	-4.0837355
92	0xc0dba3a8	-6.8637276
93	0xc03c426a	-2.9415536
94	0xc0f41d90	-7.6286087
95	0xbfa451d7	-1.2837476
96	0xbf2fdbfb	-0.6869504
97	0xbf2b04cf	-0.6680421
98	0xc0da75e5	-6.8268914
99	0xc101e173	-8.117541
100	0xc0018f35	-2.0243657
101	0xc0fcc057	-7.898479
102	0xc0d6a5d2	-6.7077417
103	0xc0fa848d	-7.8286805
104	0xc0ea9926	-7.331195
105	0xc0f24a8d	-7.5716004
106	0xc101d261	-8.113862
107	0xc087b856	-4.241252
108	0xc1027c0d	-8.155286
109	0xc0f19163	-7.5489974
110	0xc0d414d9	-6.627545
111	0xc0d630cf	-6.693458
112	0xbeca9201	-0.39564517
113	0xc0e1c8bb	-7.055753
114	0xbf8cdcf4	-1.100493
115	0xc0e7019d	-7.218947
116	0xbf64f17b	-0.8943097
117	0xc06f7c0e	-3.7419467
118	0xc0e48d52	-7.142251
119	0x3ebe0431	0.37112573
120	0xc0ca6267	-6.324512
121	0xc0ef4d55	-7.47819
122	0xc085a8f1	-4.1768727
123	0xc09e28dc	-4.9424877
124	0xbf8d5d1a	-1.1044037
125	0xc0925fed	-4.5742097
126	0xbe724b8c	-0.23661631
127	0xbff711e0	-1.930233
128	0xc047caab	-3.1217449
129	0xbda64562	-0.081187025
130	0xc0a5da8d	-5.1829286
131	0xc067eda2	-3.623879
132	0xc116a651	-9.415605
133	0x3f9c5e50	1.2216282
134	0xc0a4b6c1	-5.147309
135	0xc11395b3	-9.224048
136	0xc0fa5727	-7.8231387
137	0xc0251dfd	-2.5799553
138	0xc10d5f43	-8.835757
139	0xc0d960ef	-6.7930827
140	0xc0118eef	-2.274349
141	0xc0fa97e5	-7.831042
142	0xc0f255b3	-7.5729613
143	0xc10f833b	-8.969539
144	0x3f7cc4f5	0.9873803
145	0xc0de565c	-6.948042
146	0xc0dc53ed	-6.885245
147	0xc1043730	-8.2634735
148	0xc105fe1d	-8.374539
149	0xc0e2a307	-7.082401
150	0xc0e6ef95	-7.216746
151	0xc08e9701	-4.455933
152	0xc0a0e64f	-5.028114
153	0xc0827a9b	-4.0774665
154	0xc05a4c13	-3.4108932
155	0xc0a94347	-5.2894626
156	0xc1080102	-8.500246
157	0xc0d6f42f	-6.7173076
158	0xc09946db	-4.7898993
159	0xc09772a3	-4.7327437
160	0xc10ff8a2	-8.998201
161	0x3f00ea9c	0.50357985
162	0xc0ae579f	-5.448196
163	0xc1057ed4	-8.343464
164	0xc1051047	-8.316474
165	0xbf4e8f1c	-0.8068712
166	0xc1018767	-8.095557
167	0xbf7d9a98	-0.99064016
168	0xc0d10ee5	-6.533068
169	0xc0eff238	-7.4983177
170	0xc0d583ca	-6.6723375
171	0xc10bcd7a	-8.737665
172	0xc10b96f4	-8.724354
173	0xc0fab822	-7.834977
174	0xc1087777	-8.529166
175	0xc10649bf	-8.393004
176	0xc0da5359	-6.8226743
177	0xc01abd4f	-2.4178045
178	0xc0d56749	-6.668858
179	0xc0f54940	-7.6651917
180	0xc0b8dfb5	-5.777308
181	0xc0750594	-3.8284655
182	0xc0a99e2d	-5.3005586
183	0xc0f06057	-7.51176
184	0xc0d2479a	-6.5712404
185	0xc0dc6585	-6.8873925
186	0xc0034409	-2.0510275
187	0xc0f7ac81	-7.7398076
188	0xc07f6f64	-3.9911737
189	0xc0c8af45	-6.271395
190	0xc0c9a223	-6.301042
191	0xc122a631	-10.165574
192	0xc0f85b52	-7.7611475
193	0xc0de7ad5	-6.952494
194	0xc0fe68a6	-7.9502745
195	0xc100b510	-8.044205
196	0xc0ceacba	-6.458585
197	0xc08c80f8	-4.3907433
198	0xc0b80301	-5.7503667
199	0xc06f0d24	-3.735177
200	0xc082b90f	-4.08509
201	0xc0ea66c3	-7.325044
202	0xc0f4606e	-7.636771
203	0xc0db8db0	-6.861046
204	0xc0e7df73	-7.2460265
205	0xc13228c8	-11.134956
206	0xc0aefdc3	-5.468477
207	0xc0987046	-4.7637053
208	0xc0e89164	-7.267748
209	0xc1041388	-8.254768
210	0xc09b7224	-4.857683
211	0xc120db92	-10.053606
212	0xbed9decc	-0.42552793
213	0x3f1e9bf6	0.6195673
214	0xc0b06161	-5.511887
215	0xc101afcd	-8.10542
216	0xc0cd1cdd	-6.4097733
217	0xc06cb213	-3.6983688
218	0xc0a6bbfc	-5.2104473
219	0xc0ae3bb8	-5.44479
220	0xc1045226	-8.270056
221	0xc0df9073	-6.986383
222	0x3f894079	1.07228
223	0xbfc698c9	-1.5515376
224	0xc083999a	-4.1125
225	0xc07e546d	-3.973903
226	0xc10924de	-8.571501
227	0xc0f83d72	-7.7575006
228	0x3ed10d71	0.40830567
229	0xc08da199	-4.4259763
230	0xc0f32321	-7.598038
231	0xc0fa39e1	-7.8195653
232	0xc0e613ca	-7.1899157
233	0xbf904009	-1.1269542
234	0xc0ac13d5	-5.377421
235	0xc1101139	-9.004205
236	0xc0e703f7	-7.219234
237	0xc0d2a17b	-6.582212
238	0xbf887fdb	-1.0664018
239	0xc108042e	-8.50102
240	0xbfe837fe	-1.8142087
241	0xc0f2cb3f	-7.5873103
242	0xc0d753b9	-6.72897
243	0xc105dfa1	-8.367097
244	0xc10c4654	-8.76717
245	0xc0d9a8ee	-6.8018713
246	0xbfe54e39	-1.7914497
247	0xc1003f83	-8.015506
248	0xc06f1b59	-3.7360442
249	0xc08ed8be	-4.463958
250	0xc09c9c7d	-4.8941026
251	0xc0d9af68	-6.802662
252	0xc0a95f07	-5.29285
253	0xc0f38e4d	-7.6111207
254	0xc0db22da	-6.8480043
255	0xc0f88b4c	-7.767004
