Assignment_1/word2vec_model.pth (torch, 43653 bytes, 3 tensors)

embedding.weight f4 [52, 100]
00000000: bc8f 1c3f ece4 1b3f f4f7 353f 4172 2b40
00000010: b42b a23f 4ce2 1ebf 308d aebc d129 073f
00000020: 3aa3 3abf 6ecd c43f 220c 2b3e 5ea6 9dbf
00000030: 5d77 3b3e 1d7a 2d3f a009 e1be 3c9f e0bf
00000040: 2fe3 b83f e7b1 8dbf 1b2a 54bf 37cb 7e3f
00000050: d148 52be 9c86 5c3f 5221 9c3e 71b1 c6bf
00000060: f36d 1fbf 4db2 abbe cd7b afbf 209e 76be
00000070: f3b0 d03f 6e39 a53e a5ca f73e c136 a7bd
00000080: a3ee 2340 c03b 86bf 4726 133f ac7b 403f
00000090: cb98 8abf 0300 71bf 3d3b 833e e1dd dabf
000000a0: b42e 2e3e 0b66 ecbe 815e b5be c090 99bd
000000b0: fc16 233f 0845 90be 7a51 7dbe 3de5 bdbe
000000c0: c6f1 453f 7b2d 13c0 e05d 98bf 19bf d33f
000000d0: 1915 3b3f c15e ad3f 3451 a53f 84e0 60bf
000000e0: b01d acbf d414 023f 5217 78bf 1729 a9bd
000000f0: 3ac2 903f b437 99bd ff1a 943f 5b1b 38bf
00000100: 70f3 10be aebc 323f 4ff9 86bf f9aa 42bd
00000110: 4449 cb3f 35bf 05bf fb59 dd3f 4dc1 3f40
00000120: ca53 b13f cc19 89bf af33 4e3f 29ce f23e
00000130: 4d4a 3e3f ed94 4b40 c486 0840 ebf3 80bf
00000140: 88d3 40bf 0554 56bf 2b9b cb3f 77d7 d63d
00000150: 74a2 72bf ac4f c7be fadf 223f aebb 773f
00000160: 07b2 4f40 b40f 17c0 5001 66be 83a6 4bbf
00000170: f907 b43e 9b42 9ebf cf72 bb3f 43c6 703f
00000180: c1b4 f33e d79b e3bf 1a39 153f 6621 aebf
00000190: 2cbd d13f 72fb 0340 2d31 9c3f fd17 a53e
000001a0: 9e68 5f3f 0b0d 28be 8990 12bf e528 b93e
000001b0: 36b8 59bf 93f9 d2be ef29 bd3d acf9 b53b
000001c0: 2c54 9cbe ae0b 143f aa47 963f 3f45 db3e
000001d0: 2911 78bf e7ef 673f 7803 1c3f 2135 03bf
000001e0: 816c 193f 02dc 51bf 3027 c6be 92bd b03f
000001f0: 1b3b 20bf fb5c 72bf 6055 733f b996 0dc0
00000200: 4763 0dc0 6348 d03f ff04 3dbf d2d0 d1bf
00000210: 4429 9f3f 9db0 0cbf 01ea 983f 8a25 29be
00000220: 19c5 5c3f 62f6 1540 3556 03c0 c4bb 01c0
00000230: 7272 2f3f 7615 9fbe a7b5 ddbf 5f0f 5bbd
00000240: 3e02 d53f 5b69 273c 2890 b33f 5a14 64c0
00000250: 56c2 ad3f 1883 b6bf 6d36 a9bf 2479 8e3f
00000260: a94c 8fbf 7716 6b3f 65c2 6dbf 3d7b 1240
00000270: 8937 f4be f72d bcbe 003b 2dbf fea0 b5bd
00000280: 645e 5f3f bffb ed3e 9aba cd3f 891f 4abf
00000290: 6208 6fbe fae4 b4bf 6c94 04c0 5fa7 0d3f
000002a0: 9e2a 103f 7cc5 9dbf 0dc3 7ebe 07bd fb3e
000002b0: 1a1e 0540 7345 2d3f a81f 373e 71e6 f23f
000002c0: dff9 1c3f b2c0 34bf b3d7 07c0 aac8 9d3f
000002d0: 7cad 51bf 18fc c13e 8397 433f b094 90bf
000002e0: a486 603f 8f40 263f 042f 07c0 8056 4b3f
000002f0: 65cf 883f 9166 023f ba8f b8bf cc92 81be
00000300: 0146 413f 5dea 1cbf 0d56 f9bf e07e f63e
00000310: b282 84bf 4e79 9dbf 2eee dc3f cc60 8f3f
00000320: 742c 9e3f ed65 26bf 663f 833f 33ed 803f
00000330: 9808 263f d8f7 9b3b 9754 42bf ea4e 2abe
00000340: 56da f7bf f725 3c3f a69f 183f cba2 813e
00000350: 4d7a 1bc0 6f70 5f3f c42d 7fbf fd1c a2bf
00000360: 4fd9 cf3e 77fe 15bf 04e9 34c0 f54a 0440
00000370: 1030 9abf 856d 70bf 8d96 62bf 3a5d 9f3e
00000380: 1bbe 9c3e 554d fabc c624 34bf 3c2e 4c3e
00000390: f757 513f c51f 293f 99ca 0340 e142 83bf
000003a0: 62da 97bf d7ac 20c0 93ef 62bf 576f 7d3f
000003b0: 432e f2bd 8b87 243f 120d bfbe 9579 a3be
000003c0: 8808 6cbe d396 eabe a19f b2bd 592b 91bf
000003d0: 8c0f 51bf f508 6abf a094 493f 382f 02bf
000003e0: 8edf b13f a168 e8be 92dc 01bf d0d9 92be
000003f0: ec77 15bf 7a0b a63f 6440 57bf 2a22 bd3e
0.6115682 0.6089618 0.7108147 2.6788485 1.2669587 -0.6206405 -0.021307558 0.5279818
-0.72905314 1.5375192 0.16703847 -1.2316396 0.18307252 0.67764455 -0.43952656 -1.7548594
1.4444331 -1.1069916 -0.8287675 0.9952883 -0.2053559 0.861429 0.3049417 -1.5522901
-0.62277144 -0.3353447 -1.3709656 -0.24083757 1.6304001 0.32270378 0.48396793 -0.0816474
2.5614402 -1.0486984 0.5748028 0.7518871 -1.0827879 -0.9414064 0.25631133 -1.7098962
0.17010003 -0.46171603 -0.35423663 -0.07498312 0.63706946 -0.28177667 -0.24738112 -0.37088957
0.7732204 -2.299651 -1.1903648 1.6542693 0.7307907 1.3544542 1.2915406 -0.87842584
-1.344656 0.5081303 -0.96910584 -0.082597904 1.1309273 -0.07481328 1.1570739 -0.7191674
-0.14155364 0.6981915 -1.0544833 -0.047526333 1.5881734 -0.52244884 1.7293085 2.9961731
1.3853695 -1.0710998 0.8054761 0.47422913 0.74332124 3.1809647 2.1332254 -1.0074438
-0.7532277 -0.83721954 1.5906729 0.104903154 -0.94779134 -0.38927972 0.6362301 0.9677075
3.245241 -2.3603334 -0.22461438 -0.7955095 0.35162333 -1.2364076 1.4644412 0.94052523
0.47598842 -1.7781934 0.58290255 -1.3603942 1.6385856 2.062222 1.2202507 0.32244864
0.8726901 -0.16411225 -0.57251793 0.36164013 -0.8504671 -0.41206035 0.09236514 0.005553445
-0.30532968 0.5783032 1.174062 0.42826268 -0.96901184 0.90600437 0.6094279 -0.51252943
0.5993119 -0.8197633 -0.38701773 1.3807852 -0.6259019 -0.94673127 0.95052147 -2.2123244
-2.2091844 1.6272091 -0.7383575 -1.6391852 1.2434468 -0.5495699 1.1946412 -0.16518226
0.8623825 2.343163 -2.0521367 -2.0270853 0.68534005 -0.3107106 -1.7321061 -0.053481456
1.6641309 0.01021799 1.4028368 -3.5637422 1.3574932 -1.4258757 -1.3219734 1.1130719
-1.119527 0.91831154 -0.9287475 2.2887719 -0.4769862 -0.36753818 -0.6766815 -0.088685974
0.87253404 0.4648113 1.6072571 -0.7895437 -0.23343042 -1.4132378 -2.071559 0.55333513
0.5631503 -1.2325892 -0.24879093 0.49167654 2.0799623 0.67684096 0.1788317 1.8976575
0.61318773 -0.7060653 -2.1225402 1.2326863 -0.8190534 0.37887645 0.76403064 -1.1295376
0.87705445 0.6494226 -2.1122446 0.79428864 1.0688292 0.50937754 -1.4418862 -0.2530731
0.7549744 -0.6129511 -1.9479386 0.48143673 -1.0352385 -1.2302644 1.7260187 1.1201415
1.2357316 -0.64999276 1.0253723 1.0072387 0.64856863 0.00475977 -0.75910324 -0.16631666
-1.9363506 0.7349543 0.59618604 0.25319514 -2.4293396 0.87280935 -0.9967921 -1.2665097
0.4059548 -0.5859141 -2.8267221 2.067075 -1.2045918 -0.93917114 -0.8851097 0.31125814
0.3061379 -0.030554453 -0.7036861 0.19939512 0.8177485 0.660641 2.0592406 -1.0254785
-1.186352 -2.5105493 -0.8864681 0.98998016 -0.1182523 0.6426932 -0.3731466 -0.31928697
-0.2305013 -0.45818195 -0.08721853 -1.1341354 -0.8166435 -0.9141992 0.7874241 -0.508533
1.3896348 -0.45392326 -0.5072719 -0.28681803 -0.5838611 1.2972252 -0.8408263 0.36940128

linear.weight f4 [52, 100]
00000000: 05ac 883e 7324 eabc cdaf 4dbe b8e2 57be
00000010: b917 9d3d 6360 823e a549 993e 7bdb 883d
00000020: 3964 69bd b1b5 8c3e 6bc2 fb3c 0a25 b7be
00000030: e070 183e 0ce2 2a3e bbfc b5bd d1ac 483e
00000040: c042 f13d 92f1 053e 0787 803e 9549 163b
00000050: fe08 c6bd 33f5 583e 3734 88bd 5914 ae3d
00000060: d6f3 593e b876 40be 7ba6 4c3e b3ee 7bbe
00000070: 7097 63be 7d38 a2bd 1248 21be afa8 2e3e
00000080: 6485 35bf 651c 023d 785a 8cbe 5525 f4be
00000090: 2200 803e 2954 d5bc ab3b 92be 09e6 ae3e
000000a0: 6d43 843e 673e 9cbe 81d5 fa3e a0a9 743e
000000b0: adad 413e 2e09 9f3e 92ac 173c 4cfa 6f3d
000000c0: 0c3e 9fbc 822d 27be 3604 c33d bbf1 bbbd
000000d0: ea75 b0bd 41b5 57be 9c44 c0be e242 8b3e
000000e0: 1122 1bbd fa0f 62be 7e50 933d d180 b83e
000000f0: 6660 88be 0bc3 a9be 67da aebe a51b 033e
00000100: a6ed 2bbe 4f22 8b3d 9103 0fbe adf5 363e
00000110: 19fa 32bd 51bb 68be 7ed8 5bbe 5e9c 96be
00000120: a5c9 b93e 346c ebbd b83a 1abe 60ee 53bd
00000130: ce31 a9be e46b 6cbe c25c 723d edad 23be
00000140: ce5f 8b3e 716e 963e 7348 f8be 8b4f 923e
00000150: ec88 483e 107d 8b3e c15b 113e 1ae4 ab3e
00000160: 4e66 f5bd adcc 4c3d 24a3 c9be c22a 0e3e
00000170: 4c4e 9abe 9de3 07bd c42d c33e 2467 b43e
00000180: 1ecb 56be db79 39be 7899 cebd 79c8 99be
00000190: c759 5bbd 14b8 efbe 6fa5 5ebe 12e2 b63d
000001a0: 5f44 ebbd 68bc 283e 65b5 003f e005 a63d
000001b0: 303b a7be 7d11 81be 09a1 113f 7e25 87be
000001c0: 2075 fc3c 32b9 a8bc 8a81 713e bd75 a73d
000001d0: fdd2 13be 852c 393e ef29 37be 9cd3 f4be
000001e0: b245 783e 6a7a 41be 1c10 7bbd 3ab7 d5bd
000001f0: 4f9a 7e3e d138 92bd 6caa 533e 474b bd3d
00000200: d096 993c 470c 23be c42b febe 3df9 6a3e
00000210: 8c7c c2be 3ce1 21be 1c47 853e e525 14bf
00000220: 0dbd 693e 5b77 42be ff70 963e 7c62 9abd
00000230: a119 29be af8e 403e 345c 0ebe 4ed9 ab3c
00000240: 7990 77be 47c1 1abe 2929 06be 38a3 3a3e
00000250: 70b9 c3be 7415 90bb b248 9a3e 09ad 22be
00000260: 84c8 8bbe a302 9f3e b8e0 643e da99 99be
00000270: be9c 5f3e a733 993e a37a 35be 56f3 5e3e
00000280: 2e2a 293e a43d 4d3d a0c0 49be 6b72 ce3e
00000290: 43fd 973e af52 13be 1f0b 113f 447f 1a3e
000002a0: f154 cc3d 6e6b 8ebc b900 2dbc ad36 033c
000002b0: d5dd a33d 2eee 8e3e 6945 9bbe c0a5 953e
000002c0: 0c20 ad3d 968e 593d b95d dbbe c8aa 3ebe
000002d0: c579 403e 3746 d23d 1502 29be 65dd 313e
000002e0: 895d 873e 4708 893e fd44 84be 7325 b53c
000002f0: db7e 24be 4522 8b3e d801 a53e d664 bebe
00000300: d221 3bbd 9253 083f b1db ab3e b7e1 f03d
00000310: c2cf adbe 1481 e0bd 5acc 973a 810b b33e
00000320: 8701 7cbe 6ab4 c73d 31f1 8a3e e5df 8ebe
00000330: 9e6e a0be 8a5f 5abe 550e a93e 4bb1 97be
00000340: 4b61 493e 43f9 733d 5874 c2be eaa1 613e
00000350: 791a 563e 2e8e c9be 1c99 5a3e 5a34 1f3d
00000360: 5220 2d3e 0fe0 993e dec1 31be ea43 d03d
00000370: 4dac eebd 842c 83be 3de2 10bd cd96 433e
00000380: 9b9e 21be f48b 73bd 679f 2dbe 62c3 173e
00000390: a921 b8be e90a d6bd 1cf7 93be dd39 7a3e
000003a0: f3ce fcbe 2302 743e c225 6cbe 5c0d 1e3e
000003b0: d104 6f3e 6d33 db3d 6bfa 9ebe 4346 18be
000003c0: 2804 ec3c fb40 633d ed62 903e 79e2 ce3e
000003d0: 5830 90be 51c5 293f d7a1 9ebc 9b71 103e
000003e0: 101f 593e 6dfd bc3e 4c20 9dbe f1b9 893e
000003f0: 4cf7 64be 71b2 9c3e 2507 adbd 67fa debe
0.2669374 -0.028581833 -0.20086594 -0.2108258 0.0767054 0.25464162 0.29939 0.066824876
-0.056980345 0.2748237 0.030732354 -0.35770446 0.14886808 0.16687793 -0.08886095 0.19597174
0.1178031 0.13080433 0.25103018 0.0022932042 -0.09669684 0.21187286 -0.06650584 0.08499975
0.21284422 -0.18795288 0.19985382 -0.24602775 -0.22225738 -0.079209305 -0.15750149 0.17056535
-0.7090666 0.03176536 -0.27412772 -0.47684732 0.250001 -0.026041107 -0.28561148 0.34159878
0.25832692 -0.3051636 0.48991016 0.23892832 0.18913908 0.3106169 0.009257453 0.05858831
-0.019438766 -0.16325954 0.095222875 -0.09176966 -0.0861624 -0.21065237 -0.37552345 0.27199465
-0.037874285 -0.22076407 0.07193087 0.3603578 -0.26636046 -0.33156618 -0.34151003 0.12803514
-0.16789874 0.06793653 -0.13966204 0.17867155 -0.043695543 -0.22727706 -0.21469304 -0.29416174
0.36286655 -0.114952475 -0.15061462 -0.051741004 -0.3304581 -0.23088032 0.059170492 -0.15984316
0.2722153 0.29381135 -0.48492774 0.2857631 0.19583482 0.27243853 0.14195158 0.33572465
-0.11982404 0.04999988 -0.3938228 0.13883498 -0.3013786 -0.033176053 0.38120854 0.3523494
-0.2097592 -0.1811289 -0.100878656 -0.3003576 -0.053552415 -0.46820128 -0.21742795 0.08929838
-0.1148765 0.16478121 0.50276786 0.08106589 -0.32662344 -0.25208655 0.56886345 -0.26395792
0.030817568 -0.02059612 0.23584571 0.08176754 -0.14435954 0.18083389 -0.1788709 -0.47817695
0.24245337 -0.18894354 -0.06129466 -0.10435338 0.24863552 -0.07139743 0.2067048 0.09242874
0.01874867 -0.15922652 -0.49642766 0.2294664 -0.37985647 -0.15808576 0.26030815 -0.5787032
0.22826023 -0.18990843 0.29383084 -0.07538316 -0.16513683 0.1880443 -0.1390236 0.020977642
-0.24176206 -0.15112792 -0.13101639 0.18226326 -0.38227415 -0.0043970887 0.30133587 -0.1588632
-0.2730142 0.310567 0.22351348 -0.30000192 0.21837136 0.2992222 -0.17722563 0.21772513
0.16519997 0.050107613 -0.19702387 0.4032167 0.2968541 -0.1438701 0.56657594 0.1508761
0.09977139 -0.01738521 -0.010559254 0.008008641 0.080012955 0.27916092 -0.30326393 0.2922802
0.08453378 0.053114496 -0.42844942 -0.18619835 0.18796451 0.10267299 -0.165047 0.17369612
0.2643855 0.26764128 -0.25833884 0.022112584 -0.16064017 0.27174583 0.3222797 -0.37186307
-0.04568655 0.5325252 0.3356605 0.11761802 -0.3394757 -0.1096212 0.0011581287 0.34969714
-0.24609958 0.09751208 0.2713714 -0.27905193 -0.31334394 -0.21325508 0.33018747 -0.2962745
0.1966602 0.059563886 -0.37979388 0.22034422 0.20908536 -0.39366287 0.21347469 0.038868286
0.1690686 0.30053756 -0.1735911 0.101692036 -0.116539575 -0.256199 -0.035372008 0.19100495
-0.1578316 -0.05945964 -0.16955338 0.14820626 -0.3596318 -0.104513 -0.28899467 0.24436136
-0.4937664 0.2382894 -0.23061278 0.15434784 0.23341681 0.10703168 -0.3105043 -0.14870553
0.028810576 0.055481892 0.28200474 0.4040716 -0.28161883 0.66316706 -0.01936428 0.14105837
0.21203256 0.369121 -0.30688703 0.26899675 -0.22359961 0.3060489 -0.08448628 -0.43550417

linear.bias f4 [52]
00000000: ac30 b5bd 102d 9ebc 2bdf 03be 56e4 ce3d
00000010: 33c3 25be eda7 abbd 2881 88bd 2bfd c1bc
00000020: af21 583c b5af 14bd bc00 403e 0fa8 38bd
00000030: fe78 21be 5800 bebc 6c19 163e 01d3 2dbd
00000040: e330 cabb ebcd 003d cdff 1a3d 2bbc 22be
00000050: e77b fe3c e44c 8f3d 6878 1bbd 58b9 1cbc
00000060: 542b 4e3d e64e b8bd 99ba 15be c000 8cbd
00000070: c84d 07be e406 0dbc 1678 bf3d 4897 17be
00000080: a82a bdbd ed97 713e d8cf 113c add3 823d
00000090: 49af cebd cfb1 603e bb15 00be 5754 b1bd
000000a0: e5c8 a3bc 81e9 9ebc a896 5a3d a7d1 c4bd
000000b0: 5670 8cbd 2a64 f6bd b5fc 073e 5cf9 123a
000000c0: 7de5 48bc 2810 ebbd 2ba1 62bd f02e 2fbd
-0.08847174 -0.019308597 -0.128781 0.101021454 -0.16187744 -0.08381639 -0.066652596 -0.02368029
0.013191625 -0.03630038 0.1875028 -0.04508215 -0.15768811 -0.023193523 0.14658135 -0.042437557
-0.0061703785 0.03144638 0.037841607 -0.15892093 0.03106494 0.069970876 -0.037956625 -0.009565674
0.05033429 -0.08999424 -0.14621963 -0.068360806 -0.13213265 -0.0086076 0.093490764 -0.14803803
-0.09236652 0.23593111 0.0088996515 0.0638803 -0.10092027 0.21942829 -0.1250829 -0.08658665
-0.019993255 -0.019398453 0.053366333 -0.096103005 -0.06857364 -0.120308235 0.13279994 0.00056066155
-0.0122617455 -0.11477691 -0.055329483 -0.042769372
