Assignment_2/Task1/GRU_GloVe.pth (torch, 754772 bytes, 10 tensors)

gru.weight_ih_l0 f4 [384, 100]
000000 d0 81 fa 3c 60 f2 56 3d 94 22 3d 3c fd ab 01 be
       0.030579478 0.05247724 0.011543889 -0.12663265
000010 91 eb 61 3d 4c 34 f7 3c bb 34 5c 3c dc 04 db 3d
       0.055156294 0.030176304 0.013440306 0.10694286
000020 8e 16 98 3c 8f a5 10 be 37 97 a7 bd 5a f1 56 3d
       0.018565442 -0.14125656 -0.08183139 0.052476265
000030 6a 4a 9e bc 60 01 c5 bd 5b 18 0b bd ea 1a ed bb
       -0.019322593 -0.09619403 -0.033958774 -0.0072358744
000040 fc 1d 50 3b ac 45 f3 bb 9b b8 d4 bc 13 67 85 3d
       0.0031756153 -0.007424077 -0.025966933 0.065138005
000050 79 ce ad 3d f2 74 e6 bd 39 47 2d 3d 9a 41 61 bc
       0.08486647 -0.11252774 0.04230425 -0.013748551
000060 83 77 ea bd 8a 2a 4d bb cf 4c 12 3e 78 cc f8 bd
       -0.11448576 -0.0031305873 0.14287113 -0.12148374
000070 94 8c 9c 3d f2 b7 16 be 4c 5d eb bd 07 bf d2 3b
       0.07644001 -0.14718607 -0.11492404 0.0064314636
000080 57 f4 bd bd aa 38 3d 3d 97 64 a9 3b 8e 23 44 bd
       -0.0927512 0.046196617 0.005169462 -0.04788547
000090 c7 05 c8 bd f8 92 14 3e d9 17 5d bc 3b 37 0f be
       -0.09766727 0.14509189 -0.013494455 -0.13985913
0000a0 9a fa 35 be 54 74 dc bc 42 9b 50 3d 30 eb 2b 3d
       -0.17771378 -0.026910938 0.050929315 0.04197234
0000b0 43 f3 e2 bc e2 b3 08 3d 1c 93 31 3d cc e3 21 bd
       -0.027703887 0.033374675 0.043353185 -0.039523885
0000c0 b0 f0 44 3d 41 02 cc bc ad 5d 04 be 86 67 e7 3d
       0.0480811 -0.024903418 -0.1292636 0.112990424
0000d0 38 bf 2d bd f9 65 1c 3e 2d 57 60 3d 1c 24 b4 3d
       -0.04241869 0.15273274 0.054770637 0.0879595
0000e0 3d e9 29 bd b9 35 07 be bb 9c 4e 3d ea f3 de 3d
       -0.0414822 -0.13204087 0.05044244 0.10886367
0000f0 c1 8a ea 3d e4 01 94 bd 9a 09 de 3d 8a 33 a6 3d
       0.114522465 -0.07226923 0.10841675 0.08115299
000100 33 80 51 3c 04 59 3a 3b ff 94 21 3d 8f fd 63 bd
       0.012786913 0.0028434405 0.039448734 -0.055661734
000110 89 97 f9 bd 79 b6 83 bc ae 94 67 bd 2e c5 bc bd
       -0.12187106 -0.01607822 -0.056538276 -0.092172965
000120 bf b2 78 bd ff 2c 11 bd 6c 8a 01 bd 86 bf ae bd
       -0.06071734 -0.035443302 -0.03162615 -0.08532624
000130 c8 91 9c bd ec 92 92 bc 50 04 40 bd 7f 14 f5 bd
       -0.07644993 -0.017892323 -0.046879113 -0.119668
000140 a0 f7 ba bd 90 b9 27 be a5 44 bd bb 59 12 7a bd
       -0.09129262 -0.1637938 -0.0057760053 -0.061052654
000150 b4 64 0f 3e d3 a0 98 3d 31 a6 21 be fb 7e c5 3d
       0.14003259 0.0745255 -0.15786053 0.0964336
000160 7c aa aa 3d fe ae 88 bd 50 4c 91 bd c4 61 d9 bd
       0.083332986 -0.06674002 -0.070946336 -0.106143504
000170 bd 6d fc bc 6e c8 3e 3d c1 cc 91 3d f0 b9 49 3d
       -0.030814046 0.046577863 0.07119132 0.04924959
000180 91 b2 fa 3d f2 7f a5 3d 9d 0d 83 bd ad b2 95 bd
       0.1224109 0.08081044 -0.06399081 -0.0730947
000190 0f 6d 49 bd fb 56 7f 3d af 54 b4 3d bc 02 2a bd
       -0.049176272 0.06233881 0.088052146 -0.041506514
0001a0 bd 3b cc bc 3c c9 3a bd fe 78 53 bb 74 8b a5 3d
       -0.02493083 -0.04560207 -0.0032268162 0.08083239
0001b0 82 0a 06 bd 08 9d 78 bb 21 f9 5e bd 69 80 63 3d
       -0.032724865 -0.0037935395 -0.054436807 0.055542383
0001c0 39 c6 37 3c 65 6e 20 3d 09 d1 bb bc ad 2a 26 bc
       0.011216694 0.03916778 -0.022926824 -0.010142011
0001d0 c1 62 23 3d 07 77 83 3c 83 2e b5 3c 80 66 94 bc
       0.0398891 0.016047968 0.022116905 -0.018115282
0001e0 dc 9c f0 bc 21 3b 3d bd 22 b8 ea 3d 74 a8 3b bd
       -0.029371671 -0.046198968 0.11460902 -0.045814946
0001f0 ff 08 cc ba a7 81 10 3e 20 7a a2 3d e4 54 8f bd
       -0.0015566646 0.14111958 0.0793345 -0.069986135
000200 91 fd bc 3d 94 da 8d 3b fa 0c 98 bd 2c 3e 2d 3d
       0.092280515 0.004329035 -0.0742435 0.04229562
000210 87 78 be bb ce 0b e7 bd 73 d3 cf bd 35 d2 87 b9
       -0.005812708 -0.112815484 -0.101477526 -0.00025905823
000220 59 9f 01 3e f9 68 e9 3d 85 54 c5 bd 82 f1 79 bd
       0.12658443 0.11396975 -0.096352614 -0.061021335
000230 b4 b4 65 bd bf 56 56 bd da 82 cf bd 7c f8 8d 3c
       -0.056080535 -0.05232882 -0.1013238 0.0173304
000240 72 cf 42 3d 91 36 14 bc eb 4b 91 bd e0 45 09 bd
       0.047561117 -0.009046213 -0.07094558 -0.033513904
000250 b7 5d f8 3c 63 ac a6 bb 1c 28 66 3d 28 7e 8c 3d
       0.030318124 -0.005086468 0.056190595 0.0686
000260 73 65 34 3d ad 84 aa 3d e7 05 a5 3d 0f 2e a3 bc
       0.044042062 0.08326087 0.080577664 -0.019919423
000270 40 60 d6 bd 77 99 b7 3d 86 55 3f bd 84 4b b6 bc
       -0.10467577 0.08964818 -0.04671242 -0.022252806
000280 2e 20 fb bb 67 5d f6 3c 83 a4 92 3d 08 ab 4e be
       -0.007663748 0.030073835 0.07160284 -0.2018243
000290 e8 e9 bf 3d 84 ab 0c 3e db 44 0b be f9 85 af bd
       0.09370786 0.13737303 -0.13600485 -0.08570475
0002a0 66 94 bc 3b 12 5a c8 bb 91 6f cc 3d 8f d1 8c 3c
       0.005754995 -0.006114253 0.09982217 0.01718977
0002b0 f9 69 70 bd 90 d1 8d 3d 66 a4 ef bd 31 17 4a bd
       -0.058694813 0.069247365 -0.117012784 -0.049338523
0002c0 d0 5c b4 bd 14 32 bb 3c 7f bb ca 3b ad 57 01 be
       -0.08806765 0.022851028 0.006186902 -0.12631102
0002d0 c6 39 8d 3c df ea 15 be 72 a2 7e bd 24 05 98 3c
       0.017239463 -0.14640377 -0.06216664 0.018557139
0002e0 16 c5 84 3d 26 d4 53 bc 76 8c 82 bc f2 cf f0 3d
       0.06482904 -0.012928998 -0.015936118 0.117584124
0002f0 a7 b4 ea 3d 94 6f 95 bd 7a 8d da 3c 4c 69 9c 3c
       0.11460238 -0.072966725 0.02667879 0.019093178
000300 83 2c 10 3d 76 02 74 bd e6 e0 d7 3a 7a 66 11 3d
       0.0351987 -0.05957266 0.0016470223 0.03549812
000310 4d f2 a6 bd c8 2e 3f bd 2b 11 80 bd 8e 9a da bd
       -0.08151684 -0.046675473 -0.062532745 -0.1067401
000320 3a e4 8c 3d 93 e8 42 bc 55 6c a6 bb a5 cc fc 3d
       0.06879468 -0.01189627 -0.005078832 0.1234372
000330 14 12 18 3d 36 99 bf 3d e9 bf 06 be 36 ef 90 3d
       0.037126616 0.093553945 -0.13159145 0.07076876
000340 5a 58 d4 bc 88 71 d4 3b c2 0a 96 3d 8e 4e 1e 3e
       -0.025921036 0.0064832605 0.07326271 0.15459654
000350 bb 29 17 3d e3 88 93 bd 28 11 b6 3c 5e b1 81 3d
       0.03690503 -0.072038434 0.022224978 0.06332658
000360 27 49 aa 3d aa cc d0 bd f3 70 7f 3d 7c 91 f1 3c
       0.08314734 -0.101952866 0.062363576 0.029488318
000370 e7 52 91 bc aa 17 22 bd ad af 8f 3d 89 6f aa 3d
       -0.017739726 -0.03957335 0.07015929 0.08322055
000380 4e 8d 21 3c 74 68 09 be ed 11 90 3c 26 f4 d8 3d
       0.00986035 -0.13418752 0.017586673 0.105934426
000390 c7 42 59 3d 17 66 80 bd 80 89 ba 3d 89 30 5a bd
       0.0530422 -0.06269472 0.09108257 -0.053268943
0003a0 c0 bd 14 3d e0 b0 02 3e 8c 61 ca bc 14 0a 85 bd
       0.036313772 0.12762785 -0.024704717 -0.06496063
0003b0 af e4 8b 3c fe 52 5b bd 34 bf 65 bd 4c 6d cb 39
       0.017076818 -0.053545944 -0.05609055 0.0003880061
0003c0 f6 e5 87 bc 8c 92 78 3d 5b b2 93 3c 08 7d 96 3d
       -0.016589146 0.060686633 0.018029382 0.073480666
0003d0 d6 2e 85 bd fd 1d 0a bc 1d 87 d4 3c a3 84 83 bd
       -0.06503074 -0.008430001 0.025943333 -0.06421783
0003e0 71 bf c6 bd 63 40 63 3d e7 1c 0c bd 8e 17 88 bd
       -0.09704483 0.055481326 -0.03420725 -0.06645118
0003f0 8e f9 01 3e 3a 5b f4 bb 99 4d 77 bc 1f 07 0f 3c
       0.12692854 -0.007457164 -0.015094184 0.008729725

gru.weight_hh_l0 f4 [384, 128]
000000 bb 21 3b 3d bd 3e 80 3d 2d 7d 2f 3d f1 a6 84 bc
       0.045686465 0.062619664 0.042843986 -0.016192885
000010 0b 90 8a bd c3 24 de 3c 67 49 43 bc 26 23 48 3d
       -0.06765755 0.027117139 -0.011919356 0.048861645
000020 9b bc 9f 3d d1 88 83 bb e0 f4 a4 bb 8a 7f 6f bd
       0.077996455 -0.0040141125 -0.005034074 -0.05847124
000030 95 10 3c bb bb e1 85 3d 7c 32 81 bd 1b 75 b3 3d
       -0.0028696407 0.06537195 -0.06308457 0.087625705
000040 99 bd 7e 3d 5d d5 1b 3b 02 17 b0 3d aa 4a 51 3d
       0.062192533 0.0023778297 0.085981384 0.051096596
000050 09 23 7b bc ba d6 61 bd e3 bd e5 3c 68 b3 03 3d
       -0.015328177 -0.05513642 0.028044647 0.032153517
000060 12 29 e4 bd 2c a1 7c 3d f4 17 6c bd 3a 7e 5d bd
       -0.11140646 0.061677143 -0.05764003 -0.054075457
000070 ae b8 32 bd 53 2b 00 3d 93 9c 4b bd bb 57 40 bd
       -0.043633156 0.031291317 -0.049709868 -0.046958666
000080 4d b0 9e 3d 26 03 6e 3d d5 85 60 bd 19 b9 74 bc
       0.077484705 0.05810847 -0.054815132 -0.014936709
000090 74 12 d3 3a b8 89 7e 3d 0d 5a 9e 3c 03 b8 00 be
       0.0016103522 0.062143058 0.019330049 -0.12570195
0000a0 9e a7 ac 3b 05 60 cf 3d 4d 6d 43 bd b9 d5 27 bd
       0.005269005 0.10125736 -0.04771166 -0.040975306
0000b0 49 dc e6 3c 8f 9e fb 3c c2 99 fd 39 f5 12 3f bd
       0.028181212 0.030715255 0.0004837048 -0.04664894
0000c0 44 4c ba bd c6 3f 65 3d ed 74 2d bd 0b f7 83 bd
       -0.09096578 0.055969022 -0.042347837 -0.06443604
0000d0 6c c4 a0 bd d4 01 88 3c 34 ec 65 bd 37 0e 09 3c
       -0.078499645 0.016602434 -0.056133464 0.0083652055
0000e0 82 bf 38 bd 35 7f 9c bd 5a 57 19 be a4 7a d6 ba
       -0.04510451 -0.0764145 -0.14974728 -0.0016363454
0000f0 cd 7d 71 3d 87 c3 aa 3d 79 03 c8 bd 33 ae 9b bc
       0.058957864 0.08338075 -0.09766287 -0.019003963
000100 69 71 9e 3d f3 0c 65 bd 6b ed 9f 3d be 0c 97 bc
       0.07736475 -0.055920552 0.07808956 -0.018438693
000110 4e d9 6f bd d4 4c 0a bd 28 a0 ba ba f4 e2 94 3c
       -0.058556847 -0.033764675 -0.0014238404 0.018174626
000120 fc ca 9e 3d 97 77 2d 3d 90 44 e9 bc 66 8c de 3d
       0.0775356 0.042350378 -0.028475076 0.108666226
000130 18 b2 8c bd 74 50 95 3d 34 08 75 bd 82 76 7e bd
       -0.06869906 0.07290736 -0.059822276 -0.062124737
000140 f4 60 66 bd 0c ed 59 3d ef 1e c0 bb d9 5e 49 bd
       -0.056244805 0.05320458 -0.0058630626 -0.04916272
000150 22 5e 21 3d 49 a6 b0 3d d6 d2 c7 ba 66 fb 9a bd
       0.039396413 0.086254664 -0.0015245329 -0.07567482
000160 0f 4f 85 3d e3 7e b2 bc 21 12 e9 3c 7d e1 5e bd
       0.0650922 -0.02178902 0.028451027 -0.05441426
000170 bb db e9 3d 67 70 01 bd 4e 3f ba 3c 00 68 91 3d
       0.114188634 -0.031601336 0.022735264 0.070999146
000180 5d 8f 14 3e 2d ae 0e 3d 62 55 c8 3d 6d b3 a6 bc
       0.14507814 0.034834076 0.097819105 -0.020349229
000190 16 5f 96 bc 8d c0 35 be 7b c9 e1 3c c0 b2 e1 3d
       -0.018355887 -0.17749234 0.027561894 0.11020422
0001a0 0c 47 6e bc de 02 91 bd ac 24 e8 bb bc 15 65 3d
       -0.014543306 -0.07080625 -0.0070844498 0.05592893
0001b0 48 17 c5 bd 8e cb 38 be 21 db d9 3d ea f0 c1 bd
       -0.09623581 -0.180464 0.10637499 -0.09469779
0001c0 b8 76 95 bc 19 fc eb bd 2b 1b 37 3d e1 04 ab bd
       -0.018245086 -0.11522693 0.044703644 -0.0835054
0001d0 9f 9d de 38 2f 03 69 bd 20 06 dc 3d 6a a2 ec bb
       0.00010615144 -0.0568878 0.10743356 -0.0072215097
0001e0 2e 0e c6 3d c4 e0 b7 bb 25 ba 7d bc f4 0f fa bb
       0.09670673 -0.005611511 -0.015486275 -0.0076312963
0001f0 22 13 d6 3d c7 dc 59 3c f6 86 29 bc b6 55 9a 3d
       0.10452868 0.013297266 -0.010347119 0.07535879
000200 55 56 d5 bd 62 40 2c bd 10 bd a0 3d 2b 94 66 3d
       -0.10416857 -0.042053588 0.07848561 0.056293648
000210 9f 02 93 3b 54 f5 12 bd 86 a3 7a 3d 8c 02 06 bc
       0.0044863964 -0.035878494 0.061191104 -0.008179318
000220 a9 62 be 3d 0b ad a6 3d 67 62 28 3c eb 51 ac 3d
       0.09296162 0.08138474 0.010277367 0.08414062
000230 43 01 8a 3c 06 03 4c bd fd be 86 bd ab 3c b0 3d
       0.016846305 -0.04980757 -0.06579397 0.086053215
000240 39 d8 d7 3d 27 de 18 bc 64 59 d0 bd 8f 44 9a bd
       0.10539288 -0.009330309 -0.101733 -0.07532608
000250 20 9d 7e 3d 3f 11 d9 bc 51 b2 15 bd b5 90 ab bd
       0.062161565 -0.026497481 -0.03654701 -0.0837721
000260 10 24 8c bd 65 6a 56 3c d0 f6 df 3d 28 33 f4 bd
       -0.06842816 0.01308689 0.109357476 -0.1192382
000270 1f 49 70 bd 90 85 eb 3b 75 b7 70 bc 21 7e c0 bd
       -0.058663484 0.0071875528 -0.014692177 -0.09399057
000280 74 d8 23 3e 4b fb 53 3d fd 4a 60 3d c8 ed 8c bd
       0.16000539 0.051753324 0.054759014 -0.06881291
000290 6e 55 14 bd c5 68 27 3d 4e 90 84 3c 7a a2 b6 bc
       -0.036214285 0.0408714 0.016182091 -0.022294272
0002a0 e2 1a 8e 3d 11 9f 02 3d 05 de 3c bd 5b c4 c6 bd
       0.06938721 0.03188998 -0.04611017 -0.097054206
0002b0 2a 3b 1e bd 97 f5 a9 bd da a1 60 3d 8c e9 05 3d
       -0.038630642 -0.08298796 0.054841854 0.03269343
0002c0 1f da bb bd 26 65 7c 3d d8 bc a7 bd c5 6a 15 bd
       -0.09172463 0.0616199 -0.08190316 -0.036478776
0002d0 cb 2b 9e bd 15 b1 75 bd 34 72 59 bd ac 53 97 bd
       -0.077231966 -0.05998333 -0.05308743 -0.07389006
0002e0 fd d8 c7 bd a4 cd 12 3d 2a 4d fd 3b ee 16 12 3d
       -0.09758184 0.035840645 0.007730146 0.0356664
0002f0 fa 55 87 bc 4b 37 be bb 3c 63 d9 bd c9 da 55 3c
       -0.016520489 -0.0058049313 -0.106146306 0.013052651
000300 49 13 c4 3d e4 d8 3b 3d 57 23 81 3a d1 b6 be 3d
       0.09573991 0.04586114 0.0009852451 0.09312213
000310 f5 4b ec 3d 08 52 e3 bc 52 25 8d 3d 67 56 aa bc
       0.11537925 -0.027749076 0.06891884 -0.020793153
000320 5f d8 6b bd f3 2b 96 3c 96 87 b0 bc d9 7e 39 3b
       -0.057579394 0.018331503 -0.021549027 0.0028304367
000330 d0 66 dd 3c 2c 2b 02 3c 4d 84 c9 3c a0 cd b2 bc
       0.027026564 0.007944863 0.024599219 -0.021826565
000340 bd 90 2b 3c bf 07 4b bd 1c 20 c6 3d bb 45 ed 3b
       0.01047152 -0.049567934 0.09674093 0.0072409785
000350 98 55 7a 3d 7d 5c 83 3d 8c 40 d4 bd d5 b1 bb 3c
       0.061116785 0.06414125 -0.10363874 0.022911945
000360 50 37 d3 3c 5e dc f6 3c c7 9d 6a 3c 64 96 0e 3c
       0.025783211 0.030134376 0.014319844 0.008702848
000370 7d ee 0d 3d fb b7 eb 3c f9 86 64 bc a8 63 b5 3d
       0.03465127 0.028774252 -0.013948196 0.088568985
000380 4c 44 85 3d be 23 3e 3d 88 8c ef 3c 68 c3 39 3d
       0.06507167 0.046420805 0.029241815 0.04535237
000390 89 dc 03 bd 16 d8 0b bc bc 40 1b 3d 12 86 18 bc
       -0.03219274 -0.008535406 0.037903532 -0.009309309
0003a0 c1 7c c6 3c a9 44 a0 bc 20 5c 17 3d 3c 17 cb bd
       0.02422941 -0.01956399 0.03695309 -0.09916541
0003b0 23 b7 44 bd 07 c6 53 bd 05 ab af 3d b2 58 54 3d
       -0.048026215 -0.051702525 0.08577541 0.0518424
0003c0 b6 c1 56 bd e1 bd bd bc 3a 6f 0b 3d 96 69 a9 3d
       -0.05243083 -0.02316183 0.03404162 0.08272092
0003d0 66 94 d3 3c 72 2d ac bd 20 ff 25 3d 2a d4 17 ba
       0.025827598 -0.084071055 0.04052651 -0.0005791808
0003e0 63 b8 c7 3d 05 99 6f 3d b1 d9 e5 3d ee 57 46 3d
       0.09751966 0.05849554 0.11223162 0.0484237
0003f0 69 d5 00 3e 7c 7b 7c bd 12 de fd bd be 95 1a bd
       0.1258141 -0.0616412 -0.12395872 -0.03774046

gru.bias_ih_l0 f4 [384]
000000 44 30 4d 3d 53 05 60 bd 00 53 9a 3c e5 08 d5 bc
       0.050094858 -0.054692578 0.018838406 -0.026005218
000010 2b 1b 9e bd 99 fa 33 bc 04 c8 c3 bb e7 ee b6 3b
       -0.07720026 -0.01098504 -0.0059747715 0.0055826786
000020 6f 65 29 3d 3c eb e9 3c 8a a9 7a 3d 05 45 85 3d
       0.0413565 0.028554551 0.06119684 0.06507305
000030 1b 77 88 3c 74 f6 c6 bc 31 65 39 3d 42 a9 3f bd
       0.016658356 -0.02428744 0.04526252 -0.046792276
000040 69 24 8b bd 37 94 48 3d 60 c0 e1 bd 2c 58 95 bd
       -0.06794054 0.048969474 -0.11023021 -0.07292208
000050 c9 b0 b0 3c 59 3d 2c bb c1 a0 00 3d 2f bf 10 bd
       0.021568673 -0.0026281683 0.031403307 -0.035338577
000060 01 20 08 3d 32 01 93 bb 7a 6a cf 3d f0 82 e0 3b
       0.033233646 -0.0044862265 0.10127731 0.0068515465
000070 ee a2 f0 3c a8 84 09 bc c2 d8 50 bd 9c 34 b4 3d
       0.029374566 -0.008393444 -0.050987966 0.08799097
000080 41 93 81 3c 34 8e 30 bc 0b ab 25 bd 04 5b 64 bd
       0.015817286 -0.010776091 -0.040446322 -0.05575086
000090 b9 bb cc 3d ab 2a 39 bc 83 c1 2e 3d 9a 49 72 bd
       0.09996743 -0.011301677 0.042665016 -0.059152223
0000a0 a2 74 c7 3d ec 95 a7 3d bc 8b dc bd 04 d3 7a 3d
       0.09739043 0.08182892 -0.1076884 0.061236396
0000b0 3b a6 ba 3d 15 fc bb 3c bf 30 8a 3c e2 8b f2 bb
       0.09113737 0.02294735 0.016868947 -0.0074019292
0000c0 1e 4e 52 bd ec 9c 95 3d 09 99 ff bc 64 20 f0 ba
       -0.05134403 0.07305321 -0.031200903 -0.00183202
0000d0 66 12 42 3d 59 c8 64 3d ea 1a cc 3b 62 74 9d bc
       0.047380827 0.05585513 0.0062287943 -0.019220535
0000e0 e1 c7 9f bd 7a 03 27 bd 00 71 22 3c 5a 98 a3 bd
       -0.07801796 -0.0407748 0.009914637 -0.07988043
0000f0 be db fe bc 55 6f 4b bd a6 49 7c bd f4 be 45 3c
       -0.03111064 -0.04966672 -0.061593674 0.012069453
000100 c6 5a 47 3c 29 70 7f 3c 9a ee d8 3c 9e 3f c8 3c
       0.012167638 0.015590706 0.026480962 0.024444398
000110 65 ee 38 bc 21 d0 8c 3d e2 0f 9b 3d 4c e0 87 bd
       -0.011287306 0.06875635 0.07571389 -0.06634578
000120 f9 09 af 3d 2c 3f a5 bc e1 e0 92 bd d5 56 c5 3c
       0.08546824 -0.020171724 -0.071717985 0.024089256
000130 a8 a8 33 3c 0c 88 66 3d 6b c6 93 3d 49 29 7b bd
       0.010965504 0.05628209 0.072155796 -0.06131867
000140 07 e0 7c 3b 45 c6 69 bc e2 21 1c bd ad 8c 2c 3d
       0.003858568 -0.014268463 -0.03811825 0.042126346
000150 b8 9d ca 3d 56 56 68 bd 97 8e 08 bc 31 7a f0 3c
       0.09893364 -0.05672296 -0.008334777 0.02935514
000160 fb 9f df bc 72 f4 ee 3c 21 ac 19 3d 3e de 68 bc
       -0.027297964 0.029169295 0.03751767 -0.014213143
000170 3a 09 9e bd 7a 19 a1 bd 2c 2e 9d bd f4 8c 22 bd
       -0.077166036 -0.078661874 -0.07674822 -0.039685205
000180 1c 98 c1 3d d9 6e 01 bd 05 a3 d7 3c 78 e0 41 3d
       0.09452841 -0.031599853 0.026322851 0.04733321
000190 ad 74 1d bd 31 db 95 3c 15 ca ab bd c5 f0 ca 3c
       -0.03844135 0.018292995 -0.083881535 0.024773011
0001a0 48 ba 21 bd 3e b9 2d bd 6c b3 93 3d 61 d6 a6 bd
       -0.039484292 -0.04241299 0.072119564 -0.08146358
0001b0 76 7b 85 bd 82 a8 14 bd 16 4b 99 3c be da 87 3d
       -0.06517689 -0.036293514 0.018712562 0.06633519
0001c0 f7 d3 8d 3d cd f0 77 bd 80 89 93 3d 07 ca 9b 3d
       0.06925195 -0.06053238 0.072039604 0.07606893
0001d0 1b a0 a6 3d 1b e4 05 bd ef 73 27 bd d4 3f 6a 3c
       0.081360064 -0.03268824 -0.040882047 0.014297444
0001e0 df c3 c9 bc 5f d2 18 bd 79 fe 69 3d 93 ec 33 3c
       -0.024629531 -0.03731 0.05712745 0.010981697
0001f0 54 92 c9 3a 55 7a d6 3a 12 ed 27 3d 66 36 c7 3d
       0.0015378692 0.0016363362 0.040997572 0.097271726
000200 c7 3c 59 bc 88 67 03 3d 99 05 3b bd 21 ec 06 be
       -0.013259119 0.032081157 -0.045659635 -0.13176014
000210 ed 06 b3 3b 2b 32 bb bd bd 1f ff 3d d7 19 bd 3a
       0.005463472 -0.09140428 0.124572255 0.0014427257
000220 f4 df 32 bd 1e e3 ce 3c da e7 83 3d 28 49 88 3c
       -0.04367061 0.025254782 0.064407066 0.016636446
000230 8f c0 39 3d f4 ce d9 bd a4 ee ce bd cd 56 b3 3c
       0.045349654 -0.10635176 -0.10104111 0.021891976
000240 bd fc 80 bc 05 d0 c0 bd 0f 68 a5 bd 8a ff 5e 3c
       -0.015745515 -0.094146766 -0.08076488 0.01361073
000250 32 45 d5 bd b4 25 31 3c c2 77 57 3d 07 49 10 3d
       -0.104135886 0.010812212 0.052604444 0.035225894
000260 5a be 89 3d 57 22 66 bd d1 53 20 bd c4 25 9a bd
       0.0672576 -0.056185093 -0.039142434 -0.075267345
000270 1a d6 70 be f9 34 20 be 05 85 62 bd 0b b9 8f bd
       -0.23519173 -0.15645207 -0.05530264 -0.07017716
000280 52 db 5b be 35 a9 9b bd b4 03 e2 bb af 31 9c bd
       -0.21470383 -0.07600633 -0.006897414 -0.07626664
000290 5e 2d dc bd d3 92 aa bd 48 d4 27 bd c7 b9 8f bd
       -0.107508406 -0.08328786 -0.04097393 -0.07017856
0002a0 ab 98 c1 b9 3c 09 12 be 69 c1 eb bd 90 2e 3f bd
       -0.00036925575 -0.14261335 -0.115114994 -0.046675265
0002b0 12 90 5d 3d dd 81 9c bc 11 3c a4 bd 34 26 b3 3c
       0.054092474 -0.019104892 -0.08019269 0.021868803
0002c0 a9 18 84 bd 83 b7 49 3d e8 3c 89 bd 68 20 71 bd
       -0.06450016 0.049247276 -0.0670107 -0.058868796
0002d0 73 04 b2 3d 08 51 bc ba 4a dd 1a bd 43 02 15 be
       0.08692255 -0.0014367411 -0.037808694 -0.14551644
0002e0 71 f3 b3 bc 27 e2 91 bd e5 7d 68 3c 26 91 b2 bd
       -0.021966668 -0.07123213 0.014190172 -0.08719091
0002f0 66 7f 96 bd 84 0d 0e bd 59 02 fc bd 59 34 be bd
       -0.07348518 -0.03468086 -0.12305135 -0.09287328
000300 59 66 0c 3d fd a3 0b bd bc e0 5c bd f3 8f 93 bd
       0.034277294 -0.03409194 -0.05392526 -0.072051905
000310 de d9 3d bd b5 0e 55 3d 72 27 80 bd e7 8d 91 bd
       -0.046350352 0.05201598 -0.062575236 -0.07107144
000320 a5 bd ab bd 09 29 a9 bd 66 82 d6 3c eb b3 03 be
       -0.08385781 -0.0825978 0.026185226 -0.12861602
000330 a2 77 9b bd 56 58 e7 bc a7 47 36 bc 84 f9 8a 3d
       -0.075911775 -0.028240364 -0.011125482 0.067858726
000340 73 28 5c 3d 66 31 8b 3d 26 f2 81 bd ad c9 8b 3d
       0.053749513 0.067965314 -0.06345014 0.06825576
000350 e2 6a d5 3d cd cb 0d be fe 9d ea bd fe 9a 73 bd
       0.10420777 -0.13847275 -0.11455916 -0.059473984
000360 da 49 3b 3b 04 96 8b 3d df a4 2f be 51 a9 03 3d
       0.0028577955 0.068157226 -0.17152737 0.032143895
000370 0f 53 ea 3d bf fe d1 bb 5e 3f e6 bd dd 3b 79 bd
       0.114416234 -0.006408542 -0.11242555 -0.060848106
000380 6d ad a1 bd d5 7c 1d be 1b fd d8 bd e7 d9 62 bd
       -0.078944065 -0.15379651 -0.10595151 -0.05538359
000390 11 8d 12 bd 19 a6 a4 bd 60 86 c9 3d c6 bf d1 bd
       -0.035779063 -0.08039493 0.09840083 -0.10241656
0003a0 4d 31 2b be 1a ea f6 ba f9 61 d4 bd 24 e5 0d bc
       -0.16718026 -0.0018838078 -0.10370249 -0.008660588
0003b0 03 0a 5a 3d c3 d3 7d bd 48 d4 8f bd 70 b6 e9 3c
       0.053232204 -0.06196953 -0.07022911 0.028529376
0003c0 aa e7 62 be cb c4 53 3d 17 73 58 bc 50 c0 8b bc
       -0.22158685 0.05170135 -0.013211033 -0.017059475
0003d0 8c 35 05 be 06 3e 60 3d fb 0f 15 bd 6e 32 fe 3c
       -0.13008708 0.05474665 -0.036392193 0.031029906
0003e0 ad 76 12 bb da 9d 29 3a ee 39 4d bd 6b 22 e7 bc
       -0.0022348568 0.000647036 -0.050104074 -0.028214654
0003f0 15 b5 82 3d ed 86 84 bd af 98 4d bd 64 10 e9 3c
       0.06382195 -0.064710476 -0.05019444 0.028450198

gru.bias_hh_l0 f4 [384]
000000 9f a0 f4 3c fb 23 aa 3c 9b 69 91 3b 62 d5 36 bd
       0.029861746 0.02076911 0.004437638 -0.04463709
000010 52 4a 2a bd 3a 14 ef bb c3 a4 6e bd 58 99 05 bd
       -0.041574784 -0.0072961124 -0.058262598 -0.032616943
000020 47 4a 42 bd 3d f4 57 3d 57 4b 51 bd 21 72 4d bd
       -0.047434118 0.05272316 -0.05109724 -0.05015767
000030 21 5e ba bd 2a db 84 3c c3 1a 45 3d 41 64 8f bd
       -0.09099985 0.016217787 0.048121225 -0.07001544
000040 a7 34 92 bc 09 a4 42 bd cc e0 fc bc e9 f9 ea bc
       -0.017847372 -0.047519717 -0.03086891 -0.02868362
000050 6f 74 4b bd ae be 90 bd 7c 88 51 3d 83 81 33 bd
       -0.049671587 -0.07067619 0.051155552 -0.043824684
000060 e0 59 30 bd 6f ea bc 3c ea c5 4d bd 61 47 b9 bb
       -0.04305446 0.023061005 -0.050237574 -0.005654261
000070 1e b6 b0 3d 52 6a 26 3d bb e4 c2 3d ca 08 c9 3d
       0.08628486 0.04062874 0.09516283 0.098161295
000080 2a 95 fe 3c 54 b0 ac bd 1c 01 31 3d 24 cf 6c 3c
       0.031076986 -0.084320694 0.04321395 0.014453683
000090 4f f4 69 3b 75 6d 6a bd 32 70 5e 3d 74 ab 31 bd
       0.0035698598 -0.057233293 0.054306217 -0.0433764
0000a0 c6 60 7a bd 46 41 02 3d e5 4b 8b bd 91 a6 c3 bc
       -0.061127447 0.03180053 -0.06801585 -0.023883136
0000b0 67 61 80 bd 61 32 67 bd a3 30 19 3c f2 73 f8 bc
       -0.06268578 -0.05644453 0.009349975 -0.030328725
0000c0 50 43 04 bc 1d b1 b6 3b 02 cb 16 3c 2b 19 a0 3d
       -0.008072689 0.005575313 0.009203674 0.078173004
0000d0 cb 82 1e bc 35 23 d7 3d 0b 53 8c 3d f7 1a f7 ba
       -0.009674738 0.10504762 0.06851777 -0.0018852641
0000e0 41 e0 06 3d 65 3e 78 bd 91 54 a1 3d 9a 9d 81 3d
       0.03292871 -0.06060638 0.07877458 0.06328888
0000f0 c6 00 5e 3d 49 0f 01 bd 64 79 e2 3a c1 29 8b 3d
       0.054199956 -0.031508718 0.0017278609 0.06795073
000100 fd 36 22 3d fd 16 51 3c 60 98 5e 3d ba e1 8c 3b
       0.039603222 0.0127618285 0.054344535 0.0042993696
000110 63 9c f0 bc ee d8 9d 3c 67 95 a6 3d ed d3 53 bd
       -0.029371446 0.01926848 0.08133965 -0.05171578
000120 56 e6 bf bc 70 29 62 3c 9c 3f d0 3c d5 66 92 bd
       -0.023425262 0.013803825 0.025420956 -0.0714852
000130 0f 37 36 bd e3 74 2b bc 31 84 e6 bc 07 75 4f 3d
       -0.0444861 -0.01046488 -0.028139206 0.050648715
000140 2b d3 84 3d e5 e8 80 3d dc d3 86 bd 86 a5 dd 3c
       0.064855896 0.06294421 -0.06583378 0.027056467
000150 bb 1b bb 3d 8f bb b9 bc 92 77 08 bd 0a fb 74 bd
       0.091361485 -0.022672443 -0.033317156 -0.059809722
000160 80 e8 97 3d f8 67 77 3d 36 25 08 bd e2 97 c3 bc
       0.07417393 0.060401887 -0.033238612 -0.023876134
000170 24 71 1d 3d 22 6b 91 bd 34 9e 21 bd 4a 50 64 3d
       0.038437977 -0.07100512 -0.039457515 0.055740632
000180 82 35 ba 3d 2a 27 9a 3c 39 04 25 bc 61 fd a9 3d
       0.09092237 0.018817503 -0.010071808 0.08300281
000190 16 19 a2 bd 4c 54 3f 3c 20 89 4a bc 71 25 a1 3d
       -0.07914941 0.011677813 -0.012361795 0.078684695
0001a0 8e c4 97 3d fe 03 04 bd 11 d2 22 3d f4 56 64 bc
       0.07410537 -0.03223037 0.039751116 -0.013936747
0001b0 d0 29 2c bd aa 51 40 3d 90 f1 94 bd 4d 9d a7 3d
       -0.042032063 0.04695288 -0.07272637 0.081842996
0001c0 01 58 26 3d cb 2a c8 3c 19 07 98 3d 29 97 45 bd
       0.04061127 0.024434468 0.07423229 -0.04823986
0001d0 af 5c 96 3c 83 6a b3 bd 12 56 a3 3d 9f 08 3e 3d
       0.018354742 -0.0876055 0.07975401 0.04639494
0001e0 3e a0 dc bc e1 ff 3b 3d ce a3 6b bc 16 cd 7a 3d
       -0.026931878 0.045898322 -0.014382316 0.06123074
0001f0 fc ea de 3b 9e 44 ed bc 36 e9 f7 bc 16 43 b2 bc
       0.0068029147 -0.028963383 -0.03026257 -0.021760505
000200 c2 9c 4e bd 0e 22 60 bd ba 34 0f be 5d ed 77 bd
       -0.050442465 -0.054719977 -0.13984957 -0.0605291
000210 f1 c7 7a 3c 3d 89 cd bd cc f9 af 3d 73 db 9a 3c
       0.015306459 -0.10035942 0.08592567 0.01890347
000220 41 7c d0 ba a2 e0 b4 3c 34 68 c7 3d 3c 8b 45 bd
       -0.0015906171 0.02207977 0.09736672 -0.048228487
000230 c0 ca 31 bd db b2 2f be 45 aa 58 bc 56 64 42 3d
       -0.043406248 -0.17158072 -0.013224189 0.04745897
000240 9f e4 87 3d 93 6f 2f 3d bd 12 09 bd 61 3b 4c bd
       0.06635403 0.042831015 -0.033465136 -0.049861316
000250 c5 4b 88 bd 82 74 85 bd 01 bf 36 bd 21 38 0d 3d
       -0.06655077 -0.06516363 -0.04461575 0.034477357
000260 74 69 50 3d e1 eb 8f 3d 59 b8 ef bd 79 de f2 3c
       0.050881818 0.07027412 -0.117050834 0.029647099
000270 c4 15 f0 bd 0b 15 e1 bd 2e 13 9e bd 63 7c 0f bd
       -0.117229015 -0.10990342 -0.07718502 -0.035030734
000280 be 50 1a be 28 d7 f3 bd b1 41 f0 bd 33 28 95 bd
       -0.15069863 -0.11906272 -0.1173128 -0.07283058
000290 df e1 11 bd b6 51 eb bc a9 52 ba bd 62 b7 71 3d
       -0.035615798 -0.028725486 -0.090977974 0.059012778
0002a0 49 ac b7 bc cb 21 1b be d8 d7 ff 3b 18 23 ba 3c
       -0.02242102 -0.1514961 0.007807713 0.022721812
0002b0 91 0e aa 3c f3 60 8f bd 20 9f 24 3d 98 a1 a2 3b
       0.020758899 -0.070009135 0.040190816 0.004963111
0002c0 12 75 39 3b 38 ae 4b bd b3 c8 81 3d 38 7b 8f 3b
       0.002829854 -0.049726695 0.063371085 0.0043787025
0002d0 c2 eb 8b bd ff 86 36 bd 06 05 02 be 9a b0 08 be
       -0.068320766 -0.044562336 -0.12697229 -0.13348618
0002e0 31 79 43 3d ac 71 c8 bd 9f 09 c1 bd 54 04 31 bd
       0.047723 -0.09787306 -0.09425663 -0.04321702
0002f0 0e 26 29 bd da 49 b3 bd 54 d4 72 bd da 8b d8 3c
       -0.041296057 -0.087543204 -0.059284523 0.026433874
000300 f6 53 b1 bd b9 24 9a 3c ae ce ab bd 0c 99 30 bd
       -0.086585924 0.018816339 -0.083890304 -0.043114707
000310 38 06 51 bd ed 54 a1 bb 63 14 3a bd 87 c5 34 3c
       -0.05103132 -0.004923454 -0.0454296 0.011033422
000320 d0 42 dc bc 01 4b 4c 3c 38 94 ef 3c 22 96 1c be
       -0.026887327 0.012469054 0.02924548 -0.15291646
000330 55 04 d7 bd 3e 18 26 bc b1 41 86 3b 04 1b ca 3d
       -0.10498873 -0.010137616 0.0040971865 0.09868434
000340 12 41 71 bd 43 f1 1c bd a1 59 7d bd a3 dd 42 3d
       -0.058899947 -0.038316023 -0.061853055 0.04757465
000350 dc 5e d5 bc 37 51 00 be d0 57 4d bd b4 f4 9d bc
       -0.026046209 -0.12530981 -0.050132573 -0.019281723
000360 25 53 fa bd 9f 24 2e bd e4 a9 07 be 51 6f f2 3c
       -0.1222289 -0.042515393 -0.13248402 0.029594095
000370 b4 c0 8b 3d 11 19 3e 3b 84 87 cf bb dc 3a 0a 3d
       0.068238646 0.002900664 -0.0063332934 0.03374754
000380 0f 41 a9 3b 89 9c d5 bd de 1f b5 bd 12 d9 55 3b
       0.0051652263 -0.10430247 -0.08843969 0.0032630605
000390 15 14 a4 bd 59 10 80 3d 90 3f b6 3d f4 12 60 bb
       -0.08011643 0.06253118 0.08898842 -0.0034190984
0003a0 85 84 2f be a2 a1 43 bd f3 48 09 be 7e a4 e6 bd
       -0.17140396 -0.047761567 -0.13406734 -0.11261843
0003b0 ac 4c 29 3d 39 2f 41 bc ce 51 bd bd 9b 70 ce 3d
       0.041332886 -0.011791044 -0.09244119 0.100800715
0003c0 ae 1f c9 bd 25 73 95 3c e9 e9 f4 bb e6 6f 9c 3c
       -0.098204955 0.018243382 -0.0074741733 0.019096326
0003d0 f4 5e 8e bd 9e 98 e5 bc 5a aa e5 bd 55 2e 8e bd
       -0.069517046 -0.028026875 -0.112141326 -0.06942431
0003e0 00 be 19 be 52 c5 c7 bd 2f b5 2f bc a4 87 31 bd
       -0.15013885 -0.09754433 -0.01072435 -0.043342248
0003f0 d5 29 84 3d 44 3b bc bc df c5 da bb c6 73 c1 3d
       0.06453291 -0.022977479 -0.00667642 0.0944591

gru.weight_ih_l1 f4 [384, 128]
000000 1a 16 b9 bd 17 55 7b 3d d0 5a 65 3d 92 46 94 bc
       -0.09037419 0.061360445 0.05599481 -0.018100057
000010 cd 05 95 bd f1 08 f0 3c 2d 11 95 bc cf e2 5e 3c
       -0.07276497 0.029301139 -0.018196667 0.01360388
000020 85 c2 da bb d2 de 2e 3d da 98 95 3d aa 2f 12 bd
       -0.0066760206 0.042692967 0.07304545 -0.035689987
000030 5b 20 8f bd 2a d5 fd 3c 1f 87 c4 bd c1 9f be 3c
       -0.06988593 0.030985434 -0.09596085 0.023269536
000040 bb a5 cc bd 02 2b 6f 3d dc b4 84 bd 7f 04 13 bd
       -0.09992548 0.058390625 -0.06479809 -0.03589296
000050 ce 3f 85 3d 43 a9 f9 3c 1e 46 44 bd c6 71 3f 3d
       0.065063104 0.030476218 -0.04791843 0.046739362
000060 7e a4 09 3d 30 05 b5 3d a9 13 6d bd 68 ff cf bd
       0.033604138 0.0883888 -0.057880078 -0.10156137
000070 8e 3c 2b 3d c3 aa 3d bd 00 2a ef 3d d3 37 0b 3d
       0.041805796 -0.04630543 0.11677933 0.033988785
000080 b5 9a 3c 3d 45 d6 a4 bd 5c 3c a4 bd 94 8d ce 3b
       0.046045978 -0.08048681 -0.08019325 0.0063034985
000090 01 b3 fc 3a f8 05 c2 3d 06 aa 44 bd 05 12 ef bd
       0.0019279422 0.09473795 -0.04801371 -0.11673359
0000a0 74 bd b8 bb a7 1b 89 bd 08 6e 54 3d 88 33 02 3e
       -0.005637819 -0.066947274 0.051862746 0.1271497
0000b0 42 01 5d 3d 7c b2 94 bd 8c 71 5e bd 47 ae ac bb
       0.053956278 -0.07260606 -0.054307505 -0.005269799
0000c0 80 a6 ec bd 7f 74 2b 3d 66 3a 06 3d a4 0d b3 bc
       -0.11555195 0.041859146 0.032770537 -0.02185709
0000d0 91 71 b9 bd b4 98 79 3d dd 1e 4e bc 0c 06 6e 3d
       -0.09054864 0.060936645 -0.012580601 0.058111235
0000e0 5b 02 04 bd 86 07 8e bd c7 d0 4e bd af 46 73 bd
       -0.03222881 -0.06935029 -0.050492074 -0.05939358
0000f0 c1 88 ac bd 76 26 69 3d a1 96 ad bd 7a 5e d3 bd
       -0.08424521 0.056921445 -0.08475996 -0.10320754
000100 89 c1 b3 bd 9b 59 dc 3d 6a 7f 1c 3c 1f ff 1b bd
       -0.08777148 0.107592784 0.009551862 -0.0380851
000110 c3 20 8c 3d ae cc f8 3c 7d 1b a8 3d 14 bc 6e 3d
       0.06842186 0.030371036 0.08208368 0.058284834
000120 57 9c a7 3d 86 58 b6 bc 86 1a 0f 3d da 92 51 bd
       0.08184116 -0.022259008 0.034937404 -0.05116544
000130 c8 8b fa 3d b9 2c a6 3b 12 2e 16 3c 24 87 be 3d
       0.122336924 0.0050712493 0.009166257 0.0930312
000140 80 c2 16 3d f7 f8 57 bd b1 fb 94 3c 69 f1 18 bd
       0.036806583 -0.052727666 0.018186422 -0.0373396
000150 bf 0d 71 3c 3d f3 0a bd cd 39 23 3d 24 b3 f3 3d
       0.01471275 -0.033923376 0.039850045 0.11899403
000160 f2 3e 6e bd 26 08 5f bd 5e 8b 46 3d 7d 68 55 bc
       -0.058165498 -0.05445113 0.048472755 -0.0130254
000170 c7 e8 a9 bd 5d af 8d 3d 10 34 a5 bd c5 4d 2d 3d
       -0.08296352 0.069182135 -0.08066571 0.042310495
000180 24 92 c4 3c bd e5 dd bb 2d 63 b6 ba b9 1c 27 bd
       0.023995467 -0.0067717717 -0.0013915055 -0.040798876
000190 cc 7c 1b 3d 0f 43 06 3e 50 a0 4d bd 96 e4 fc bd
       0.037960812 0.13111518 -0.050201714 -0.12348287
0001a0 7c 42 c7 3c 04 09 25 3d 8f f6 c6 bd 56 9d 0c bd
       0.024323694 0.0402918 -0.09714996 -0.034329735
0001b0 6b 89 e5 3c a0 30 5b 3d 49 16 91 bd 8d 6e 8b bd
       0.028019628 0.05351317 -0.07084329 -0.06808195
0001c0 84 91 8f bd 1a 63 3f bd d9 1e 33 3d 8f 4f bd bd
       -0.07010177 -0.04672537 0.04373059 -0.0924369
0001d0 6b 90 e6 3c 44 48 fc 3c 4a 31 c4 bc 24 a9 59 bd
       0.028145036 0.030796178 -0.023949284 -0.05313982
0001e0 0a 92 97 3d 32 a2 93 3d 99 a7 08 bc bf f2 f5 bd
       0.074009016 0.07208671 -0.00834074 -0.12009191
0001f0 e2 cc 13 3d be b0 b7 bd b8 19 e8 bd ea fb 63 3d
       0.036084063 -0.08969258 -0.113330305 0.055660166
000200 c5 2e f3 bd 53 db 93 3c ee 82 66 bd dc 68 3f 3d
       -0.11874155 0.018048918 -0.056277208 0.04673086
000210 9d bb 05 3e d2 47 4b bd 5b 9a fa 3d ea 8c 21 3e
       0.1305985 -0.04962904 0.12236472 0.1577641
000220 f0 81 c3 bd 94 65 b4 bc 82 58 45 3d 01 7d 71 bb
       -0.09546268 -0.022021092 0.04818011 -0.003684819
000230 d8 ef 8f bc e2 0f 18 3e 81 7b b5 3d 46 d2 1b bd
       -0.017570421 0.14849809 0.08861447 -0.03804233
000240 b4 ba 0b 3e de 31 a4 bd 81 b8 f6 bd 25 28 8d bd
       0.1364544 -0.08017324 -0.1204691 -0.068924226
000250 66 89 3d be 67 c2 4e 3d bd c0 2a bd 68 ec 85 bd
       -0.18509445 0.050478365 -0.041687716 -0.065392315
000260 5e be 82 3d a4 bc 32 3d f4 2e 24 be 5d 25 20 bd
       0.06383966 0.043636933 -0.16033536 -0.039098132
000270 52 89 95 3d 6e 6e 15 bd 16 b7 8b 3d db 64 4a bd
       0.073015824 -0.036482267 0.0682203 -0.04941259
000280 db 24 c8 bd 2c 1e 00 3e e4 0a 8d 3d af a0 52 3d
       -0.097726546 0.1251151 0.06886843 0.05142277
000290 fc e4 87 3d 34 5a b8 3d 0e 81 9b 3c fe ff c0 3b
       0.06635472 0.0900158 0.018982437 0.0058898916
0002a0 d7 02 b7 3d e3 5e 04 be 05 fb 65 3c 0b 5d ba bd
       0.089360885 -0.12926821 0.0140368985 -0.09099778
0002b0 24 ab e1 bc 65 ab ee 3d cd c1 6d 3d ac 38 20 3e
       -0.027547427 0.11653785 0.05804615 0.15646619
0002c0 b0 4e c6 bd 51 ce 3d 3d d9 06 84 bc 41 d4 53 bd
       -0.09682977 0.046339337 -0.016116546 -0.051716093
0002d0 41 08 6e 3d b2 83 b5 3c c6 35 53 bd 2b 86 aa 3d
       0.05811334 0.022157524 -0.051564954 0.08326372
0002e0 65 9f d0 3c 72 18 6f 3d 5e 90 5e bd 7f c8 b0 bd
       0.02546663 0.058372922 -0.054336898 -0.086319916
0002f0 30 88 d6 3d 57 c9 93 3d 59 2e 86 bc 54 b1 77 bd
       0.104751945 0.07216137 -0.016379522 -0.060471848
000300 d0 05 90 bd e9 9b f4 bd d6 e1 a9 3d 64 51 37 3d
       -0.07032359 -0.119438 0.08295028 0.044755355
000310 62 8c be 3d 53 9b 2f bd c1 8d c4 3d de dd e9 3c
       0.0930412 -0.042872738 0.0959735 0.028548177
000320 c6 6e 8c 3d 7c 6c 9d bd 5e 26 f8 3c 67 c5 09 be
       0.06857066 -0.076867074 0.030291732 -0.1345421
000330 af d3 b9 ba 91 58 88 3c fe 37 5b 3d fa 1b 64 3c
       -0.0014177467 0.016643794 0.053520195 0.013922686
000340 02 9a 69 bd 32 20 ab 3d 91 fb c4 bd 8e 45 27 bd
       -0.05703164 0.0835575 -0.09618295 -0.040837817
000350 a0 23 a6 3c 2c ac 9a bd b1 5f 35 bd 7d 81 5c 3d
       0.02028066 -0.075523704 -0.04428071 0.053834427
000360 65 6e 0a 3d b6 2f fd bd 5f ed 1e 3d 38 12 9a 3d
       0.033796687 -0.12362616 0.038800593 0.07523006
000370 93 4a 65 3d 28 d3 10 be da e2 84 bd 9c a1 9d bd
       0.055979323 -0.1414305 -0.06488581 -0.0769684
000380 0a 59 bb 3d 2e ec 98 3d 7d 24 56 3c 26 82 99 3d
       0.09147842 0.07466923 0.013070223 0.07495527
000390 eb 23 99 bc c5 aa 4d 3d c8 c4 1f be d9 aa 3e bc
       -0.018693885 0.050211687 -0.1560241 -0.011637413
0003a0 a7 1f e3 bb f3 b8 de bc f0 7f 28 3d 4f 85 dc 3c
       -0.0069312635 -0.0271878 0.041137636 0.026919035
0003b0 59 ee ae bd 77 81 12 bd 68 9f 1c bd 53 30 c3 3a
       -0.08541555 -0.035768 -0.03823796 0.0014891721
0003c0 3e ba 9d 3d a1 a8 b1 3d 90 77 13 3e be d5 e9 3d
       0.077015385 0.086747415 0.14401078 0.11417721
0003d0 c6 2c 0f 3c f1 24 02 3e f5 07 86 3d 51 68 be 3d
       0.008738702 0.12709405 0.065444864 0.092972405
0003e0 ae 6d a5 bc d8 98 83 bc 8b c0 f6 bd c1 b0 a8 3d
       -0.0201939 -0.016064093 -0.120484434 0.08236838
0003f0 90 bc b5 bd de 61 a5 bc 19 d1 0b 3d a2 b1 38 be
       -0.08873856 -0.020188268 0.034134958 -0.18036512

gru.weight_hh_l1 f4 [384, 128]
000000 f8 3b 15 bd 3a 5e 95 3b 9f 48 7f bc 89 4f 09 3d
       -0.036434144 0.004558352 -0.015581279 0.033523116
000010 ee 43 6b bc bd 49 05 bd db 07 27 3c 2b ee e5 bb
       -0.014359457 -0.032541025 0.010194744 -0.007016917
000020 bf d3 00 bd 13 bb 92 3d b3 46 8b 3d e0 a9 60 bd
       -0.031451937 0.07164588 0.06800594 -0.054849505
000030 c6 27 cb bd 96 50 15 bd f1 21 ef 3c 71 d5 00 3e
       -0.099196956 -0.036453806 0.02919099 0.12581421
000040 c1 27 fb bc d2 6b 62 bd 6f ce f7 bc 0b 6a 7e 3d
       -0.030658605 -0.055278607 -0.030249802 0.06211285
000050 76 09 cc 3d 3c 3d 88 3d b6 a4 84 bd b3 a9 f4 3c
       0.09962742 0.066523045 -0.064767286 0.029866075
000060 ba 8e c3 bd 9b cf 98 bd f4 98 87 bd e5 7d 76 bd
       -0.09548707 -0.074614726 -0.0662097 -0.060178656
000070 a3 e9 84 bd 92 a0 93 3d 34 3f 59 bd 77 ac af 3c
       -0.06489875 0.07208361 -0.05303879 0.021444542
000080 0c 98 5f bd 54 89 1f 3d 43 e7 20 3c 9b d2 cf 3d
       -0.054588363 0.038949326 0.009820762 0.10147592
000090 bd 4a 44 3d 2f 98 82 bd e2 9a a9 3c 08 ee f0 bc
       0.04792284 -0.06376683 0.020703737 -0.029410377
0000a0 12 03 8f bd 47 ed 3d 3d 7c 89 5a 3d 1c 96 da bd
       -0.069830075 0.046368863 0.05335377 -0.10673162
0000b0 82 af 0b bc 71 dc 50 3d e3 06 b8 bc b2 24 05 3d
       -0.008525731 0.05099148 -0.022464221 0.0325057
0000c0 7f f7 d9 3d 3c f3 92 3d f3 15 bc 3c 76 e7 54 bc
       0.10642909 0.071752995 0.022959685 -0.012994638
0000d0 77 cd 01 3e 79 16 ba 3c f0 d4 9f bc 3a 92 d8 bb
       0.12676035 0.022715794 -0.019510716 -0.0066092284
0000e0 4c fd 74 3d 9e 26 e9 3c 71 51 9a bd f8 c1 46 bc
       0.059811875 0.028460797 -0.07535065 -0.012131207
0000f0 42 0c c5 bc 18 d9 f5 3c 5a 35 48 3c 29 65 5f 3c
       -0.024053697 0.030010745 0.012219751 0.013634958
000100 f5 35 1f bd 16 ac a0 3c a5 9f fa 3c 64 13 c1 bc
       -0.038869817 0.019613307 0.030593703 -0.023568816
000110 54 08 87 3d a8 85 aa 3a b8 84 c9 3d 8f 94 e0 3b
       0.06593385 0.0013009803 0.09839767 0.006853647
000120 49 a6 39 3d 59 ca 78 3d 76 e3 91 bd 3b be 89 3d
       0.045324598 0.06073985 -0.07123463 0.06725737
000130 62 13 40 3a 16 f0 c8 3c 47 d2 9c 3c 19 41 86 3d
       0.0007327107 0.024528544 0.019143237 0.06555385
000140 be 0d 2f 3b 4c fc 04 bc a1 d9 a3 bd a6 74 03 bd
       0.0026711072 -0.008116793 -0.08000494 -0.032093666
000150 d7 d4 1f bb 5d 94 79 bd d6 57 8c bd 4f 21 a8 bc
       -0.0024388337 -0.060932506 -0.06852691 -0.020523695
000160 37 a9 09 bd ac c5 9c bc f9 bd 0f bd 82 e3 6f bd
       -0.03360864 -0.019137226 -0.03509328 -0.058566578
000170 cb 9c 90 3b 68 58 8e bd b7 ae 12 3d 3d 37 9b bd
       0.0044132224 -0.06950456 0.035811152 -0.07578895
000180 c8 fd 92 bd b3 c2 c3 bd 95 42 a8 3d 11 d4 22 3d
       -0.07177311 -0.0955862 0.082158245 0.039753024
000190 84 8b 8d 3c a2 90 4b 3d 06 3b 12 bd 2d 37 60 bd
       0.01727844 0.04969848 -0.03570082 -0.05474012
0001a0 6e 8b f3 bc 20 f7 f9 3d 68 ca 50 bd 61 24 4f 3d
       -0.029729571 0.122053385 -0.05097428 0.050571803
0001b0 d6 24 bc bd cf 6a 45 3d 56 c0 fe 3d 95 02 a0 bd
       -0.091867134 0.048197564 0.12439029 -0.078129925
0001c0 34 14 1f 3d 20 09 8e 3c a1 13 ca bb 79 ce d8 3c
       0.038837627 0.017338336 -0.0061668907 0.026465641
0001d0 a2 30 bc 3d 45 cc f1 3b d4 db 63 3d 91 b6 16 bb
       0.091889635 0.007379087 0.055629566 -0.0022997002
0001e0 93 bd ec bd e5 ed b1 bd 8d 1b da 3c c7 3a fb 3c
       -0.11559596 -0.08687953 0.026624465 0.030667676
0001f0 79 66 fe bc bf 17 c8 3d 31 46 81 3c 8c b5 3d 3d
       -0.031054722 0.09770154 0.01578054 0.046315715
000200 cd f4 98 3c d0 58 81 3c 94 ab a4 3c 36 2b a6 bd
       0.018671418 0.01578942 0.020101346 -0.081137106
000210 11 df cb bd 64 29 74 bd fd 37 0b bd 5a 20 26 3b
       -0.09954656 -0.059609786 -0.03398894 0.0025348873
000220 76 40 f5 3d cb 5c 44 3d 55 3c 1b bd 25 7d c1 3d
       0.119751856 0.047940057 -0.037899334 0.094476976
000230 de 8a c0 3d 42 5e 14 bc 8d 4e ba bc f8 20 aa 3b
       0.09401487 -0.009055676 -0.022742534 0.0051919185
000240 9f aa 95 bd 10 d2 a1 bc 22 40 aa bd e6 de 69 ba
       -0.07307934 -0.019753486 -0.083130136 -0.0008921459
000250 1f f1 c4 3c be 4b 8d ba 2a c0 5c 3d fa d9 08 be
       0.024040757 -0.0010780019 0.0538942 -0.13364401
000260 70 9d 3c bd ef bc d8 3d c2 b9 5f 3d 2d 2a 48 bc
       -0.04604858 0.10582911 0.05462051 -0.012217087
000270 73 e4 d1 3c c8 14 a8 bc c6 88 ec 3d 75 f9 da bc
       0.025621628 -0.020517722 0.11549525 -0.026730279
000280 33 39 d2 3d 81 d5 ce bc 48 4c 93 bd b3 d8 3a bd
       0.10264816 -0.025248291 -0.07192284 -0.045616817
000290 bd 24 fb bd c1 ac 43 bd 33 26 7c 3d 1a 16 70 bd
       -0.12262867 -0.047772173 0.061559867 -0.058614828
0002a0 e1 aa 6a 3d 1a 1a 96 3d bd d9 b8 bc f0 3f b9 3d
       0.05729187 0.07329197 -0.022564763 0.09045398
0002b0 9f 47 47 bd 9e 65 e8 3c de 80 12 3c a1 c0 79 3c
       -0.048652288 0.028368767 0.008941857 0.01524368
0002c0 a1 a6 99 bd 6f 4b d3 bd c8 63 08 bd a1 82 71 3d
       -0.07502485 -0.10317122 -0.033298284 0.058962468
0002d0 99 e2 87 3d 36 d3 12 be 69 75 54 bd ae 66 30 bd
       0.06635017 -0.14338383 -0.051869784 -0.043066673
0002e0 cd 6f 2d bb 30 3a 12 3d 2c 16 f7 bc 72 dc fd bc
       -0.0026464344 0.035700023 -0.03016194 -0.030988906
0002f0 e2 30 c0 3d e7 7c 54 bd 6f 40 b6 3c 28 0a 7c 3d
       0.09384324 -0.05187693 0.022247521 0.061533123
000300 b7 d2 06 bd 97 66 3b 3b 08 1f 13 bc 8b 2f 6d bd
       -0.032915797 0.0028595084 -0.008979566 -0.05790667
000310 15 78 8c 3d 04 82 c3 3d 63 eb f8 bb ed d7 9a 3d
       0.06858841 0.09546283 -0.0075964197 0.07560716
000320 ef 67 80 bc 96 1d db 3a 22 9d ce bd c1 27 98 3c
       -0.01567456 0.0016717191 -0.100885645 0.018573644
000330 f9 72 4b bd 91 9e 1d bd 25 01 35 3d f0 a2 fd 3d
       -0.049670193 -0.0384813 0.044190545 0.123845935
000340 ff 00 89 3d cc 29 fa bd 39 18 24 3e 19 de 91 3b
       0.06689643 -0.12215003 0.16024865 0.004451525
000350 b8 ec ac bd bb 40 9f 3d b9 54 1c be eb bc 9d 3a
       -0.08443588 0.07776018 -0.15266694 0.0012034451
000360 d8 4d b0 bb 8f 4e b7 3d be 3b 89 3c 45 e8 d9 3b
       -0.0053803734 0.08950531 0.01675212 0.006650003
000370 45 42 9e 3d 78 92 8f 3d db 58 30 bd 21 1e 4d 3d
       0.07727484 0.070103586 -0.04305349 0.05007756
000380 e3 93 4d bd c7 95 10 3e 58 98 c0 3c 2d 8f 00 bc
       -0.050189864 0.14119636 0.023510143 -0.007846636
000390 f5 44 00 be f1 14 7a bd 7b ac 17 bd 83 55 4e 3d
       -0.12526305 -0.061055128 -0.037029725 0.05037452
0003a0 cc a4 35 3b 41 29 ac bd 94 61 b6 3c 73 67 81 bd
       0.0027716635 -0.08406306 0.022263326 -0.063185595
0003b0 45 f6 c8 bc df 4d 14 3e 77 d4 d8 bd 18 fa f3 3a
       -0.024531493 0.1448283 -0.105873995 0.0018613962
0003c0 99 ea 42 bd e4 83 d8 bd 43 17 b3 3d bf 0a 00 be
       -0.04758701 -0.10572031 0.08744671 -0.125041
0003d0 ab 6d 1b be 83 61 b1 3c 08 8b ff 3d e6 49 d0 3d
       -0.15178554 0.021652943 0.1247769 0.10170345
0003e0 1b c4 b1 3d 5b 52 1c 3e d7 36 9f bd 72 43 df 3c
       0.08679982 0.15265791 -0.07774132 0.02725384
0003f0 3c 03 80 3c e5 6a f0 bd 02 74 01 3d 24 e6 b9 3c
       0.015626542 -0.117391385 0.031604774 0.022692747

gru.bias_ih_l1 f4 [384]
000000 be 35 36 3d ed c9 21 3e 1a ac 1b bd f2 f8 ab bd
       0.044484846 0.15799685 -0.038005926 -0.08397092
000010 01 7e 06 bc 49 36 97 3c e5 a6 c2 3d 9c cc 7d 3d
       -0.008208753 0.018458502 0.09504489 0.06196271
000020 d0 8f bb 3c 8b 0e 99 bd e4 92 d4 3c 7c f1 b6 bd
       0.022895724 -0.07473477 0.02594895 -0.08932778
000030 25 05 61 3d 3f 6b 85 3c 09 4d fc 3c f1 db d6 bc
       0.054936547 0.01628649 0.030798452 -0.026227923
000040 fa 8f 93 3d 48 bd 1e 3d 12 e6 fc bc bc 2c 7e bd
       0.07205196 0.03875473 -0.030871425 -0.06205438
000050 3c f7 8c bd 56 be b1 bd 62 4f 3d bd 21 58 c3 bc
       -0.06883094 -0.08678882 -0.046218283 -0.023845734
000060 11 c8 08 3d 6e c0 89 bd b6 cb 15 bb 19 6a 78 3d
       0.033393923 -0.06726156 -0.0022857017 0.060648058
000070 9e 8d b6 3d 75 39 01 bd 4d e7 4c bd c8 65 78 3d
       0.0891373 -0.031548936 -0.050025273 0.06064394
000080 86 9b 12 bd c9 88 fe 3d d5 75 ad 3d ec f3 b0 3d
       -0.03579285 0.124284334 0.0846974 0.086402744
000090 7b 5b ae 3d 78 f7 ff 3c e6 f7 67 3d 8b dd 77 bd
       0.08513542 0.031245932 0.0566329 -0.060514014
0000a0 35 61 be 3c f1 9b 37 3d 08 74 09 3d 23 44 66 bd
       0.023239711 0.04482645 0.03355792 -0.056217324
0000b0 19 99 8a bc 8f 5d 48 bd 8d 97 4e 3d fd 89 12 bd
       -0.016918706 -0.04891735 0.0504375 -0.035776127
0000c0 cb d7 9b 3d df 9d 6e bd ca f4 88 3d 6b 78 b5 bd
       0.076095186 -0.058256026 0.06687315 -0.088608585
0000d0 df 6f 9a 3c 95 90 a1 3d 71 89 e4 ba d4 cb 3a 39
       0.018852172 0.07888905 -0.001743598 0.00017814274
0000e0 c5 7c ec bc 0e 42 4e 3b 93 7c 2a bd a5 a6 31 3c
       -0.028868088 0.0031472477 -0.04162271 0.010842954
0000f0 3a 4b 2b 3d 68 56 56 bc 19 97 a0 3d 3b df 1e bb
       0.04181979 -0.013082124 0.078413196 -0.0024241942
000100 4c 2e 44 3a 74 ec 9f bb 96 61 94 bc b4 0d 1b 3d
       0.00074837054 -0.0048804823 -0.018112939 0.037854865
000110 23 6b 3e bd 29 e0 90 bc 55 46 a3 3d 4d 9f ae bd
       -0.046488892 -0.017685013 0.07972399 -0.08526478
000120 89 4e 3d 3d 5b e7 b7 3b 5c 9f 52 bd 2e c5 d7 bc
       0.046217475 0.0056122965 -0.05142151 -0.02633914
000130 da fe eb 3b 8a ec 1f bd b9 0f 18 3d 76 de 9b bd
       0.0072020115 -0.03904394 0.03712437 -0.076107904
000140 ea 30 f3 3b fb 77 89 bd 8f 51 50 3d 06 45 a4 3b
       0.0074216025 -0.067123376 0.05085903 0.005013111
000150 4c b7 57 bd 91 24 4a 3d a8 49 99 3d 31 35 92 bd
       -0.05266504 0.04935128 0.07484752 -0.07139052
000160 15 c6 10 3c 56 27 30 3c f3 bb 1d 3d 7c 1e ef 3c
       0.008836289 0.010751566 0.03850932 0.02918934
000170 12 2a a4 bd 95 75 e1 3c 72 d9 02 bd d6 8a 2d 3d
       -0.08015837 0.027521888 -0.031945653 0.042368732
000180 d5 04 a1 bd 89 91 fb bd bf c7 70 3d 1f ec c1 bc
       -0.0786225 -0.12283618 0.058784243 -0.023672162
000190 e6 1f 8e bc c2 df ac 3d 5d a5 8e bd 06 66 93 bd
       -0.017349195 0.08441116 -0.06965134 -0.07197194
0001a0 a1 b2 9c 3b c9 dd a0 3d 99 10 49 3d dc d8 a6 3d
       0.0047820364 0.07854802 0.049088094 0.081468314
0001b0 d7 80 8d 3d 2b 54 b5 3a 85 d0 8b 3d 5f bf 58 3c
       0.0690934 0.0013834288 0.06826881 0.01322922
0001c0 2b fc 66 3d 43 ed ce 3d 38 0c 6b bd 93 9c 9c 3c
       0.05639283 0.10103848 -0.0573847 0.01911763
0001d0 f3 a0 b8 bc c0 9e d8 bc 43 7e f6 3c 1f 23 5e bd
       -0.022537684 -0.026442885 0.030089503 -0.054232713
0001e0 05 02 8e bd 4b 49 a8 3c 2c bb 95 3c b6 32 86 bd
       -0.06933979 0.020542761 0.018277727 -0.06552641
0001f0 32 e3 4c 3d 21 3b da bd 0b 37 b5 bc 57 11 f5 3c
       0.050021358 -0.10655809 -0.022120973 0.029915495
000200 80 f7 23 bd b9 29 49 be e9 93 06 be 6e 40 d4 bd
       -0.040030956 -0.19644822 -0.13142361 -0.103638515
000210 95 7d 5c bc e6 c7 22 be 21 fb 38 bc b1 8c 48 be
       -0.013457675 -0.15896568 -0.011290343 -0.1958492
000220 c1 d8 35 be 19 a1 c1 3a af 9a df bd 94 3e 0f be
       -0.17758466 0.0014772742 -0.109181754 -0.13988715
000230 53 1b 63 be 00 95 07 be 54 08 2a be df 0b b6 bd
       -0.22178392 -0.13240433 -0.1660474 -0.08888983
000240 3d b3 26 be 04 88 79 3d 96 57 03 be d2 02 3b bd
       -0.16279311 0.06092073 -0.1282638 -0.045656987
000250 32 f2 92 bd a4 e4 fb 3b 91 48 ea bd 35 7f c2 bc
       -0.07175101 0.007687168 -0.11439622 -0.023742298
000260 44 f8 f6 bd 42 ea 52 bd 17 46 0f bd 95 40 e1 bd
       -0.12059072 -0.051492937 -0.034978952 -0.10998646
000270 3a c8 1e bd 6f 27 61 be b8 92 31 be 8d 3e 46 bd
       -0.03876517 -0.21987699 -0.17341125 -0.048399497
000280 7d e7 0d be 8b bb 5a be e3 7e 84 bd 03 73 57 be
       -0.13857837 -0.21360604 -0.06469514 -0.21039967
000290 f0 44 8d bd df 3d 39 3d ae 46 78 bd 03 0d 07 be
       -0.068979144 0.04522502 -0.06061428 -0.13188557
0002a0 72 92 f6 bd dc d6 d1 bd 96 fa 95 bd c1 94 00 be
       -0.12039651 -0.10246059 -0.07323186 -0.12556745
0002b0 b6 38 6c bd 34 90 b6 bd af b8 86 bd 00 5b 49 be
       -0.05767127 -0.08914223 -0.06578194 -0.1966362
0002c0 0b 2c f0 bd f2 da 50 be 8e 6f dc bd 9b 93 c8 bc
       -0.117271505 -0.20396021 -0.10763465 -0.024484446
0002d0 27 a2 40 be b6 17 42 3d 3b b2 e2 bd 49 13 ec bd
       -0.18811856 0.047385894 -0.11069151 -0.11527116
0002e0 57 d2 1f be 17 54 0d bd 89 cf 09 bd ce b2 1b be
       -0.15607582 -0.034504022 -0.033645187 -0.15204927
0002f0 b5 df 9f bc 2b a1 d7 bd 3a b0 e5 bd 30 1f 2e 3b
       -0.019515852 -0.10528787 -0.11215253 0.0026568882
000300 65 e7 a9 3d fb c4 ad bd 37 7f c6 bd 93 3c d3 bd
       0.08296088 -0.08484837 -0.09692233 -0.10314288
000310 01 49 37 be f3 6a 23 be be 84 c6 bd 03 c7 3e be
       -0.17898943 -0.15958767 -0.09693287 -0.18630604
000320 94 67 ff bd 41 6a bd bc d3 39 38 be 03 08 e6 bd
       -0.12470928 -0.023121955 -0.17990808 -0.11231997
000330 fb da 69 bc 9d 8a 33 bd e9 80 05 be 2d ce e2 bd
       -0.0142734 -0.043833364 -0.13037457 -0.11074481
000340 15 c8 2c be cd ff da bd 2f 50 0c be a3 97 ec bc
       -0.168732 -0.106933214 -0.13702463 -0.0288809
000350 54 06 01 be a9 24 06 be a0 6d 89 bd c9 cd 49 be
       -0.1260007 -0.13099922 -0.067103624 -0.19707407
000360 f4 f0 d0 bd bf 2f da bd 08 22 6c bd d0 a5 24 be
       -0.10202208 -0.10653638 -0.057649642 -0.16078877
000370 42 1d 22 be 49 7c fc bd d5 91 31 be 8c c2 ec bd
       -0.15831473 -0.12328393 -0.17340787 -0.11560544
000380 91 a7 3c 3a 43 a0 34 be ec d5 61 3b b6 29 86 bd
       0.00071966 -0.1763926 0.0034459783 -0.065509245
000390 b2 14 1e bd 9b c2 2c be 05 8a f2 bd 1d 49 26 bd
       -0.038593955 -0.16871111 -0.118427314 -0.04059707
0003a0 99 1f ea bd 76 61 09 be 2c 36 10 be ea 5c 3a be
       -0.11431808 -0.13416085 -0.14083165 -0.18199506
0003b0 70 61 4f bd 73 f6 e7 bd ca 2b 85 bd 21 bc 00 bd
       -0.050630033 -0.11326303 -0.06502493 -0.031429414
0003c0 df 0b b3 bd 74 56 08 be 31 f4 b4 bd a1 d8 d3 bc
       -0.087424986 -0.13314229 -0.08835638 -0.025860133
0003d0 07 96 fd bd d8 8a 55 bd b6 31 e8 bd 89 b9 c6 bd
       -0.12382131 -0.052134365 -0.113376066 -0.09703357
0003e0 b6 c3 12 be e6 35 2e be f7 fa a7 bc 4f e3 e6 bd
       -0.1433247 -0.17012748 -0.020505412 -0.112738244
0003f0 e5 60 55 bd 05 f6 69 bd 71 18 41 be 10 30 76 bd
       -0.05209436 -0.057119388 -0.1885698 -0.06010443
