Assignment_2/Task1/GRU_GloVe.pth (torch, 754772 bytes, 10 tensors)

gru.weight_ih_l0 f4 [384, 100]
00000000: 2012 cfbd 9608 f7bd 24ff 003e 18e4 7339
00000010: fd2b 243c b610 40be 997d 363e f3e5 7e3b
00000020: aa89 383d 9667 61bd 7b14 ff3d 6f9e 993d
00000030: cd67 61be 598b 18be b4c1 4cbe f091 163d
00000040: 8e1d eb3d 7f04 be3b 9838 00bd 3edb 293e
00000050: aa74 13bd 60b5 37be e154 7abd db8c a43d
00000060: b25b fb3b 1fa7 5e3d cce6 fdbd f52e 0cbc
00000070: d1de bc3d b8d1 da3b 0ee8 72be 379c 83bc
00000080: d967 a43c 4f3c d5bc 65d1 d2bd 5c81 54bd
00000090: e0f1 17be 8154 233e 97bb ac3b b95c 7e3d
000000a0: 86a9 71bd 72f4 1cbe d216 fa3b 2541 84bd
000000b0: a036 5e3c 4424 40bd cf7c b33e e302 80be
000000c0: e339 aabd 693c 17bd 8ac7 91bd 53ff e8bd
000000d0: 8a61 fe3c 6ff7 b5bb 35bf d9bd 2403 b23a
000000e0: b682 13be 9a30 4fbe 3b0b 37bb 3858 8bbd
000000f0: 24ac 3f3e eddc 773d 80d3 dcbc 991b 803e
00000100: be53 8a3d c0f1 e5bd 916f 5abd 9c53 9c3d
00000110: 0918 7bbc 13a8 cbbc 3616 383d 96ca 79bd
00000120: 08c7 55be ac9e b2bc a031 8a3e 67a8 193e
00000130: df41 9abc 714c 1b3e 40e3 09be fa0d 103e
00000140: 270c 393d 0d7a 433d b4a9 d2bc 6ba4 e4bd
00000150: 5c9a c03d da92 81bb 8ba6 98bd fe78 e2bd
00000160: 7b99 4d3e a385 5ebc a580 3e3d 45ab 353e
00000170: e0d6 acbb 67e6 72bd cce7 a13d 590b 2dbd
00000180: 10db 9bbc 0fd4 473e faf6 003d 853d c7bd
00000190: ff33 bebd 3e63 933d 24ca 4ebd dd58 0dbe
000001a0: 2434 07bb 190d 343e bb75 183b 285b 67bd
000001b0: b1cf 193d 4484 663d e0e7 31be 4517 9e3c
000001c0: a1a3 0abe d09a e23c e87c a03d a8d9 83bd
000001d0: aa38 da3c 8481 43bc e3c5 df3c a1d8 3a3e
000001e0: 400a 143c 1204 503d 25e8 9bbd 90fe 1fbd
000001f0: 9273 333e fd5b 963d bf28 54be 0fd7 4fbd
00000200: 09d5 003e 5ca7 a9bd e5eb b4bd a043 693d
00000210: dcf7 25bc 55f6 bcbd b8df 3c3c 8e13 0cbb
00000220: 0f7c 233d 1bb7 19bd 0879 b03e 18d2 f1bc
00000230: ffb2 823d fb7a b13d 9924 b83d 7a40 a8bd
00000240: 8c40 923d 2c29 f1bc efda 993c 3e27 79bd
00000250: b320 9a3d a0e8 c63c 1cab e8bd 85b5 043e
00000260: 4c4d 863e abf1 2fbd b69c e2bd f1f2 96bd
00000270: edff c03d 30b7 6b3d 2a80 923d 075c 04bd
00000280: 429d be3d ae21 193e 5823 4dbd 0e5f 093e
00000290: 92d8 c83d 5248 eabd 8dd6 083e f942 9bbd
000002a0: 4233 7ebb 349a 86bd a979 04bd 2844 5b3e
000002b0: 1950 623d f095 943d 6bda 403d 39a7 d6ba
000002c0: 2120 b9bd 0003 36be 8d0d 24bd e53c 4c3d
000002d0: ab97 803d 998a 173c 3548 9dbd 29d0 aa3d
000002e0: 75b8 73bd bd37 c6bd 4022 f4bc 6172 15be
000002f0: 5fad 8d3d 91e0 2abe d033 e83d ec97 03bd
00000300: a4ba 63be b5b0 f8bc 3366 033e 7e38 74be
00000310: dc5b 97bc a5fc 93be 5776 c6bc 8bd0 6abd
00000320: a5d5 023e 10cd babd 6295 91bc 37e3 42bd
00000330: 5b64 1ebe 590e b0bc 90b5 0cbe 2fdd 16bd
00000340: 28fd 4a3c b3ba 913d c1e1 393d 6d8e e63d
00000350: 84f7 8fbc ffad 01bd 2c92 003e f216 5c3c
00000360: 224d d03c 82b9 d23d 0a5b c9bd c5b8 3cbc
00000370: f7f4 b23d ec13 203e 51e4 84bd d0f7 b5bc
00000380: fba3 e93d 4d6e d8bd b60b be3d 5229 a3bb
00000390: 2d47 8f3c eacf f8bd 9f0a 873c 2ab2 093b
000003a0: c224 083e 7cd6 dd3d a665 87bd ce6c 723d
000003b0: 425a 54bd f268 d6bd bed2 723e 8fc9 0e3d
000003c0: 35fc b23d b801 57bd ff66 603d 1800 c5bd
000003d0: bac7 80bd dcc4 603d 6909 763a 1941 903e
000003e0: c5cb 2b3e 8f6b 433e c51f 83bd 5237 37be
000003f0: 916e f0bd 2238 babc 46a5 263d 7dec 5cbd
-0.10110879 -0.120621845 0.12597328 0.00023259257 0.010020253 -0.18756375 0.17821349 0.0038894385
0.04505316 -0.055030428 0.12455078 0.07500922 -0.22012253 -0.14896907 -0.19995767 0.03676027
0.114802465 0.005798876 -0.031303972 0.1658754 -0.03599993 -0.17940283 -0.061116103 0.080346785
0.007670843 0.054358598 -0.12397537 -0.008556117 0.09222186 0.0066778325 -0.23721334 -0.0160657
0.02006905 -0.026029734 -0.10293845 -0.05188118 -0.14838362 0.15950204 0.005271386 0.062100146
-0.05899956 -0.15327623 0.007632115 -0.06457738 0.013562828 -0.046909586 0.3505616 -0.25002202
-0.08311822 -0.036922846 -0.07118137 -0.11376824 0.03105237 -0.005553178 -0.10632173 0.0013581258
-0.14405331 -0.20233384 -0.0027930278 -0.06803936 0.1871801 0.060513426 -0.02695632 0.25021055
0.06754254 -0.11227751 -0.053329054 0.07633135 -0.015325555 -0.024860417 0.044943057 -0.060984217
-0.20876706 -0.021804176 0.26990986 0.15005647 -0.018830238 0.15165879 -0.13465595 0.14067832
0.045177605 0.04772382 -0.025715686 -0.11164173 0.09404442 -0.0039542736 -0.074536406 -0.11058234
0.2007808 -0.013581666 0.046509404 0.17741115 -0.0052746385 -0.05930176 0.0790554 -0.04224715
-0.019025356 0.19514488 0.031485535 -0.09728531 -0.09287261 0.07196663 -0.050485745 -0.1380343
-0.0020630443 0.17583121 0.0023263532 -0.056483418 0.037551586 0.056278482 -0.1737361 0.019298205
-0.13538982 0.027661711 0.07836324 -0.06437999 0.026638348 -0.011932734 0.02731604 0.182467
0.009035647 0.05078513 -0.076126374 -0.03906113 0.17524555 0.07341764 -0.20718668 -0.050742205
0.12581266 -0.082838744 -0.08834056 0.056949258 -0.010129895 -0.092266716 0.011527948 -0.002137396
0.039913233 -0.03752814 0.3446734 -0.029519126 0.06381797 0.08666035 0.089913554 -0.08215423
0.071412176 -0.029438578 0.018781153 -0.06082844 0.07525768 0.024280846 -0.113607615 0.12959869
0.26230848 -0.042955082 -0.110650465 -0.07370556 0.09423814 0.057547748 0.071533516 -0.032314327
0.09307338 0.14954254 -0.050082535 0.13415167 0.098069325 -0.11439575 0.13363095 -0.075811334
-0.0038787876 -0.06572381 -0.032342587 0.21412718 0.05525217 0.07255161 0.0470833 -0.001637674
-0.09039331 -0.17774582 -0.040051986 0.04986276 0.06278928 0.009249353 -0.07679788 0.08340485
-0.059502084 -0.096786 -0.029801488 -0.14594413 0.069178335 -0.16687228 0.113380075 -0.032127306
-0.22239166 -0.030357698 0.12831955 -0.23849675 -0.01847642 -0.2890369 -0.02422635 -0.05732779
0.12776811 -0.09121144 -0.017771427 -0.04757997 -0.1546797 -0.021491216 -0.13741136 -0.03683203
0.012389459 0.07115688 0.04538131 0.11257634 -0.01757408 -0.031660076 0.1255576 0.013433205
0.025427405 0.10289289 -0.098318174 -0.011518662 0.087381296 0.156326 -0.064888604 -0.022212893
0.1140823 -0.10567913 0.092795774 -0.004979291 0.017489994 -0.121490315 0.016484557 0.0021010735
0.13295272 0.10831925 -0.06611185 0.059185795 -0.05184389 -0.104692355 0.23713204 0.03486019
0.08739511 -0.052491874 0.054785725 -0.096191585 -0.06288095 0.05487524 0.00093855575 0.28174666
0.1677695 0.19083999 -0.06402544 -0.17892197 -0.11739839 -0.022731844 0.04068496 -0.05393647

gru.weight_hh_l0 f4 [384, 128]
00000000: 788b 813c 200a 8c3d eca4 83bb 884e 86be
00000010: 3d0f d1bd 4bc7 5d3c cd46 d8bc 4ecb a13e
00000020: 6019 3ebe e38b d4bc 4f5c f53d 107f f43d
00000030: 6110 b6bc 6a17 b93d 5f06 24bd ecee 803d
00000040: 20db 833d 68a4 b8bc 3c26 853c 2e9c 83be
00000050: 09c9 a3bd 1685 67be 296c c0bd f2b0 1bbe
00000060: cbe0 ba3c d6c8 703d 94bc 1d3c 8c72 833e
00000070: e39d 593d f1f6 edbd 0984 3a3d 22f3 34bd
00000080: 6478 8cbc fa0c e0bd 2804 ab3d 8421 7b3e
00000090: 5e6c 5c3d 1228 053e c814 3dbe 1c3d e23d
000000a0: 28db a53d 31f8 083e 8431 d13c 4bc0 4e3e
000000b0: 645e d03d 9ddb c3bd 7108 d33d f5c2 1c3d
000000c0: bdb5 823e 3cec e73d 4a6a 5a3d 6364 c6bc
000000d0: 8de0 923d f361 e23b 2f4b 163e 7f92 f73d
000000e0: f0bd c6bd 8e2c 2dbe 6c68 96bd 6b50 97bd
000000f0: 8133 f9bd 23dd 14bd 77a4 95bc d253 113d
00000100: 8482 803e 9add 07bd a940 cb3d 3a93 ff3d
00000110: fa8d a3bd 8ddb 84bd 6acd e7bd 72dc 893d
00000120: ac9b 5fbc aa74 233d e597 97bd 6a72 003e
00000130: 48cc 55bd 6189 d4bd a069 72bd 1395 11be
00000140: e8f5 413d 79fc 573e 10df 3fbd 6a8a ab3d
00000150: 6e81 93bd b2fa 3f3d bc35 bc3d 7198 373d
00000160: b665 3ebc 9529 4d3e a00d 6f3e 3bdc 593c
00000170: 2376 5abd 4e7f 603d 8340 283c 575f a93b
00000180: c128 0abe 838c 25bd 9af0 d33d 61fe 91bc
00000190: 1eae 073d 2943 343c 3ef2 6d3d b9d6 e4bc
000001a0: f464 e73d 2357 623c a880 ae3e 546d 15bd
000001b0: 944e 103e 27ec 01bd c6a2 193d af81 53bd
000001c0: 6ac5 5d3b ab00 4f3e 36ec eb3a 63b5 373e
000001d0: f47c 20be e92b 5d3c c2c2 483c 1af3 c6bc
000001e0: 7581 31bc b0bc b7bd 18f2 b5bd 1bb2 b4bb
000001f0: ff8c b3bc 7a91 7a3d 32c6 ae3d 97ac 07bd
00000200: 4792 04bd fae2 dfbd 6974 303d 6ccd af3b
00000210: 6058 a73d 1042 c43b ee60 72bb 4aa9 a7bc
00000220: a279 c5bd 3b60 903c 8e84 803c 24aa ec3d
00000230: fd44 cf3c 9ff6 3ebd c65a d73c 16b3 073b
00000240: d494 14be 85e6 693c d24c 833d 85fe 09bd
00000250: 0db6 83bd 4825 9bbc db85 ffbc adcb 0d3d
00000260: a974 503d f26b 80bd c302 82bd 12a7 973d
00000270: ec00 023e 68c5 ad3c 36c4 cebd 2fef bdbd
00000280: edaf 23bd 1861 cb3d 5bde 9d3d 17f3 eebd
00000290: 78da 053d 712f db3d fddc d63c 318d 613c
000002a0: 4b98 b13d a8e6 4b3d 38fb 63bd 1c2e 46bd
000002b0: 7751 083d cefb 933c a369 223e 06f5 9ebd
000002c0: 1a89 983c eab9 fdbd 8853 06be c344 86be
000002d0: e719 bdbd 387d fabd 31b7 e63c 9b20 c33d
000002e0: 44c7 d93a 545c 693d 0111 253d 6ba2 163d
000002f0: fe14 e43d 4778 4f3d 2e03 b63c 0177 33bc
00000300: a212 0d3d 34fc a3b9 6972 e13d f0e9 41bc
00000310: 30da c43d 3b05 44bd 1c52 78bd 14a9 9cbd
00000320: 0065 033c 20b8 033e 31c5 f83d 9a95 b7bc
00000330: 4d27 13bd 2663 773d af48 963d 1259 16bd
00000340: 6823 fe3d 8eb6 f6bc c49a 093e d4cd 24bd
00000350: 2711 96bd 9373 ce3c 1335 78bd f489 c33b
00000360: cfb7 043c f88d e1bc 472f 9e3e 0f57 72bd
00000370: 2e39 ba3d d684 893d 2ce3 063d 8857 08be
00000380: 542a ac3d bd03 7b3d 3031 3a3c 959c d63d
00000390: e2a2 88bb 2603 b3bd 0bca 643e f4f8 043e
000003a0: 8f60 2dbd 3031 b9bc 0e0d d2bc d4c7 a5bd
000003b0: 632a 033e 3328 723d 99b3 11be 81ef 0d3c
000003c0: 5dd8 0e3d 989b 963d d1b0 82bd 70bb f1bd
000003d0: 8481 1f3e af19 faba 87f4 e4bd 1ceb 243d
000003e0: 4e6d bf3d ef76 c1bd 7d57 4c3d 4a5b 0e3d
000003f0: 0aa0 0bbd 69b5 26be 30a3 64bd c5e5 f0bd
0.015813574 0.06837869 -0.004017463 -0.2623179 -0.102079846 0.013536285 -0.026400948 0.31600422
-0.18564367 -0.02594561 0.11980497 0.11938298 -0.022224607 0.09037669 -0.04004514 0.06295571
0.06438279 -0.022539333 0.016253583 -0.25705093 -0.07997329 -0.22609362 -0.0939563 -0.15204218
0.022812268 0.058785282 0.00962748 0.2567333 0.053129088 -0.11619366 0.045536075 -0.044177182
-0.01714725 -0.10939975 0.08350402 0.24524504 0.053814285 0.13003567 -0.18464959 0.11046812
0.08098441 0.13375928 0.025536306 0.20190541 0.101742536 -0.09563372 0.103043444 0.038271863
0.2552928 0.11324355 0.05332402 -0.02421779 0.07171736 0.006908649 0.14677118 0.12088489
-0.097041965 -0.16911528 -0.07344136 -0.073883854 -0.12168027 -0.036343705 -0.0182669 0.035480328
0.25099576 -0.03317032 0.09924442 0.12479253 -0.07986064 -0.064871885 -0.113184765 0.067315
-0.013647955 0.03990618 -0.074020185 0.12543646 -0.05219677 -0.103777654 -0.059182763 -0.14217024
0.047353655 0.21092404 -0.04684359 0.0837601 -0.07202421 0.04686994 0.091899365 0.044823114
-0.011620929 0.20035394 0.23345041 0.013297136 -0.05333532 0.054808907 0.010269287 0.005168836
-0.13492109 -0.040417206 0.103486255 -0.017821493 0.033125035 0.01100234 0.05809235 -0.027934419
0.11298552 0.01381472 0.34082532 -0.036481217 0.14092475 -0.031719353 0.03750875 -0.051637348
0.0033839592 0.20215099 0.0017999473 0.17940287 -0.15672666 0.0134992385 0.012253465 -0.024285842
-0.010834088 -0.08971536 -0.08884066 -0.005514396 -0.021917818 0.061173894 0.085338965 -0.03312358
-0.032366063 -0.10931964 0.043079767 0.0053650644 0.08171153 0.0059893206 -0.0036984044 -0.020466466
-0.0964234 0.017624011 0.015688207 0.11555889 0.02530145 -0.046621915 0.026288401 0.0020706109
-0.14509898 0.014276152 0.06411137 -0.033689994 -0.06431208 -0.018938676 -0.031191757 0.03461807
0.050892506 -0.06270589 -0.06348183 0.07404913 0.12695664 0.021212295 -0.10096018 -0.09274136
-0.039962698 0.099306285 0.077084266 -0.116674595 0.03267905 0.10702408 0.026228422 0.013766573
0.08671626 0.049780518 -0.055659503 -0.048383817 0.033280816 0.018064406 0.1586061 -0.07761578
0.018620063 -0.12388976 -0.13117802 -0.26224336 -0.09233456 -0.12230915 0.028163524 0.095277034
0.0016615172 0.056972817 0.04029942 0.036775988 0.111368164 0.050651815 0.022218313 -0.010953666
0.034441598 -0.0003127769 0.1100815 -0.01183556 0.096119285 -0.04785655 -0.06062518 -0.076494366
0.008019686 0.12863207 0.12146986 -0.022410203 -0.035926152 0.06039729 0.07338082 -0.036706038
0.12409097 -0.030116346 0.13437945 -0.040235355 -0.0732749 0.025201594 -0.06059749 0.005967373
0.008100464 -0.027533516 0.30895445 -0.059165057 0.090929374 0.067147896 0.03293149 -0.1331464
0.08406511 0.061282862 0.011364266 0.104790844 -0.004169808 -0.08740835 0.22342698 0.12985593
-0.042328414 -0.022606462 -0.02564099 -0.08094755 0.12809138 0.05912037 -0.14228667 0.008663059
0.03487431 0.07353896 -0.06381381 -0.11803329 0.1557675 -0.0019081141 -0.111794524 0.04026328
0.0934702 -0.09446513 0.049888123 0.03475503 -0.034088172 -0.1628014 -0.05581969 -0.11762575

gru.bias_ih_l0 f4 [384]
00000000: 2fe0 c53d 31e6 ad3d bcca 533d f1fe 693d
00000010: acbb c53d 2a47 d13d f3e1 1c3d 837e 5cbc
00000020: 8932 823c 8b79 4fbd 40e8 d83c c4c6 883d
00000030: 3dc2 5c3d 0a6c 8f3b e03e ae3d 994f bcbd
00000040: a043 a13c b930 cb3d 0928 afbc 185b 8abc
00000050: b228 093e 0300 963d 9785 1cbc 74e8 813c
00000060: 69b0 bfbc 1f63 3cbd de74 543d 18fb e23d
00000070: c343 58bd e1bd 213d 51ac 7a3d cdc0 3abc
00000080: 95a5 913c b49a 9e3d 7bba 093e 4077 aebd
00000090: 1422 6c3d d134 cc3d 4e78 65bd 6559 91bd
000000a0: 311d 643d e983 1dbd 71a3 f93b c5ea b23d
000000b0: 2f5e b93b 76de a9bd 95e4 0b3e 52c1 1cbd
000000c0: 1c1e 48bc 3fb8 a3bd 16fe 883c 3f85 223d
000000d0: 4882 41bd bdb8 393d 770a 85bc 394a cbbd
000000e0: 0a6a 5f3d 963e f73d 1d29 2bbd 0d4e 443d
000000f0: 617b b23c 4439 553d 260e 41bc 9d3d 3a3d
00000100: c1a4 203d 8b8d 923d 5e4f 8c3d 1ec8 703d
00000110: 4f68 4cbb 7c22 353d c58b d93c 2b19 abba
00000120: a440 a43d 560e 94bd 5e12 943d c5a4 1d3d
00000130: fef9 f13c 0ada 3d3d 4aad 94bc f98d 7fbd
00000140: c661 883b 5509 37bd 5499 963d f0b0 dd3b
00000150: 45d0 ba3d f323 8e3d f9c4 93bc 495e 9f3d
00000160: 680f 383d 8bbe c03d a451 833c 6656 bbbd
00000170: 8f7e 11bc 7744 533b 6fda 4abd a3ee 62bd
00000180: 3134 dc3c 7fbc 08bd 6d30 813d 37b4 77bc
00000190: 3580 d6bb 5df7 41bc 3894 fabd 6178 efbc
000001a0: 4537 29bd c642 d2bb cd98 38bd 383c ed3b
000001b0: 03d8 eb3d f476 593c 82d1 ce3c 93b3 4abd
000001c0: f532 3cbd e9c7 af3d bcbb 1e3d 1518 1dbd
000001d0: 98aa c4bc 5cb7 21bc c80c 9b3c b778 ea3c
000001e0: 8146 55bd 8ed5 b23d 4f78 97bc 9804 b13d
000001f0: 6d70 26bd 3cdf 0b3e df83 41bd 1f7a fcbb
00000200: 2076 bc3d a657 f9bd 4940 90bd 7e53 b83c
00000210: 3246 1bbe cd13 8abd 50fe 9b3c 94ca f8bc
00000220: 56d9 7d3d cd4f 0bbe e8eb d83d fd8a 15bd
00000230: df5a 9ebd f355 30bd 5af7 ef3b 2a83 8f3c
00000240: a4a8 04bd e47a 34be 8c56 0dbe b6d1 08bd
00000250: 6531 22be ae46 9d3d c6a1 aa3d 5437 f43c
00000260: dff0 923c c065 4cbe 2031 af3d 3de7 25bc
00000270: 87f1 d8bc 78c4 0d3d ce24 fcb8 ff2c cc3c
00000280: 3ef1 98bd b329 233d e420 fdbd f0bb d43a
00000290: c554 b6bd d5fd b2bd 1e4f 2bbd 0b50 2e3d
000002a0: c9c1 bdbc 8954 4dbc d74c a8bd 2d19 67be
000002b0: ad46 92ba d8ee 33bd 0c01 5cbd 0fd2 11bc
000002c0: c8eb 7dbd 3f8f b5bb a651 3d3d d1fd c9bd
000002d0: b80f a7bd 49b1 8cbd 7a5b 32bd b242 113d
000002e0: b523 b73c 7128 40be 4109 1cbb 52a7 5ebd
000002f0: 8a95 8abd 4399 0b3d 8ce0 13be 0c51 b93c
00000300: 5d01 8dbd 663e 3ebd e479 3abd b3e6 8c3d
00000310: f9a2 0e3d 9fbe f1ba efb7 a1bd 5ee9 48bd
00000320: 8e55 2f3d 69ba 28bd 8709 62be 84bd e6bd
00000330: a858 e63c a3a3 873c e205 3f3d 58f4 3dbd
00000340: 3033 cfbc 28b9 e8bd d88e a23c c77f 17bc
00000350: ed91 8fbb b2f3 86bd e426 a9bd 468c b0bd
00000360: dccb 69be c2f2 60bd f52b c4bd a38b 9f3d
00000370: 5f28 ebbb 41dc 8cbd dd65 aabc 3672 e0bd
00000380: 066b 013d 01ec 0ebe 8fad e83c 8c1c fa3c
00000390: cdfc 23be dc3d e2bd 6558 303d e706 94bc
000003a0: e7a3 923d 23c3 333d 880b b7bd 9c23 d2bd
000003b0: 17f3 eabd fff1 c43c f06a d6bd b9b1 13bc
000003c0: 3166 49bd b5a1 38bd c0c9 45bd 63c0 073e
000003d0: 859a 3e3d 799b ebbd bdd4 40bc 9c54 d4bd
000003e0: 98c1 31be bec3 7dbc 5cc3 8fbc ac26 4c3d
000003f0: a413 fd3d edd4 5bbd d787 11bd a620 3dbc
0.096619 0.08491171 0.051707014 0.057127897 0.09654936 0.102186516 0.03830142 -0.013457897
0.015893238 -0.05065302 0.026477933 0.066785365 0.053896178 0.004376893 0.08508086 -0.091948695
0.019685566 0.099214025 -0.021381395 -0.01688914 0.1339443 0.07324221 -0.009553335 0.015857913
-0.023399549 -0.045992967 0.051869266 0.110830486 -0.052798998 0.039487723 0.06119949 -0.011398506
0.017779151 0.07744351 0.13450043 -0.08518839 0.057649687 0.099710114 -0.056022935 -0.07097129
0.0556919 -0.038455877 0.0076183607 0.08736185 0.0056569795 -0.08294384 0.13661416 -0.038270302
-0.01221421 -0.079941265 0.01672272 0.039677855 -0.047243387 0.045342196 -0.016240342 -0.09926266
0.054544486 0.12072484 -0.041787256 0.047925998 0.021787347 0.052056566 -0.011783158 0.045468915
0.03921962 0.071559034 0.068510756 0.058784597 -0.0031190102 0.04422234 0.026555905 -0.0013053765
0.08020142 -0.07229297 0.07230066 0.038487215 0.02953815 0.046350516 -0.018149037 -0.062391255
0.004162046 -0.044686634 0.07353464 0.0067654774 0.091217555 0.069404505 -0.01803826 0.07781655
0.044936568 0.09411343 0.01603014 -0.091473386 -0.008880272 0.0032236853 -0.04952472 -0.055403363
0.026880356 -0.03338289 0.063080646 -0.01511865 -0.006546045 -0.011838761 -0.12235302 -0.029232206
-0.041312475 -0.0064166514 -0.045067597 0.0072398447 0.1151581 0.01327299 0.025246385 -0.04948766
-0.045947034 0.08583052 0.038753256 -0.038353045 -0.024007127 -0.009870376 0.018926993 0.028622014
-0.05206919 0.087321386 -0.018489985 0.08643454 -0.04063456 0.13659376 -0.047244903 -0.0077049877
0.09202218 -0.12174921 -0.070435114 0.02250075 -0.15163496 -0.06742058 0.019042164 -0.030370034
0.061974846 -0.1360466 0.105918705 -0.036509503 -0.07732176 -0.043050718 0.007323188 0.017518599
-0.03238739 -0.17625004 -0.13802546 -0.03340312 -0.15839155 0.07679497 0.08331637 0.029811539
0.017937122 -0.1996069 0.08554292 -0.010125932 -0.026482357 0.034611195 -0.00012023152 0.0249238
-0.07467888 0.03983469 -0.12359789 0.0016230326 -0.08902887 -0.08739821 -0.0418235 0.042556804
-0.023163693 -0.012532362 -0.08217781 -0.22568198 -0.0011159979 -0.04392895 -0.053711936 -0.0089001795
-0.061992437 -0.005540758 0.046220444 -0.09862865 -0.08157295 -0.06869752 -0.04354427 0.035463996
0.022355894 -0.18765427 -0.0023809227 -0.054358788 -0.067668036 0.03408171 -0.14441127 0.022621654
-0.06885026 -0.046446227 -0.0455264 0.0687994 0.03482339 -0.001844365 -0.07896411 -0.04905068
0.0428062 -0.0411934 -0.22073947 -0.11266616 0.028118446 0.01655752 0.04663647 -0.046375602
-0.025292963 -0.11363441 0.019843504 -0.009246773 -0.0043814094 -0.0658945 -0.08259371 -0.08620505
-0.22831672 -0.054919012 -0.09578697 0.077903055 -0.0071764435 -0.068779476 -0.020800525 -0.10959284
0.031596206 -0.13957216 0.028403072 0.03053119 -0.16014405 -0.11046955 0.04305305 -0.018069698
0.07160168 0.04388727 -0.08937746 -0.10260698 -0.11472147 0.024041174 -0.104696155 -0.00901454
-0.049169723 -0.04507609 -0.048288107 0.13256983 0.04653408 -0.115042634 -0.011769471 -0.103677005
-0.17359006 -0.015488563 -0.01754921 0.049841568 0.12357262 -0.05366986 -0.035529938 -0.0115434285

gru.bias_hh_l0 f4 [384]
00000000: 29a3 e13d 9253 153e d23f 9b3d e4d5 833c
00000010: 319c aa3d 9c4b 083d 38a6 1c3d ee6d 41bd
00000020: 3805 0abd eb3f 5e3d 0625 8b3c 8801 f83d
00000030: 0a48 383d c7e3 bf3c 3865 a13d 13b6 073d
00000040: 1e77 f43d f30a a93d 2a2e 203b 68b5 b23d
00000050: 205e f33d 8b07 7bbb 382e ec3d 8aa3 7d3c
00000060: 3c1a ad39 1d08 1cbc 6e63 fbbc 4871 613c
00000070: 8877 f73c c923 2b3d 2262 3ebc 35b1 a73d
00000080: fc4c e33d de2b 263c 9ae8 9d3d 5e43 ac3d
00000090: cba3 2ebd be24 c93d 113f 703d 1d20 3ebd
000000a0: 0989 6cbd 7ff6 3c3d bff6 de3d 61fa 16bd
000000b0: 3ab1 8ebd 8e54 8d3d 3cc4 fa3d eb5d 1fbc
000000c0: 25c8 913d d012 ddbd feab cb3c 314e b73d
000000d0: 5a77 3e3d 3bdd 073d 9e75 0f3c 033e b5bd
000000e0: 583d aa3d 1dff a23d 0f50 9e3d ad5e 18bc
000000f0: bdb5 c53c fc13 753d ec18 7ebc b252 5dbb
00000100: 0e42 083b 3a7f 7bbc a79f f4bb 12b3 193d
00000110: d0e0 5d3d d2f1 8a3d 10e6 183d 2175 443d
00000120: 9597 903d 054b 983d 531d 3b3c ad3c 5e3d
00000130: be98 f73c a1df 6c3d 167f 1abd 3512 40bd
00000140: c32a cfbb 9e16 093d fd62 763d cbd1 0dbd
00000150: d1ac bc3d 06e7 083d b1f0 643d 53e2 0ebd
00000160: 7332 883d 2a4f 4f3c 952d a53d 6140 49bd
00000170: 51eb 29bd 2d3a 813d 13ca a33c 812d 833d
00000180: 14ec 3ebd 4d74 bd3d 5a19 773d a7c9 be3d
00000190: 2bb2 313d 6f90 6fbc 1493 ef3c a430 e1bc
000001a0: 93ee 9c3d 0583 14bd 2c48 363d be61 613d
000001b0: ac78 cfbc ee20 b2bc 972b 523c 5a68 b43d
000001c0: 8abd 93ba b502 6d3d 51a4 9c3c dc09 95bc
000001d0: b605 cf3d 6938 e03c c314 d23d 24ea 8cbd
000001e0: 4e77 703d efb0 8a3d e70e fabc 2d5f 19bb
000001f0: 89c0 843d 622b d23c 7529 4f3d ab47 883d
00000200: 8add 33bd 05b5 febc 1adf 58bd 2d89 453d
00000210: c53b f9bd 7825 30bd a9ac 91bd 5d58 cfbd
00000220: c214 9cbd 3bbe b2bd 1858 d33d 7929 f3bd
00000230: 70be b83c a9e0 28be 2c21 bcbd 97fa a83c
00000240: 65da 00be 5966 88bd 4bea 0bbb be57 563c
00000250: 6ccd 20be 3c6f 1c3d 26a7 5dbd d1fd 12bd
00000260: 39f9 b9bd ea4d 7dbd d612 68bd 551b c23d
00000270: 0c66 9fbd 6b0c 9b3d 247d 933d 60dd bebc
00000280: a018 233c 5d55 75bb 1f38 123b 4ad3 36bc
00000290: 5002 07be 03a3 44be d1c8 113d 2024 5bbd
000002a0: 279a 2dbd edc4 a23c a9f8 61bd 919a 2dbe
000002b0: 2fc8 b9bd b2d2 2cbd b054 27bd 0692 3bbd
000002c0: 9291 1cbd 3db2 723d 1abd b9bc 6388 f1bd
000002d0: a35e febd 2961 16bd b6f8 adbd 445c 003e
000002e0: 9da2 4a3d f154 ebbd 1d9e 9d3c 1a0e 93bc
000002f0: 529a 7fb9 ac9b b9bd 97ad 95bc 5862 23bc
00000300: ed2e 6d3c 864e 823d 6160 e6bd 697e 11bd
00000310: 6d13 a5bd 4400 bbbd 44f2 093b 5b0f dc3c
00000320: 92e8 93bc 4e44 a53d c728 0ebe 5e3f 2f3c
00000330: 7ae5 36bd 6deb 63bd ca8c 0abd d68d 98bc
00000340: 096a 06bd e710 39bb c263 8b3d ae3e ecbd
00000350: da74 82bc 42fe 0bbd 29e1 9fbc 809d d93b
00000360: 4ac6 4abe 6618 c6bd 07c7 d4bd 4df7 953d
00000370: 3c1f 783d e7c9 0abb e926 0dbd a3dc 32bd
00000380: d6b3 adbd e664 adbd e67d 303b e0b1 a0bc
00000390: 1643 1cbe 3a4c 4fbc 735b d73d a245 69bc
000003a0: 6cd8 04bd bf24 eabc 5c70 13be d739 5ebd
000003b0: 1701 1abe 22d0 95bd 063b b9bd 8798 83bd
000003c0: 9106 dc3b 125a fc3c 696e 453d a4f6 9e3d
000003d0: 90d1 72bd da3c 81bd da56 eebd 9b62 88bd
000003e0: ce99 1cbe 9ae3 a5bd fa2e 2dbd 662c 903d
000003f0: ec0c 833c f378 b7bd 9f07 27bd a36c a33d
0.110174485 0.14582661 0.07580532 0.016093202 0.083305724 0.03327523 0.038244456 -0.047223978
-0.033696383 0.054260176 0.016985428 0.12109667 0.044990577 0.023424042 0.07880634 0.033132624
0.11936782 0.082540415 0.0024441578 0.08726007 0.11883187 -0.0038304057 0.11532253 0.015480885
0.00033016677 -0.009523419 -0.03068706 0.0137599185 0.030208364 0.041782174 -0.011620076 0.081880964
0.11098668 0.010142295 0.07710381 0.08411287 -0.042636674 0.09821461 0.058653895 -0.046417344
-0.057747874 0.046133514 0.10886907 -0.036859874 -0.06967397 0.06900893 0.1224446 -0.009726982
0.07118253 -0.10794604 0.024862286 0.08950461 0.04650054 0.033169966 0.0087560695 -0.088497184
0.08312482 0.07958815 0.07730114 -0.009299916 0.024134511 0.05983351 -0.0155088715 -0.0033771214
0.0020791325 -0.015350157 -0.007465321 0.03752429 0.054169476 0.06784405 0.03732878 0.047963265
0.07060162 0.07436184 0.011420566 0.054257084 0.0302242 0.057830457 -0.037718855 -0.046892364
-0.0063222363 0.033468835 0.060152996 -0.034623902 0.092126496 0.033423446 0.055893604 -0.03488381
0.066502474 0.0126531515 0.08065335 -0.049133662 -0.04148418 0.06309924 0.019993817 0.064051636
-0.04661186 0.09250698 0.06032691 0.09315806 0.043382805 -0.014621838 0.029244937 -0.027489014
0.07662692 -0.036257762 0.044502422 0.055024855 -0.025326096 -0.021744218 0.012827775 0.08808966
-0.0011271697 0.05786391 0.01912132 -0.018193178 0.10108511 0.027370648 0.10257866 -0.06880596
0.058707528 0.06772029 -0.030524684 -0.0023402676 0.06482036 0.025655452 0.050576646 0.066542946
-0.043912448 -0.031092176 -0.05294714 0.048226524 -0.12169603 -0.043004483 -0.071130104 -0.10124276
-0.07621147 -0.0872769 0.10319537 -0.11873145 0.022551745 -0.16491951 -0.091860145 0.020627303
-0.12583311 -0.06660146 -0.0021349366 0.013082443 -0.15703362 0.03819202 -0.054114483 -0.03588659
-0.090807386 -0.061841883 -0.05665859 0.094778694 -0.07783136 0.07570728 0.07201603 -0.02329892
0.0099546015 -0.0037434914 0.0022311283 -0.011158774 -0.13184476 -0.19202809 0.035591904 -0.05350125
-0.04238334 0.019869292 -0.05516878 -0.16953494 -0.09071385 -0.042193122 -0.04085225 -0.045793556
-0.038224764 0.059252013 -0.022673178 -0.11793592 -0.12420394 -0.036713753 -0.084947035 0.12535197
0.049471486 -0.11490811 0.019240433 -0.01795106 -0.00024376184 -0.09062895 -0.01827125 -0.009972177
0.01447652 0.063626334 -0.112488516 -0.035520945 -0.08060346 -0.0913091 0.0021048943 0.02686279
-0.018055234 0.08069669 -0.13882743 0.01069626 -0.04465244 -0.05564444 -0.033825673 -0.01862232
-0.032815967 -0.0028238834 0.06806137 -0.11535393 -0.01592486 -0.034178026 -0.019516544 0.00664109
-0.19802204 -0.096726224 -0.10389524 0.073225595 0.060576662 -0.0021177472 -0.034460936 -0.043667447
-0.084815666 -0.084665105 0.002693051 -0.019616067 -0.15259966 -0.012652451 0.105154894 -0.014237793
-0.03243296 -0.028581975 -0.1439833 -0.05425438 -0.15039478 -0.07315089 -0.09044461 -0.06425577
0.00671465 0.030804668 0.048201 0.07761887 -0.059281886 -0.06310435 -0.11637659 -0.066594325
-0.15293047 -0.08100052 -0.04228113 0.07039718 0.015997373 -0.08958616 -0.040778752 0.07979705

gru.weight_ih_l1 f4 [384, 128]
00000000: 3caa 063e d4c0 ab3c 857d 203d 49af 173e
00000010: 6c20 99bc 968e 20be a8a9 713d ccca 57be
00000020: edcf 0d3e 8a94 f0bc 8444 10be a7d5 db3c
00000030: cbad 5c3c 63a0 acbb 7e97 233d f92d b33d
00000040: 1893 64bd c3ee 903d 23c0 763c d52e 1b3e
00000050: 142d 80bb 0a48 e6bc b2b6 4f3e 5f6a 173e
00000060: 0cdf 653d 69c9 f13d fb9d 7c3c 9342 98bd
00000070: 2f54 b93c 8d84 30bd 3088 efbd db49 46bc
00000080: 280a 4abd 8fe8 d93d 290b b8bd a267 c6bc
00000090: e8f2 0f3e 9a02 04be 6a0f 723d ce51 d9bc
000000a0: 58a0 c1bc 7a88 103d bc83 a53d b317 94bd
000000b0: a8b0 d5bd f990 a83d 0819 4f3d 4ef1 88bd
000000c0: 3a3a 44bb 6df1 b23d 2750 abbc bab2 6bbd
000000d0: 46c5 1bbd cfab 0abe cd01 623e c89c 27bd
000000e0: 8e6a a43d 655b 1d3c a14a 0b3e a55d 893d
000000f0: a9dd 2a3b 7bb9 8bbd 782d ce3c 861c 133d
00000100: 7e62 8b3c 5dd7 00bd 0d12 c93d a77a 3cbd
00000110: db71 253d b388 8e3c 1fef a23d ea83 473d
00000120: 62e0 ecbd d59d a9bd c55a 03bd 5cf8 423d
00000130: f069 413b ff7a a73d ad5c 4c3d b025 68bd
00000140: ede7 263d 75d2 d6bb 3fff 463e bc07 603c
00000150: 6919 5c3e af31 643e 8ea2 29be 6cda a43c
00000160: f661 803c a2a4 58bb 79c5 21bd 7bd5 033e
00000170: c082 a4bd d70d 43bd bfc3 ef3d f597 993d
00000180: 3cdf eb3d 7b89 173c 7f65 fcbc 44b0 253b
00000190: 4871 343e e360 8d3d d819 49bd da77 4bbd
000001a0: c47c e8bc 82cc 18bd 2548 59bc 1e5e c4bd
000001b0: a193 90bc 4c85 983d 3f81 eb3d 3efe de3a
000001c0: d6cb 173d 8809 473c 188f fa3c 8b0c 33bd
000001d0: d6fe a9bd 2a69 293d 952a a83d 4776 aa3d
000001e0: 4d83 bdbd 40c1 79bd e5b3 e63c bc1b 21bd
000001f0: 8ac9 60bb dbd7 2f3d 1117 92bd 0907 46bd
00000200: 704f 2abd 0ca0 dc3c b43f 00be 20a8 a5bd
00000210: dd93 8a3c d589 b2bd 0be1 693d 4d92 82bd
00000220: 400b 08bd a8b2 9bbd 0488 3a3c fba5 01be
00000230: 945c a8bd df31 31be fdfc cdbd d77e e33d
00000240: 26ab 3bbb 70b2 433e 4d54 873c 80d1 dc3d
00000250: a841 843d be8f 7f3d 638d 943c 5467 6fbd
00000260: 14c1 043e 87f9 33bc c251 933d 6446 a13d
00000270: ec3e 8cbc 0fbf febc 3f27 2d3e 9569 03bd
00000280: 5740 f53c 2cc8 c3bc 7289 99bd 2adb 3fbc
00000290: 5145 d1bd 7918 e0bc 9180 49bd 23e0 0e3d
000002a0: 4721 d1bd 6311 6cbd eca0 c2bd da4f df3d
000002b0: 5edd bc3b 4b64 913d e1cf c7bd 48bc 24bd
000002c0: 8c08 013d 2607 1c3d d994 f43a 2b75 1ebe
000002d0: 2f0a 27be e8a3 b03d 3884 2a3e e760 1f3d
000002e0: 9ae3 ccbd 71a8 b2bd 386c 06bd 1210 9a3c
000002f0: e0ef 5f3b c5c3 4bbd 1229 483d 7739 a7bc
00000300: b496 b43c e207 c8bb b55f 233e 2de5 4e3d
00000310: 4266 b53d 4415 5e3d 3e1b 823d 06a0 963d
00000320: 0af5 70be fffd f53c 8468 70bb df47 81bd
00000330: 4e5e 92bd 2504 93bc 6ecb 783c a791 70bc
00000340: 8a6c 27bd 2884 a03d 1ecc 27bd d868 2a3e
00000350: 419c 503c d575 f83d 076b 16bc d164 823d
00000360: 2622 7ebc ccae d03d 5a31 bebd ed97 023e
00000370: aa37 60bb e4be eebb 91b0 b03d 9278 673d
00000380: 7843 373c 47a8 d6bd 15e4 88bc c80f 8b3d
00000390: fa62 e53d b333 eebd 8c63 f93c def9 9d3c
000003a0: 0e9f 13be 42e6 613d d742 7cbd 740c 3a3d
000003b0: b560 17be ad1b e03c be0d 863d cbef 3cbe
000003c0: 7209 ec3c 3da3 aa3d bc6e b2bd badd ae3d
000003d0: 0695 22be 68d5 0c3e bdfb 4fbe 4fbe e73d
000003e0: 7332 993c 5eca 28bd 352e 993d 9c31 cebc
000003f0: 2dae 8abd 1842 fd3b 7951 383d 933f 8cbd
0.13150877 0.020965971 0.039182205 0.1481296 -0.018692218 -0.15679392 0.058999687 -0.21073455
0.13848849 -0.029367704 -0.14088637 0.026835276 0.01346917 -0.005268143 0.039939396 0.08749003
-0.055804342 0.0707679 0.015060457 0.15154584 -0.0039116237 -0.028110523 0.20284536 0.14786671
0.056120917 0.11805994 0.015418525 -0.07434573 0.02262315 -0.04309516 -0.116958976 -0.012102569
-0.049326092 0.1064006 -0.08986504 -0.024219338 0.14057505 -0.12891617 0.05909673 -0.026528265
-0.023636028 0.035286404 0.08081767 -0.07231083 -0.10434085 0.08230776 0.05056098 -0.0668665
-0.0029941932 0.087374546 -0.020912243 -0.057543494 -0.03802993 -0.13542102 0.22071 -0.040921003
0.08028136 0.00960431 0.13602687 0.067073144 0.002607206 -0.06822487 0.025168166 0.035915874
0.017014738 -0.031455386 0.09817896 -0.046015408 0.040391784 0.017399168 0.07955765 0.048709787
-0.11566235 -0.08282057 -0.032068986 0.047600135 0.0029512607 0.081777565 0.04989307 -0.056676567
0.040748525 -0.00655585 0.19433306 0.013673719 0.21494068 0.22284578 -0.16565916 0.020123683
0.015671711 -0.0033057113 -0.039494965 0.12874405 -0.08032751 -0.04762062 0.117072575 0.07499687
0.11517188 0.0092490865 -0.030810116 0.0025282064 0.17621338 0.06903245 -0.049096912 -0.049674846
-0.028379805 -0.03730441 -0.0132618295 -0.09588264 -0.01764852 0.07447299 0.11499261 0.0017013026
0.037059627 0.0121482685 0.03058581 -0.043713134 -0.08300559 0.041360058 0.08211247 0.08323341
-0.09253559 -0.060975313 0.028161952 -0.03933309 -0.0034299814 0.042930465 -0.07133306 -0.048346553
-0.041579664 0.026931785 -0.12524301 -0.08088708 0.01691621 -0.087176956 0.057099383 -0.06375561
-0.033213854 -0.07602435 0.011384968 -0.12660973 -0.08220783 -0.1730418 -0.10058019 0.11108177
-0.0028635948 0.19111037 0.01651969 0.107821465 0.064578354 0.062392943 0.018133825 -0.05844815
0.12964278 -0.010984785 0.071933284 0.07874754 -0.017119847 -0.031096963 0.16909502 -0.032083113
0.029937906 -0.02389916 -0.07496919 -0.011709968 -0.10218299 -0.02735542 -0.049194876 0.034881722
-0.10211425 -0.05763377 -0.0950335 0.10903902 0.0057636937 0.070992075 -0.09756447 -0.04021862
0.03150229 0.038092755 0.0018660083 -0.15474384 -0.16312478 0.08625013 0.16652 0.038910773
-0.10004349 -0.08723534 -0.03281805 0.018806491 0.0034170076 -0.049747247 0.048867293 -0.020413144
0.022044517 -0.0061044553 0.15954478 0.050511528 0.08857395 0.0542195 0.06352852 0.07354741
-0.23530975 0.030028341 -0.003668339 -0.063125364 -0.071468934 -0.017946312 0.01518522 -0.014683164
-0.040874995 0.07837707 -0.040966146 0.16641557 0.012732566 0.1213185 -0.009180791 0.063668855
-0.015511071 0.1018959 -0.09286757 0.12753268 -0.0034212866 -0.0072859395 0.08627427 0.05651147
0.011185519 -0.10481315 -0.01671032 0.067901194 0.11200519 -0.116309546 0.030442975 0.019284185
-0.14416143 0.05515123 -0.06158718 0.045422032 -0.14782985 0.027356947 0.0654559 -0.18450849
0.028813098 0.083319165 -0.08712527 0.08538385 -0.1587716 0.13753283 -0.20310874 0.11315595
0.018700814 -0.041208617 0.074795164 -0.02517014 -0.06771503 0.0077288263 0.044999573 -0.06848063

gru.weight_hh_l1 f4 [384, 128]
00000000: bc8a 09bd 3f65 e03c 62dd c53d 60d3 a73d
00000010: b889 843c 59c1 b8ba 2a25 49bd d672 88bd
00000020: 3223 12bd 56bd 90bd 5ccd c83d fcd1 15bb
00000030: 94a7 d63c 4ee7 bdbd 2f47 0e3d 889b 893d
00000040: d158 0a3d 777a 3f3c 0f64 edbd 1708 bb3d
00000050: a4a5 f43d 9227 57bd 68f8 f53d 8cf6 bc3d
00000060: 2d7e 8fbd 67dd bdbd 9444 65bd 9e61 653c
00000070: 6c2b d83b f6ba 9dbc 26f3 8a3d 5556 9a3d
00000080: 3fc7 cfbd 33cc 9abd 1542 3f3d 4fde 243c
00000090: 93f2 b23d 628e 9c3c 764e ed3c 0c38 c4bd
000000a0: 7425 203c 8019 01bd 9e35 d63c 94db 9d3d
000000b0: 764b 913d 89e8 de3d 020e 0b3c 2036 1d3d
000000c0: 0775 a7bd b5b3 8c3b fc5a 14bd 6e21 0d3d
000000d0: 463c abbd 05f0 13bc 1eff f43c 3db8 513d
000000e0: ee9b be3d 12c8 3ebb 9123 583d 0a4c b63c
000000f0: 91b5 683a 0838 d5bc 258d 5bbc 8c26 18bd
00000100: 6502 6ebd 6760 ee3c 972f 883d c281 1fbd
00000110: 81d3 aa3b 464d 973d 912f 62bd 1cc4 713d
00000120: ddcd 7abc 5946 53bd c8b7 20bd 7c9b d5bd
00000130: 0081 51bd 6a67 353d 435f 843d 5ad8 cc3c
00000140: 4b87 72bd 05b3 dcbd d26d c83b 321a bf3c
00000150: 1850 ac3c 0551 b53d 9bcf aebb e628 8a3c
00000160: 15a5 5cbc e0b4 833d 8660 a83d 77ab 26bd
00000170: 5d34 85bd 401e 3dbc 86f9 abbd efa7 75bc
00000180: d7e2 46bd 7fd5 cbbc 93aa 29bd cccc f63b
00000190: d9a2 d6bd 6bbf cb3d a1cf 2dbd 094a dcbd
000001a0: 9e61 3a3b fda7 7dbc b0e5 f93c 906e f0bd
000001b0: ab92 e1bd c88f d7bd 9e59 263d 024e 13bc
000001c0: 7aa8 7f3d 3043 a43c d6c0 afbd eb18 01bd
000001d0: cb97 123d af55 8f3d 8fa4 7c3d 1853 acbd
000001e0: d693 45bd e5cd 103c c280 023c 16d8 9e3c
000001f0: c0d0 8538 38bc 30bd 1494 823d 26a8 70bc
00000200: a1a6 ba3d 6a7c 9b3d 6424 b6bc e9b0 5bbd
00000210: e731 1cbd bc26 853b 9808 efbd 8a1b b8bd
00000220: cb72 273d d2bf 423d 0f68 233d 3d6f 8a3d
00000230: 4655 453c 4387 2c3d 8e91 3abd eb2e a5bc
00000240: b6f4 c63d 9f11 bbbc 14bf 6fbc 5129 50bd
00000250: 9a0b 33bd 8490 69bd b0df adbc a521 05bc
00000260: d959 0dbd b66d 893d f1b9 d8bc 85cd 303d
00000270: 9a51 fe3d 9fdf f8ba 2591 973d d409 9c3c
00000280: 5201 893d a09b 6ebd 07d2 ab3c 0f21 7b3d
00000290: 831b 853c 97f4 c63c 8b70 85bd 633e 13bd
000002a0: 5a3d 0fbb 16ba abb9 d05f 93ba 9e1e 85bb
000002b0: 7f46 98bc c60e b43b fc11 183c 64ae 783d
000002c0: e271 acbd 549a 7d3d 3561 6fbd fb6d 74bd
000002d0: 1dc6 503d 5775 023e 583a 06be a17e 043e
000002e0: 66b2 ac3d 6894 93bc 705e 6739 4f36 16be
000002f0: d7f2 153d 7425 da3d e69e 83bd 0456 133d
00000300: 75bb 74bd 5e0d 273d 5c0a 503d bd85 a23c
00000310: e4ff 423c 3061 76bd abdd 273d 8099 fabd
00000320: e01e 52bd 8192 59bd 34fb b43d 6ae9 23be
00000330: ee6c 3abd 9386 43bd 01de a5bd 3e68 a5bc
00000340: 4aba 883d 75f5 2c3d f5d7 d23c 3978 c3bd
00000350: 77f1 8dbc b9c1 20bc 57cb 19bc 52bf a4bb
00000360: db23 ab3d ae78 b33d c6e7 163d 5f67 9a3d
00000370: f0c2 4cbd 3323 94bd 32c3 8a3c 158b a8bd
00000380: 9908 dc3c b38d 6b3d ee4f 3dbd 73ca 1f3d
00000390: 90a1 883d f5e3 07bd a574 b03d 97db c9bc
000003a0: d901 ce3d 8f58 003d 3780 09bc dfd8 0f3d
000003b0: 59b1 313d ec1f 033d b7fb dabd d92a cf3d
000003c0: 7229 21bd e9e2 8b3d 8492 6c3d 5f37 c93c
000003d0: 9095 6abd f1e8 cfbc 3349 f2bb b749 b73c
000003e0: ccb1 d63d c43f 1fbd 74fe c3bc e161 d03d
000003f0: 3fa9 89bd 29ce d9bc 0c0d bebc 4abc c23b
-0.033579573 0.027392028 0.09661366 0.081946135 0.01617895 -0.0014095708 -0.049107708 -0.06662528
-0.035678096 -0.07067363 0.09804794 -0.0022860756 0.026202954 -0.092726335 0.034735855 0.06719118
0.03377611 0.011686913 -0.1159135 0.091324024 0.11945656 -0.05252797 0.1201027 0.092267126
-0.07006488 -0.09270745 -0.055973604 0.0140003245 0.006596973 -0.019254189 0.06784658 0.07535998
-0.10145425 -0.07558479 0.04669388 0.010062768 0.087376736 0.019110862 0.028968077 -0.095810026
0.0097745545 -0.03151846 0.026148614 0.07707897 0.07094471 0.10884196 0.008487226 0.038381696
-0.08176618 0.0042938837 -0.036219582 0.03445571 -0.083611056 -0.009029393 0.029906806 0.051201094
0.09307085 -0.002911095 0.052768294 0.022253055 0.0008877153 -0.026027694 -0.013400351 -0.037146136
-0.058107752 0.029098703 0.06649702 -0.038942106 0.0052132015 0.073877856 -0.055221144 0.059024915
-0.015307871 -0.05158076 -0.039237767 -0.10430047 -0.051148415 0.044288076 0.06463482 0.025005508
-0.059211057 -0.10776333 0.006116607 0.02332792 0.021034285 0.08853344 -0.005334807 0.016865205
-0.013467093 0.064309835 0.082215354 -0.040690865 -0.06504128 -0.011542857 -0.08397202 -0.014993652
-0.048556175 -0.024882076 -0.041422438 0.007531738 -0.104802795 0.099486195 -0.04243434 -0.107563086
0.0028439532 -0.015481946 0.030505031 -0.11739838 -0.11014303 -0.10525471 0.04061281 -0.0089907665
0.06241653 0.020051569 -0.085817024 -0.031517904 0.035789292 0.06998765 0.061680373 -0.084142864
-0.04823669 0.008838152 0.007965269 0.019390147 6.380817e-05 -0.04314825 0.063759 -0.014688527
0.09113813 0.075920895 -0.02223415 -0.05363551 -0.038133528 0.0040634554 -0.11671561 -0.08989628
0.04088096 0.047546215 0.03989416 0.06759498 0.012044257 0.042121183 -0.045548968 -0.020163974
0.09714644 -0.02283555 -0.014632959 -0.050820652 -0.043712236 -0.057022586 -0.021224827 -0.008125697
-0.034509514 0.06710379 -0.026455851 0.04316475 0.12417908 -0.0018987543 0.07400731 0.019047655
0.06689705 -0.058253884 0.020974172 0.061310824 0.01624847 0.024286551 -0.065156065 -0.03594817
-0.0021856637 -0.00032754306 -0.0011243764 -0.0040624877 -0.018588303 0.005494925 0.009281632 0.060713187
-0.08420159 0.061914757 -0.058442313 -0.059675198 0.050970186 0.12740074 -0.13108194 0.1293893
0.08432464 -0.018015102 0.00022065057 -0.14669155 0.036608543 0.10651675 -0.06426792 0.035970703
-0.059749085 0.040784232 0.05079113 0.019839162 0.011901829 -0.06015128 0.040982883 -0.12236309
-0.051298976 -0.053118233 0.08836976 -0.16007009 -0.04551404 -0.04773576 -0.080989845 -0.020191308
0.06676157 0.042226274 0.025737742 -0.09544415 -0.017327053 -0.009811812 -0.009386859 -0.00502769
0.08356448 0.08763252 0.03684213 0.07539248 -0.049990594 -0.07233276 0.01693878 -0.08229653
0.026859568 0.05750818 -0.046218805 0.03901143 0.066714406 -0.03317638 0.08615998 -0.024640841
0.10058946 0.031334456 -0.008392385 0.035118934 0.043382023 0.032012865 -0.10692542 0.101155944
-0.039346166 0.06830389 0.057756916 0.024562536 -0.05727154 -0.02537963 -0.00739398 0.022374017
0.10483131 -0.03887917 -0.023925044 0.10174919 -0.06721734 -0.026587563 -0.02319958 0.005942856

gru.bias_ih_l1 f4 [384]
00000000: d702 4e3d d50f b2bd 6da0 c8bd 8a1d 21bd
00000010: 28d6 6ebd 0d3c bdbd dedb 363d d9d0 7dbb
00000020: 0bff 32bc c698 74bd 5343 b43d 3c55 16bd
00000030: b39a d63c c911 69bd 0efe b1bd a135 363d
00000040: f43f 4c3c 9f4f a63d 4257 04bd 9799 103e
00000050: 35bd 4dbd 3de4 0fbd a408 a0bd 5431 3d3c
00000060: b704 23bd c87f 543d d20c 8fbd 0336 553c
00000070: 16cb 3fbd 3002 c53d c465 ae3d b3df 7c3b
00000080: f7d9 2b3d 282a 19bd 2519 12bd 56da f8bb
00000090: ecce 673d ead2 b93b 5129 91bd 4c23 a4ba
000000a0: 4e0d 93bd 3c4d 8f3b e82a 25bd 19c7 483d
000000b0: ec57 77bd dcaa 933d 249d 2d3d 3a3c 9d3d
000000c0: b8b6 42bd 0f26 35bb 7a2c 973d bc56 88bc
000000d0: 24fa a7bd 2064 80bc e2cf 9bbd 28eb 86bd
000000e0: 8081 9fbc 2a52 373d af3e bbbc dda6 b539
000000f0: d069 a1bb c6e1 803b a493 323c dfce 28bd
00000100: b57e 903d c571 e5bb 7293 833d ddc8 73bd
00000110: 8127 fe3b 19b2 2f3d d923 79bd 78eb c1bc
00000120: e5db 9c3c 2c72 f33d d397 5b3d 2220 eb3d
00000130: 152f a2ba d1d9 36bd 1076 883b a8b0 e43d
00000140: 4c58 6f3d f1dd f8bc cf89 8c3c 6584 71bd
00000150: a17e 4cbd f691 9d3d ab48 d1bd 0de7 bf3c
00000160: 290e cabd c688 b3bd b3dc 45bd c8f8 1b3d
00000170: 4842 843c 31fb 723d 6cc2 92bd 6004 68bc
00000180: 0372 b3bc ed56 cd3c f71e eb3b cd11 d63d
00000190: 6027 9f3b 1c3b f73c 6e29 d33c b360 74bd
000001a0: 666f 1a3d 1805 6cbd c037 c1bd d492 b53d
000001b0: 00c5 1a3d a909 c13d bbf1 373d 19b8 4bbd
000001c0: 5386 11bd b93a d4bc 3f57 bdbc 306d 7e3d
000001d0: 8e38 9bbd f85b 0d3d 2bb1 c93d d9cc c3bd
000001e0: 2291 c1bd 1f25 e9bc 66f1 08bc 0086 a63d
000001f0: b74f 9d3a 9e2a 1e3d e7bf ef3d ec6a 953d
00000200: 373e c5bd 0179 81bd 8357 29be 34d3 5ebe
00000210: 9601 2abe 417d 18be 3e44 6abe 575c e4bd
00000220: 5ca7 ffbd 9660 c0bd 1c51 81bd ba2b 09be
00000230: 83a7 76bd 36be 0abe 9495 043a 2680 cebc
00000240: 4bfb eebd cfdc adbd 093d e4bd 14b8 76be
00000250: 7d94 193d 632c b7bc f432 95bd 23aa 21be
00000260: 95af 00be f41d 48bd 7401 01be a736 17be
00000270: 9823 57be ad8e 4dbe 1ed1 3bbe c1af ecbd
00000280: df82 92bd ec83 ecbd 7b80 01be 2a52 e6bd
00000290: 62c4 113d e3b3 89bd 39aa 13bd 0d7d 46be
000002a0: 85c6 93be 83e6 dbbc 9e50 92bc c0bf debd
000002b0: 0387 98bb 1ac8 8cbd 2a89 b4bc d6c6 cd3b
000002c0: f4a7 bebd 2b11 b6bc ce3c 86bd d47d 4bbe
000002d0: 80ab b8bd 0d06 27be eecd a1bc f373 a2be
000002e0: 6cb8 14be 5c4b 1cbe bcb8 a7bd c2dc 5cbe
000002f0: 93c4 2cb8 6661 48be 2968 1fbd f2f1 f1bd
00000300: 447e a7bd bcfe fabd 454b 0fbe 48f2 4cbb
00000310: 0059 c53c 3285 edbc dbb8 a8bd 8797 26be
00000320: f255 adbd 08b7 07be 1606 70bd ff50 63bd
00000330: 73fb 3cbe 866b 6abe ff8c d3bd 9277 1bbe
00000340: 421d 5cbe 88bd dcbd b13f d8bd b3c0 02be
00000350: 51ae 0cbd 131a 23be 2e65 a9bd 4ccb 79bd
00000360: 6f2e 86bd 7674 9cbd d86a efbd dfb7 b0bd
00000370: 2526 1cbe 663a 54be c938 2cbe 2d79 a6bd
00000380: a4f2 4fbd a27a dabd 7c95 05bd fb7f 03bd
00000390: e570 103c 338c 46be bdac 06be b50c 45be
000003a0: e824 b5bd d29a cabd d45a 61be c530 a6bd
000003b0: 1dcc d7bd 28aa 4ebe 83a3 adbd 00bd 93bd
000003c0: b222 1cbe 5866 15be 367f 29bd 4374 03be
000003d0: 4c49 b13d 6682 43be 136d 66be 9869 33be
000003e0: fc05 33be e107 6cbc 42ea 7bbd 1494 15be
000003f0: 62fb 47be 5104 cbbd a83e b43d e4e4 1abe
0.050295677 -0.08694426 -0.09796224 -0.03933481 -0.058309704 -0.092399694 0.044643275 -0.003872922
-0.010925065 -0.05971601 0.088019036 -0.03670238 0.026196813 -0.056901727 -0.08691035 0.04448474
0.0124664195 0.08120655 -0.032309778 0.1412109 -0.05022927 -0.035129774 -0.07814148 0.011547405
-0.03979942 0.051879674 -0.06984867 0.013013366 -0.046824537 0.09619558 0.08515504 0.0038585484
0.041955914 -0.03739372 -0.03566851 -0.007594387 0.05659382 0.005670895 -0.070879586 -0.0012522726
-0.07180272 0.0043732207 -0.04032412 0.049018 -0.060386583 0.07210323 0.04238619 0.07677503
-0.047537535 -0.0027641093 0.0738153 -0.01664292 -0.082020074 -0.015672743 -0.0760801 -0.06587821
-0.01947093 0.044756092 -0.022857038 0.00034647333 -0.004925944 0.0039331643 0.010899458 -0.041212913
0.070554174 -0.007002088 0.06424607 -0.05951773 0.007756174 0.042894457 -0.060825203 -0.02367185
0.019147823 0.11887011 0.053611588 0.11480738 -0.0012373651 -0.04464132 0.004164465 0.11166507
0.058433816 -0.030379267 0.017155556 -0.058964152 -0.04992545 0.076938555 -0.102189384 0.023425603
-0.09865982 -0.08766322 -0.04830618 0.038079053 0.016144887 0.059321586 -0.07165989 -0.014161199
-0.021904951 0.025065864 0.007175322 0.10452614 0.004856989 0.030179553 0.025776591 -0.059662532
0.037703894 -0.057622045 -0.094344616 0.08865896 0.03778553 0.09425671 0.044908267 -0.049736116
-0.035528492 -0.025906907 -0.023112891 0.062115848 -0.07579146 0.034511536 0.09848245 -0.09560556
-0.0945151 -0.028460084 -0.008358335 0.08131027 0.0012001906 0.03861486 0.11706524 0.07295784
-0.09631007 -0.06321908 -0.1653729 -0.21760255 -0.16602167 -0.1489153 -0.22877595 -0.11150425
-0.12483093 -0.09393422 -0.063142985 -0.13395587 -0.060218345 -0.13549122 0.0005057689 -0.02520759
-0.11669024 -0.084893815 -0.11144454 -0.24093658 0.037495125 -0.022360032 -0.07285109 -0.15787558
-0.12566979 -0.04885669 -0.1259821 -0.14766942 -0.21009672 -0.20073958 -0.1834149 -0.1155696
-0.07153868 -0.115485996 -0.12646668 -0.1124614 0.035587676 -0.06723764 -0.03605101 -0.1938364
-0.28862396 -0.026843315 -0.017860707 -0.10876417 -0.0046547665 -0.06874104 -0.022038061 0.0062798066
-0.09309378 -0.022224983 -0.06554566 -0.19872218 -0.09017086 -0.16310902 -0.019751515 -0.31729087
-0.14523476 -0.15263122 -0.08189532 -0.21568587 -4.119107e-05 -0.19568405 -0.038917694 -0.118137255
-0.0817838 -0.12255618 -0.13993557 -0.003127234 0.02409029 -0.028994177 -0.082383834 -0.1626874
-0.084636584 -0.13253415 -0.058599554 -0.055497166 -0.18455295 -0.2289258 -0.10329627 -0.15182331
-0.21495536 -0.10778338 -0.10559023 -0.12768821 -0.03434593 -0.15927915 -0.082712516 -0.060984895
-0.06551825 -0.07639401 -0.11690301 -0.08628821 -0.15248926 -0.20725402 -0.16818537 -0.08128581
-0.05076851 -0.106679216 -0.032613263 -0.032104474 0.008815979 -0.1938942 -0.13151832 -0.19243129
-0.0884493 -0.09892811 -0.22007304 -0.08114771 -0.105369784 -0.20182097 -0.08478453 -0.07213783
-0.1524761 -0.14589822 -0.041381083 -0.12837319 0.086565584 -0.19092712 -0.22502546 -0.1752075
-0.17482752 -0.014406175 -0.061502703 -0.14607269 -0.19529489 -0.09912933 0.08801013 -0.15126377
