Assignment_2/Task1/RNN_GloVe.pth (torch, 255060 bytes, 10 tensors)

rnn.weight_ih_l0 f4 [128, 100]
0.017145053 -0.021185383 -0.07128201 0.028173706 -0.011897663 0.078435265 -0.10238849 0.06507662
0.058067553 -0.06301146 0.015347052 -0.082115725 0.048822287 0.037341848 0.058626037 -0.08048895
0.07275099 -0.03033159 -0.0020849705 0.017318903 0.005900222 0.026018793 -0.018293792 -0.0028058756
-0.035875756 0.041960306 -0.030339697 0.042567823 -0.0062801037 -0.106818244 0.016955955 0.12923017
0.06986914 -0.017909281 0.05257352 0.07430439 -0.10374489 -0.10077404 0.07130939 0.053579446
0.012570537 0.098051265 -0.071618564 0.10269424 0.052805077 -0.034082312 0.09474578 -0.090849005
0.08452424 -0.017663442 0.038666334 0.05486174 -0.062125545 0.069258764 -0.052796703 0.051799625
-0.056662723 -0.15915273 -0.021347512 0.046792902 0.046068124 -0.04509977 -0.099572845 0.04342378
0.08888861 -0.076705545 -0.028119508 0.01305289 -0.009987458 0.09805322 0.09426658 -0.0918028
0.034021124 -0.041256655 0.10547487 -0.026660074 0.011107579 -0.00049726217 0.06034131 -0.03148148
0.044584956 -0.005179163 -0.08543827 0.0078758495 -0.07546112 -0.077758916 -0.02120246 0.065870106
0.089945525 -0.027726969 -0.013277095 0.07261164 0.10198716 -0.05426449 -0.098986425 0.016531315
-0.033671133 -0.012692083 -0.06669724 -0.030824715 0.07241211 -0.045687858 0.00037743407 -0.03580721
-0.044818778 -0.0157401 -0.0018381083 0.0074519436 -0.04079421 -0.060122978 -0.035935942 -0.03647148
0.018303756 -0.10061262 0.04171701 0.038564403 0.019454073 0.0046575638 0.0760018 -0.10931324
-0.10480246 -0.1528948 -0.05362208 -0.08287846 -0.060297824 -0.028780293 0.013673439 0.10072527
-0.08750936 -0.11351812 -0.0080334665 0.0690927 -0.13155769 -0.025287515 0.06666849 0.009470874
0.09107722 0.12964296 0.017853025 0.013963038 -0.007509533 -0.026521914 0.0053316625 0.02654016
0.06660732 -0.1082519 -0.12780038 -0.13626674 0.02817523 0.004617299 -0.0023610482 0.1013773
0.08647892 -0.004373279 0.028901767 0.054264292 0.036406644 0.11425458 -0.0048595513 0.04469689
0.09844108 0.025308918 0.011387144 -0.06445607 -0.08947942 -0.048459947 -0.032565463 0.03947361
0.06605281 -0.091662526 0.0026015025 0.07260713 0.13763751 0.06567251 -0.007034584 0.14799075
-0.07659303 -0.053901616 0.060337704 0.021422906 0.054075155 -0.1230274 -0.0273518 -0.074398205
0.087452546 0.057514153 0.011087395 0.13616373 0.06982945 0.004992725 0.09016365 -0.009302503
0.008940771 -0.0346556 -0.0061159376 -0.063724004 0.054771874 0.009911341 -0.04702052 0.0471159
0.022060819 -0.022710346 -0.08275294 -0.09734608 -0.1008312 -0.045148905 0.0073603555 0.016543945
-0.096589945 0.014761225 -0.100178525 -0.06933222 -0.071618296 -0.019018218 0.03826146 0.08685732
-0.022396162 -0.027653368 -0.029401895 -0.119091414 0.016187022 -0.12240425 -0.008799345 -0.01933033
0.092359565 0.036052868 -0.032410376 -0.016824069 0.03308351 -0.08380562 0.08643541 0.10581699
0.008115626 -0.12593736 0.086430766 0.016760763 0.05524946 0.08126458 0.010786908 -0.063799575
0.03092902 -0.04188826 0.09142916 -0.0800046 0.09896732 -0.016894877 -0.032076214 -0.17572749
-0.0070240023 0.00032512494 -0.002107943 -0.041600153 0.022854617 0.05022838 -0.0412388 -0.041821107
00000000: c873 8c3c f88c adbc 4dfc 91bd 8bcc e63c
00000010: 6aee 42bc aba2 a03d 0fb1 d1bd e446 853d
00000020: 3ed8 6d3d 270c 81bd 3472 7b3c 4a2c a8bd
00000030: e1f9 473d c4f3 183d db21 703d 64d7 a4bd
00000040: 79fe 943d f479 f8bc 00a4 08bb 5fe0 8d3c
00000050: a656 c13b 5d25 d53c dddc 95bc c8e2 37bb
00000060: 75f2 12bd 92de 2b3d f58a f8bc 995b 2e3d
00000070: 54c9 cdbb 86c3 dabd 37e7 8a3c ea54 043e
00000080: 8d17 8f3d 7cb6 92bc 5557 573d e62c 983d
00000090: 3378 d4bd 9f62 cebd a80a 923d 1f76 5b3d
000000a0: a7f4 4d3c 1acf c83d c1ac 92bd 5c51 d23d
000000b0: 234a 583d e599 0bbd 130a c23d 0b0f babd
000000c0: 0b1b ad3d ecb2 90bc 9760 1e3d b4b6 603d
000000d0: 5b77 7ebd 8ad7 8d3d 5b41 58bd d82b 543d
000000e0: 2c17 68bd eff8 22be fae0 aebc eaa9 3f3d
000000f0: eeb1 3c3d 89ba 38bd d9ec cbbd 22dd 313d
00000100: 3b0b b63d cc17 9dbd e25a e6bc cadb 553c
00000110: 6fa2 23bc 20d0 c83d d60e c13d 1b03 bcbd
00000120: bc59 0b3d bdfc 28bd 3503 d83d 3a66 dabc
00000130: 90fc 353c b35a 02ba 7328 773d b9f2 00bd
00000140: b79e 363d f8b5 a9bb 42fa aebd b509 013c
00000150: 5c8b 9abd 1140 9fbd c8b0 adbc e8e6 863d
00000160: 5c35 b83d ab23 e3bc 2c88 59bc 69b5 943d
00000170: a5de d03d 7144 5ebd 65b9 cabd ae6c 873c
00000180: beea 09bd 74f2 4fbc 9098 88bd 1d84 fcbc
00000190: cd4c 943d 3123 3bbd 58e2 c539 95aa 12bd
000001a0: e593 37bd 62f1 80bc aeec f0ba 6f2f f43b
000001b0: d417 27bd 8343 76bd 9131 13bd 1e63 15bd
000001c0: c2f1 953c fd0d cebd 75df 2a3d b5f5 1d3d
000001d0: 265e 9f3c 7a9e 983b d5a6 9b3d 9fdf dfbd
000001e0: aca2 d6bd 7490 1cbe d3a2 5bbd 2fbc a9bd
000001f0: dafa 76bd a6c4 ebbc 8f06 603c 0d49 ce3d
00000200: 1b38 b3bd 307c e8bd cd9e 03bc 7980 8d3d
00000210: 0fb7 06be c327 cfbc 7d89 883d ba2b 1b3c
00000220: b286 ba3d 20c1 043e 8240 923c 3ac5 643c
00000230: 8712 f6bb 7c44 d9bc 3ab5 ae3b c06a d93c
00000240: 6b69 883d 2cb3 ddbd 1ade 02be 8289 0bbe
00000250: bdcf e63c b64c 973b d1bb 1abb e79e cf3d
00000260: dc1b b13d b94d 8fbb 66c3 ec3c 3c44 5e3d
00000270: 221f 153d 4efe e93d df3c 9fbb 1614 373d
00000280: 7a9b c93d a654 cf3c 2591 3a3c 8b01 84bd
00000290: fc40 b7bd f07d 46bd 5d63 05bd 15af 213d
000002a0: b246 873d 90b9 bbbd f87d 2a3b 0cb3 943d
000002b0: d9f0 0c3e 4f7f 863d 5e82 e6bb e38a 173e
000002c0: cedc 9cbd f1c7 5cbd ab24 773d 177f af3c
000002d0: e97d 5d3d caf5 fbbd e210 e0bc 165e 98bd
000002e0: 521a b33d f693 6b3d e8a7 353c 816e 0b3e
000002f0: be02 8f3d 039a a33b b8a7 b83d 8769 18bc
00000300: 507c 123c 08f3 0dbd 3468 c8bb bb81 82bd
00000310: 7958 603d 2d63 223c 9798 40bd 9afc 403d
00000320: e4b8 b43c 0c0b babc 607a a9bd 625d c7bd
00000330: 9780 cebd 0fee 38bd 232f f13b 2b87 873c
00000340: f3d0 c5bd 11d9 713c 662a cdbd 0dfe 8dbd
00000350: 9dac 92bd 18cc 9bbc 0cb8 1c3d 40e2 b13d
00000360: 2878 b7bc 5189 e2bc 3edc f0bc 33e6 f3bd
00000370: a59a 843c 14af fabd 212b 10bc a45a 9ebc
00000380: 0327 bd3d 2cac 133d bec0 04bd a1d2 89bc
00000390: 9382 073d 48a2 abbd 0c05 b13d 94b6 d83d
000003a0: 67f7 043c b9f5 00be 9d02 b13d de4d 893c
000003b0: 424d 623d 0b6e a63d 92bb 303c 5aa9 82bd
000003c0: db5e fd3c 0693 2bbd 363f bb3d 74d9 a3bd
000003d0: 61af ca3d 2067 8abc 5962 03bd e8f1 33be
000003e0: 9a29 e6bb 8875 aa39 6a25 0abb ec64 2abd
000003f0: 9b39 bb3c 46bc 4d3d 04ea 28bd 9c4c 2bbd

rnn.weight_hh_l0 f4 [128, 128]
0.074979715 0.031038014 0.050386295 0.056632217 -0.02567971 -0.055230595 0.013734897 0.05678597
-0.088553324 -0.01998237 -0.049491677 -0.0018960247 -0.06048239 -0.0488691 0.0868534 -0.053848416
-0.06527489 -0.006959337 0.03801976 0.046827823 0.08024318 -0.02737743 -0.035469264 0.053172562
0.050256424 0.010046823 0.054108292 -0.039773285 0.060277395 -0.010916532 -0.0005412675 0.06017991
0.019752674 0.099968985 0.055605978 -0.055622414 -0.030904703 0.02297341 -0.0748366 0.052428916
-0.08228602 -0.041314155 0.123007566 -0.0987327 0.03441496 -0.022731612 0.06275775 0.033527423
0.09214716 -0.041896023 0.033020016 0.081569426 -0.013558217 0.09313339 0.04911695 0.006395112
-0.08980908 0.013099164 -0.04454714 -0.046277244 0.04484349 -0.02842295 0.09983716 0.026198057
0.058188878 -0.09874409 -0.10653235 -0.080464184 -0.016350206 -0.07027381 0.06638976 -0.07224151
0.06792844 -0.0033896926 0.0077197617 0.0012929183 -0.06027091 -0.040002722 0.065661706 -0.0143967485
0.05125735 -0.060487393 0.010172493 0.023458177 -0.031238066 -0.055676762 0.0041878778 -0.09558709
0.0266153 0.07788309 -0.05733313 -0.06672168 -0.037080403 -0.07859229 0.044899266 -0.058610417
0.07272602 0.0040197507 0.072203055 -0.013747205 -0.037032537 0.055123113 -0.009724603 0.01952246
-0.022887833 -0.026192531 -0.028522762 -0.079468265 -0.061867885 0.06207332 -0.0193871 0.03805749
0.071566336 0.076191336 -0.07265192 0.0020531123 0.050000742 0.0040495885 0.0736385 -0.083228104
0.02427764 -0.054978017 -0.060445156 -0.08046672 0.07334349 0.015520798 -0.05283016 0.098612435
-0.051918477 0.1188078 0.05230763 -0.048049193 0.074409544 -0.080644086 -0.036133144 -0.033693057
0.032836016 0.03563456 0.017742261 -0.025120014 -0.027928222 -0.009253251 0.05125423 -0.04707158
0.119531 0.07513758 0.08468022 0.014149481 0.0573899 -0.09417792 -0.10794993 0.07834705
-0.05341485 -0.06525619 -0.01324632 -0.05770947 0.05888253 0.08598781 0.040438425 -0.032673445
0.044997342 0.048702113 -0.06602891 0.057808902 -0.02285483 -0.0430681 0.04307543 -0.02911981
-0.042094626 0.025521945 0.008594384 -0.06569947 0.04578451 -0.03709535 -0.0069784443 -0.024662953
-0.06214881 -0.048595328 0.057397775 0.03721456 -0.063356236 0.065623194 -0.029971713 -0.0825584
0.041957818 -0.07892645 -0.069857165 0.060759157 0.06722525 0.053216193 -0.03643472 0.05009452
-0.09426241 0.064909056 -0.052283004 0.048260618 0.050269935 0.06742607 -0.039241366 0.0046758475
-0.1027732 0.062997945 0.024683373 0.04885811 0.027687263 0.03345385 -0.021003315 -0.082775846
0.026415147 0.055277046 -0.013679295 0.038115125 -0.0029745807 0.08629552 -0.00021035448 -0.06368448
-0.033809327 -0.08740148 0.035548218 0.0057861833 -0.1103512 -0.07796322 -0.012478613 -0.07255898
0.007970259 0.010932655 0.054068733 0.054252747 -0.057552792 0.08150324 -0.046060465 -0.010925239
0.0068038497 0.010049334 -0.000994087 -0.07656027 -0.0040791975 0.05002282 0.09629714 -0.12281963
-0.00783557 0.033455573 0.024991348 0.03216249 -0.008641309 -0.063892886 -0.025232969 0.018234048
0.04443622 0.082168624 -0.06896508 0.040149126 -0.0020798543 0.09657976 0.015174979 0.103988536
00000000: f78e 993d 6f43 fe3c dc61 4e3d 2ff7 673d
00000010: 415e d2bc 7a39 62bd 5508 613c 6898 683d
00000020: 725b b5bd 11b2 a3bc c9b7 4abd 0884 f8ba
00000030: 62bc 77bd f72a 48bd 32e0 b13d 2890 5cbd
00000040: d7ae 85bd 260b e4bb 9cba 1b3d 88ce 3f3d
00000050: 8956 a43d a246 e0bc 3848 11bd 79cb 593d
00000060: aed9 4d3d 6e9b 243c a8a0 5d3d 50e9 22bd
00000070: 6ee5 763d 41db 32bc d9e3 0dba 367f 763d
00000080: 5cd0 a13c 8abc cc3d 18c3 633d 54d4 63bd
00000090: dc2b fdbc bc32 bc3c ee43 99bd b4bf 563d
000000a0: 9385 a8bd 0839 29bd 64eb fb3d 5f34 cabd
000000b0: b3f6 0c3d a537 babc 2387 803d 0d54 093d
000000c0: a6b7 bc3d 2a9b 2bbd ff3f 073d df0d a73d
000000d0: 4923 5ebc b8bc be3d db2e 493d 168e d13b
000000e0: d3ed b7bd e09d 563c 1077 36bd 358d 3dbd
000000f0: cfad 373d 3fd7 e8bc 6d77 cc3d 4f9d d63c
00000100: 7657 6e3d 573a cabd a22d dabd 68ca a4bd
00000110: def0 85bc b7eb 8fbd 5bf7 873d 5bf3 93bd
00000120: 111e 8b3d 9b25 5ebb 0ef6 fc3b 2477 a93a
00000130: a1de 76bd e5d9 23bd a579 863d 57e0 6bbc
00000140: 3af3 513d a1c1 77bd 87aa 263c 5d2b c03c
00000150: f9e6 ffbc 510d 64bd 773a 893b 2ac3 c3bd
00000160: 5408 da3c 2b81 9f3d 25d6 6abd 60a5 88bd
00000170: 9fe1 17bd fff4 a0bd 4be8 373d 7a11 70bd
00000180: 61f1 943d 1db8 833b 32df 933d f53b 61bc
00000190: 6eaf 17bd c6c8 613d f153 1fbc 91ed 9f3c
000001a0: 447f bbbc b891 d6bc 91a8 e9bc 42c0 a2bd
000001b0: 2e69 7dbd 9840 7e3d b2d1 9ebc 2ce2 1b3d
000001c0: 5f91 923d 340a 9c3d 88ca 94bd 828d 063b
000001d0: 94cd 4c3d 69b2 843b c8cf 963d 7f73 aabd
000001e0: e7e1 c63c a130 61bd 5795 77bd bccb a4bd
000001f0: 1d35 963d f24a 7e3c 7064 58bd 51f5 c93d
00000200: 78a8 54bd 8151 f33d 8740 563d 3bcf 44bd
00000210: 0864 983d ba28 a5bd 5900 14bd bb01 0abd
00000220: 0f7f 063d 8bf5 113d 3858 913c 7dc8 cdbc
00000230: bac9 e4bc f39a 17bc f5ef 513d 21ce 40bd
00000240: abcc f43d bbe1 993d d36c ad3d 3ad3 673c
00000250: ac11 6b3d 5ae0 c0bd da14 ddbd 6b74 a03d
00000260: 88c9 5abd 0aa5 85bd 1807 59bc c460 6cbd
00000270: cf2e 713d 601a b03d c3a2 253d 97d4 05bd
00000280: 224f 383d de7b 473d 2a3a 87bd 07c9 6c3d
00000290: 0d3a bbbc 2d68 30bd dd6f 303d ab8c eebc
000002a0: 6a6b 2cbd 6613 d13c 76cf 0c3c 728d 86bd
000002b0: 8a88 3b3d 4bf1 17bd 6fab e4bb f609 cabc
000002c0: c08f 7ebd e50b 47bd ee19 6b3d 4b6e 183d
000002d0: eac0 81bd 7465 863d 3d87 f5bc 6114 a9bd
000002e0: f6db 2b3d 31a4 a1bd 4611 8fbd 98de 783d
000002f0: 64ad 893d 39f9 593d 933c 15bd e92f 4d3d
00000300: a70c c1bd 0aef 843d b426 56bd edac 453d
00000310: d9e7 4d3d ae16 8a3d 8ebb 20bd da37 993b
00000320: c17a d2bd 1105 813d c934 ca3c 711f 483d
00000330: 66d0 e23c e706 093d 250f acbc 6286 a9bd
00000340: 9464 d83c 2f6a 623d 1f1f 60bc 9b1e 1c3d
00000350: 2ff1 42bb b5bb b03d 9a92 5cb9 026d 82bd
00000360: a67b 0abd 8cff b2bd 029b 113d 069a bd3b
00000370: cfff e1bd 2eab 9fbd 1973 4cbc cd99 94bd
00000380: b095 023c e11e 333c 2d77 5d3d 2138 5e3d
00000390: 7abc 6bbd 2ceb a63d e6a9 3cbd c6ff 32bc
000003a0: d4f2 de3b f6a5 243c 064c 82ba a1cb 9cbd
000003b0: caaa 85bb bae4 4c3d 6f37 c53d dc88 fbbd
000003c0: c360 00bc b608 093d a8ba cc3c d1bc 033d
000003d0: 4794 0dbc 46da 82bd 5fb5 cebc 925f 953c
000003e0: c102 363d 0648 a83d 903d 8dbd 6973 243d
000003f0: 2a4e 08bb 9ccb c53d 7aa0 783c f1f7 d43d

rnn.bias_ih_l0 f4 [128]
-0.05560294 0.06863608 -0.03831182 -0.051337667 -0.054022595 0.03349226 0.10809792 -0.030927315
-0.020381007 -0.06981046 0.060083326 0.050992176 -0.01240866 0.0030500407 -0.010922104 -0.011119454
-0.06380113 0.10999066 -0.046014033 0.03989594 0.017862104 -0.09774432 -0.06477162 0.050804917
-0.0062334617 0.0022995034 0.09184857 0.066664584 -0.07282347 0.037657063 0.014953816 0.05909694
-0.0072846827 0.030509975 -0.08094791 -0.03362441 -0.051946983 -0.027960248 0.08065465 0.0597241
0.039572537 0.031829897 0.033139285 0.04494619 -0.081423074 0.09690167 0.10701796 0.15440345
0.0959398 -0.054013204 -0.03144655 -0.07238546 0.034983333 -0.07741891 0.11947931 0.07113768
0.10720456 -0.10250737 -0.05292202 0.12338828 -0.06394945 -0.09094358 -0.096577466 0.120150745
0.03916415 -0.027236415 0.094213925 -0.03631025 -0.054173924 0.06290865 0.03114877 0.025227744
-0.0070527513 -0.010602902 -0.015173753 -0.07559725 -0.0010055564 0.015526822 0.10856907 -0.04432156
0.0010077072 -0.08772248 -0.030115046 0.063161395 -0.119198106 0.11882755 -0.1138571 -0.063304104
-0.01554876 -0.058684714 -0.07521167 0.07429961 -0.035593852 -0.046706658 0.14351755 0.037756253
-0.00085085875 -0.038809236 -0.03376158 0.025614552 -0.09860585 -0.022697123 -0.021954155 0.026473263
2.653656e-05 0.02840621 0.05520602 -0.062198233 -0.07073726 0.063372694 0.09552242 -0.018329123
0.04527426 -0.025787538 0.00952158 -0.026676191 -0.087786585 -0.12088605 0.048829228 0.018140903
-0.021384407 0.056650568 -0.07863194 0.025874007 0.09119918 -0.013518162 -0.034824036 0.061509904
00000000: e9bf 63bd 1391 8c3d dbec 1cbd 7247 52bd
00000010: cc46 5dbd 2e2f 093d 7162 dd3d 485b fdbc
00000020: 12f6 a6bc c9f8 8ebd ef19 763d 2cdd 503d
00000030: b14d 4bbc 31e3 473b a0f2 32bc 5f2e 36bc
00000040: 2baa 82bd c842 e13d 3679 3cbd ed69 233d
00000050: 8c53 923c 2d2e c8bd fca6 84bd d118 503d
00000060: 1142 ccbb 44b3 163b 1a1b bc3d 7187 883d
00000070: 7924 95bd 4b3e 1a3d da00 753c a20f 723d
00000080: 59b4 eebb 0ef0 f93c 05c8 a5bd c0b9 09bd
00000090: 5cc6 54bd e40c e5bc 442e a53d 42a1 743d
000000a0: d016 223d 1160 023d 0fbd 073d 7f19 383d
000000b0: 24c1 a6bd 6274 c63d 3b2c db3d f01b 1e3e
000000c0: 167c c43d f33c 5dbd 19ce 00bd d43e 94bd
000000d0: af4a 0f3d ce8d 9ebd 92b1 f43d a2b0 913d
000000e0: 108e db3d 62ef d1bd c3c4 58bd ffb2 fc3d
000000f0: eef7 82bd a140 babd 68ca c5bd 9811 f63d
00000100: 966a 203d e71e dfbc 3bf3 c03d 0fba 14bd
00000110: 7ae5 5dbd 40d6 803d b52b ff3c 6aaa ce3c
00000120: c41a e7bb cbb7 2dbc 559b 78bc bbd2 9abd
00000130: e0cc 83ba 3664 7e3c 7659 de3d 868a 35bd
00000140: 0b15 843a d8a7 b3bd d4b3 f6bc c35a 813d
00000150: 231e f4bd dc5b f33d e92d e9bd 95a5 81bd
00000160: 3ac0 7ebc 625f 70bd 9308 9abd 652a 983d
00000170: dcca 11bd 7b4f 3fbd 44f6 123e 4da6 1a3d
00000180: 2a0c 5fba 6ff6 1ebd 9549 0abd 9cd5 d13c
00000190: ddf1 c9bd 51ef b9bc 33d9 b3bc 75de d83c
000001a0: d49a de37 24b4 e83c b51f 623d 93c3 7ebd
000001b0: b2de 90bd 8bc9 813d 42a1 c33d f526 96bc
000001c0: 8171 393d 6340 d3bc 6700 1c3c 0788 dabc
000001d0: 74c9 b3bd 1b93 f7bd 2801 483d 3b9c 943c
000001e0: 5a2e afbc 6d0a 683d c809 a1bd baf5 d33c
000001f0: a3c6 ba3d 487b 5dbc a6a3 0ebd cff1 7b3d

rnn.bias_hh_l0 f4 [128]
0.064987436 0.0709614 0.038769808 -0.06177069 0.10068268 0.044630498 0.1409706 0.102486655
0.111252934 -0.053765684 0.081850424 -0.08896709 -0.067330234 -0.039382618 -0.05010696 -0.06476696
0.07014334 0.016369378 -0.010146325 0.03081351 -0.10434565 -0.07094923 -0.057880823 -0.056007683
0.09781983 0.043873787 0.032398988 -0.061870422 -0.0077575804 0.13731539 -0.03772298 0.089078575
-0.023770161 0.05182691 -0.040201813 0.055211626 0.06589928 0.097456686 0.060860623 0.08835012
0.075675614 -0.06872148 0.051800694 0.08934244 -0.11479118 -0.0132673215 0.07544992 0.13664693
-0.010270655 -0.06763786 -0.0029680545 -0.00050503295 -0.049350206 0.05494294 0.12509006 0.02467187
0.05215 -0.01959643 0.09661022 0.10285511 -0.004538532 0.062436767 -0.055106107 0.026184015
0.112798184 -0.030446615 0.11038346 -0.032944556 0.027624158 0.117247365 0.012440665 0.03497324
-0.05416817 -0.010987954 0.096352324 -0.08065853 0.07532438 0.07697674 0.13043512 -0.035104677
-0.092599414 0.05462611 -0.019755824 -0.047996856 -0.080756076 0.05223882 -0.10490518 0.09572077
-0.044432838 -0.033243306 -0.03944294 -0.009731857 0.04609765 -0.08558224 0.15307981 -0.047265925
-0.057930924 0.10366557 -0.071521334 0.006795782 -0.051724426 0.018540073 0.02130858 0.025601754
-0.090672426 -0.0025966282 0.10363246 -0.09036781 0.014110853 0.01447519 0.09079183 0.08460213
-0.08126675 -0.14077769 -0.007660314 0.042783488 -0.032220773 -0.13962905 0.09645779 -0.054678876
-0.1284343 -0.057011973 -0.028210565 0.047656808 -0.04790156 -0.027718794 0.08831306 -0.035395924
00000000: 2218 853d 3654 913d 17cd 1e3d 4303 7dbd
00000010: b932 ce3d 78ce 363d 995a 103e 86e4 d13d
00000020: 94d8 e33d 6839 5cbd 32a1 a73d 6134 b6bd
00000030: 6fe4 89bd ab4f 21bd f53c 4dbd 8aa4 84bd
00000040: 50a7 8f3d 1319 863c c63c 26bc 9d6c fc3c
00000050: 2cb3 d5bd d44d 91bd 7114 6dbd 5068 65bd
00000060: c355 c83d 00b5 333d cdb4 043d d76b 7dbd
00000070: 4d33 febb 689c 0c3e 6983 1abd d46e b63d
00000080: a4b9 c2bc 7448 543d a8aa 24bd 9625 623d
00000090: 34f6 863d 5f97 c73d fd48 793d e8f0 b43d
000000a0: d1fb 9a3d d9bd 8cbd f72c 543d 2bf9 b63d
000000b0: a317 ebbd 2e5f 59bc 7d85 9a3d 2ced 0b3e
000000c0: 4046 28bc b885 8abd b183 42bb 3064 04ba
000000d0: 7123 4abd d90b 613d 9c17 003e a91c ca3c
000000e0: 3d9b 553d b188 a0bc 94db c53d b3a5 d23d
000000f0: f7b7 94bb b2bd 7f3d f1b6 61bd dc7f d63c
00000100: bc02 e73d 2e6b f9bc b910 e23d dff0 06bd
00000110: 0f4c e23c 631f f03d eed3 4b3c 1a40 0f3d
00000120: 71df 5dbd d206 34bc 5e54 c53d 4d30 a5bd
00000130: ab43 9a3d fba5 9d3d c990 053e ecc9 0fbd
00000140: c3a4 bdbd a1bf 5f3d f7d6 a1bc 5a98 44bd
00000150: 7163 a5bd 5ff8 553d 87d8 d6bd 4009 c43d
00000160: 35ff 35bd 222a 08bd ec8e 21bd 5e72 1fbc
00000170: e4d0 3c3d be45 afbd f4c0 1c3e ea99 41bd
00000180: fa48 6dbd 9d4e d43d c779 92bd 27af de3b
00000190: fedc 53bd 5ae1 973c 558f ae3c c5ba d13c
000001a0: 77b2 b9bd 312c 2abb 413d d43d c212 b9bd
000001b0: 3531 673c 5929 6d3c 11f1 b93d e243 ad3d
000001c0: 2f6f a6bd 0728 10be 5f03 fbbb bd3d 2f3d
000001d0: eef9 03bd ebfa 0ebe a98b c53d f5f6 5fbd
000001e0: 4884 03be 6385 69bd d819 e7bc c933 433d
000001f0: 6d34 44bd 8612 e3bc 7add b43d 51fb 10bd

rnn.weight_ih_l1 f4 [128, 128]
-0.038864642 -0.0530405 -0.09316041 -0.11108426 -0.029760458 -0.04708533 -0.054085523 -0.051872
0.04414299 -0.00971022 0.0039722305 -0.04250551 0.09096214 0.06694771 -0.03262707 -0.010516295
0.012486344 -0.02381778 0.07150086 0.029105568 0.041368768 0.0926953 0.040644143 -0.06669074
0.0424627 -0.03293797 -0.046833888 0.01626285 -0.041917637 -0.03768359 -0.026981048 0.06037064
-0.030511007 0.07731307 -0.0014774876 -0.08084757 -0.013296326 -0.071690746 -0.02953401 0.0313462
0.017387636 0.05500525 -0.047365837 0.05113522 -0.03694266 0.01922483 -0.02836748 -0.020655105
0.057173967 0.03127051 -0.058671787 -0.01206044 0.08396707 0.08946146 0.034311585 0.09590601
-0.025637513 -0.049624633 0.022673275 0.09838476 -0.0420503 -0.05759226 -0.07087239 0.06725543
-0.1328005 0.037219364 -0.031168584 -0.04060249 0.01952323 -0.06096402 0.045976635 -0.03144321
-0.056973703 -0.10493725 -0.038014412 0.035275225 0.06430966 0.083470225 0.0761638 8.222474e-05
0.03395333 0.08133224 -0.059795916 -0.0073394906 -0.02016734 -0.022436641 -0.016338445 -0.03702272
-0.050873816 0.08636242 -0.082117915 0.091152035 0.027094146 0.049123835 0.037630845 0.022846678
-0.06893222 0.072180614 0.007989875 -0.03310025 0.08652328 -0.04517421 -0.03334023 0.077555865
-0.07371177 0.06572922 -0.10599309 -0.017064452 -0.049970336 -0.09373125 0.022061305 -0.0073731868
-0.059803713 0.11213916 -0.04209758 -0.042722646 -0.08052825 0.044531386 0.06344823 -0.015789913
0.07623465 -0.012636675 -0.042587813 -0.016550377 0.075316705 -0.055751793 0.07056526 -0.02674969
0.028459521 -0.09513271 0.018186107 0.057519257 -0.014596219 -0.030474696 0.0135294385 0.026290867
-0.04725495 -0.020294331 0.0051205857 0.05041758 0.10997737 0.084854394 0.07725561 0.092884585
0.091067374 0.009762337 0.007947413 -0.01215766 0.08583227 0.04595004 -0.09285227 -0.05417068
0.0593999 0.0014838902 0.003707574 -0.03939293 0.09274357 0.04691228 0.014296634 -0.053956106
0.09873466 -0.05987722 0.06388674 0.04061635 -0.020340366 0.0691266 0.036855787 0.07885903
-0.01433086 -0.026827399 -0.06532467 -0.044696193 0.081547596 -0.13267069 0.075288534 0.03930685
0.004085631 0.05757972 -0.054192554 -0.026790446 0.06427588 0.08685679 -0.06226551 0.062885925
-0.10357702 -0.077747874 -0.0073688985 -0.0018086436 0.066901624 0.02357982 -0.058468826 -0.00071259675
-0.02781136 0.0003012246 -0.013524262 -0.07836194 -0.042500053 -0.058630124 -0.06422645 -0.049341127
-0.06401897 0.02655213 0.06060289 -0.08791841 0.07442485 -0.006924085 0.011801609 -0.05084729
0.06892189 0.058642637 0.085820615 -0.059957914 0.03389632 -0.07459502 -0.064651586 0.0159359
0.08807106 -0.034845013 -0.07549055 -0.076293014 -0.053750064 0.045675136 0.01338709 0.04370967
0.067995675 0.057482347 0.053379077 0.019018827 -0.051762536 0.032966655 0.086923115 0.046746846
-0.04241163 0.027246604 -0.041823015 -0.036035594 0.03303295 0.06292964 0.013423104 -0.053879693
-0.04592914 0.09014458 0.00053758424 0.021844788 -0.07137884 -0.09924475 -0.06890346 0.065096445
0.018651681 -0.010067065 0.08672186 0.016523499 0.016547997 -0.06832504 -0.051622905 -0.080831036
00000000: 8830 1fbd ff40 59bd e3ca bebd 2580 e3bd
00000010: 34cc f3bc 8cdc 40bd c888 5dbd bc77 54bd
00000020: 48cf 343d 9d17 1fbc 7c29 823b 421a 2ebd
00000030: 5c4a ba3d e21b 893d f6a3 05bd 8a4c 2cbc
00000040: 8693 4c3c 811d c3bc 0b6f 923d cd6e ee3c
00000050: 4c72 293d 09d7 bd3d 797a 263d 2895 88bd
00000060: 5eed 2d3d f7e9 06bd e4d4 3fbd ab39 853c
00000070: d4b1 2bbd 1c5a 1abd 5c07 ddbc 3447 773d
00000080: 38f2 f9bc 5156 9e3d 42a8 c1ba 6993 a5bd
00000090: d5d8 59bc 99d2 92bd 4ff1 f1bc df64 003d
000000a0: 8470 8e3c 2f4d 613d ae02 42bd 2a73 513d
000000b0: 3051 17bd 647d 9d3c eb62 e8bc e534 a9bc
000000c0: 402f 6a3d 8215 003d d451 70bd 2799 45bc
000000d0: edf6 ab3d 9237 b73d 4e8a 0c3d 5f6a c43d
000000e0: c305 d2bc 3343 4bbd 4ebd b93c f37d c93d
000000f0: ef3c 2cbd dde5 6bbd 8b25 91bd 37bd 893d
00000100: dbfc 07be 5573 183d 4255 ffbc cc4e 26bd
00000110: 2eef 9f3c 69b5 79bd ff51 3c3d 98ca 00bd
00000120: 425d 69bd 57e9 d6bd 00b5 1bbd c17c 103d
00000130: c8b4 833d 70f2 aa3d c4fb 9b3d 1270 ac38
00000140: a612 0b3d 8491 a63d 90ec 74bd 1c80 f0bb
00000150: fa35 a5bc 0ccd b7bc 34d8 85bc 23a5 17bd
00000160: 1061 50bd c8de b03d 702d a8bd ebad ba3d
00000170: 8bf4 dd3c 1336 493d cd22 1a3d f528 bb3c
00000180: 562c 8dbd 6ed3 933d f7e7 023c 2194 07bd
00000190: 1e33 b13d 9808 39bd c48f 08bd 9cd5 9e3d
000001a0: 32f6 96bd 0b9d 863d e812 d9bd c0ca 8bbc
000001b0: b2ad 4cbd 2bf6 bfbd e9b9 b43c c69a f1bb
000001c0: bdf4 74bd 37a9 e53d 836e 2cbd f1fd 2ebd
000001d0: ffeb a4bd 8b66 363d 25f1 813d d959 81bc
000001e0: ea20 9c3d 0e0a 4fbc 8f70 2ebd a894 87bc
000001f0: a53f 9a3d fe5b 64bd 8584 903d 2a22 dbbc
00000200: f123 e93c f0d4 c2bd 08fb 943c 5099 6b3d
00000210: fb24 6fbc 12a6 f9bc 94aa 5d3c f25f d73c
00000220: 688e 41bd 4c40 a6bc 96ca a73b aa82 4e3d
00000230: d13b e13d 24c8 ad3d 3038 9e3d 463a be3d
00000240: 8881 ba3d 36f2 1f3c de35 023c ec30 47bc
00000250: d4c8 af3d 1c36 3c3d 5529 bebd 13e2 5dbd
00000260: 4f4d 733d 187f c23a c5fa 723b 7b5a 21bd
00000270: 57f0 bd3d 1727 403d 6e3c 6a3c 1401 5dbd
00000280: 6635 ca3d d141 75bd 0dd7 823d 545d 263d
00000290: d7a0 a6bc 3f92 8d3d 18f6 163d d880 a13d
000002a0: fccb 6abc 22c5 dbbc f1c8 85bd 5b13 37bd
000002b0: 6d02 a73d d3da 07be e030 9a3d 3800 213d
000002c0: c2e0 853b b6d8 6b3d 03f9 5dbd a377 dbbc
000002d0: 13a3 833d f9e1 b13d 1f0a 7fbd 56ca 803d
000002e0: 3020 d4bd 473a 9fbd cd76 f1bb 0210 edba
000002f0: b803 893d 772a c13c 027d 6fbd 8fcd 3aba
00000300: a6d4 e3bc aeed 9d39 de94 5dbc 3a7c a0bd
00000310: 8914 2ebd 2426 70bd 2889 83bd ec19 4abd
00000320: 611c 83bd da83 d93c bc3a 783d 910e b4bd
00000330: 0e6c 983d 6fe3 e2bb 895b 413c 3f45 50bd
00000340: eb26 8d3d 4333 703d b8c2 af3d 6e96 75bd
00000350: ded6 0a3d 46c5 98bd 0d68 84bd 018c 823c
00000360: 9a5e b43d a5b9 0ebd ca9a 9abd 833f 9cbd
00000370: 0729 5cbd da15 3b3d 8655 5b3c e908 333d
00000380: 5141 8b3d 9c72 6b3d 05a4 5a3d 5fcd 9b3c
00000390: f404 54bd 0b08 073d bf04 b23d 9f79 3f3d
000003a0: d1b7 2dbd 4534 df3c 9c4e 2bbd 0f9a 13bd
000003b0: 8f4d 073d 41e1 803d 94ec 5b3c f4b0 5cbd
000003c0: 3220 3cbd b99d b83d abec 0c3a d7f3 b23c
000003d0: 122f 92bd d540 cbbd 421d 8dbd 4951 853d
000003e0: 69cb 983c 55f0 24bc 3b9b b13d 4a5c 873c
000003f0: aa8f 873c 00ee 8bbd 8a72 53bd be8a a5bd

rnn.weight_hh_l1 f4 [128, 128]
-0.0973033 -0.036374375 0.03616001 0.026729405 0.0021156797 0.08637627 -0.024064535 0.036195967
-0.067135274 -0.051149398 0.039709684 0.02563635 -0.08030465 0.059593868 0.09301294 -0.019847106
0.031283464 -0.09935098 -0.08383741 0.017812481 -0.0014731659 -0.0148442015 -0.04202008 0.03079172
0.08235788 0.039256915 -0.07838262 -0.033347677 2.1601001e-05 0.04520508 0.065691836 -0.097530685
0.080278605 0.09130403 0.07185225 0.09431829 0.082347795 0.02538684 0.0437323 -0.008827408
0.054811478 -0.03639439 0.02357618 -0.054623384 0.060256694 -0.06749323 -0.02622644 0.03737239
0.007402271 -0.06619059 -0.022782266 0.04598609 0.068063594 -0.042448938 -0.045006357 -0.07011871
0.07706616 0.08825114 -0.022663027 0.021452714 -0.0071905274 0.02695639 -0.025946138 -0.08327637
0.085012525 0.01813856 -0.050797947 -0.06438263 0.020690441 -0.08525938 0.050232485 -0.06639114
0.044394717 0.07909353 0.01955557 0.08913897 0.08454592 -0.050233137 -0.05487079 -0.086765625
0.016977347 -0.00628745 0.061351463 -0.0842238 0.0022059195 0.038664725 -0.019476216 0.03949254
0.05306926 -0.02292754 0.08871212 0.016475573 0.05563556 -0.06981308 0.06860093 0.071951635
-0.021449568 -0.027765492 0.011755071 0.021639109 -0.043051526 0.04275563 -0.087976865 0.09912791
0.007322553 -0.0061943373 -0.017716026 0.01583415 0.04039239 0.037621494 0.004589019 0.04299325
0.06754149 -0.078449525 -0.07222336 0.030401563 0.053539515 -0.07171559 -0.090116106 -0.056155033
0.08250036 0.08662471 -0.084627695 0.07628035 0.11187176 -0.08087315 -0.0055031166 -0.020861652
0.01706251 0.015271612 -0.028027164 -0.06338813 0.060175482 -0.049286775 0.012064246 -0.044719428
0.024585132 -0.03136651 0.037305675 -0.06256856 0.011087248 -0.019179316 -0.034873843 0.07249822
-0.03259706 0.019110974 0.03483136 -0.04198144 -0.0067764125 0.06094138 0.07255151 -0.064744756
0.058175273 -0.011558919 0.10666451 0.06309017 0.02351757 0.06991237 0.06425509 0.045010474
0.012781158 0.026987808 0.08874321 0.017662913 -0.042791083 -0.0054207887 0.024779158 0.0055121654
-0.06939286 -0.06279531 0.033144362 -0.05195897 0.030237941 -0.028036848 -0.06718576 -0.04350914
0.0031986674 0.050565008 0.024781194 0.07372732 0.022139372 -0.023611734 0.07194798 0.029211601
-0.032550115 0.055853307 0.07015267 -0.007288422 0.08154273 0.07581587 0.04738592 0.046093673
-0.0022231438 0.008896117 -0.039286196 -0.024548888 0.027540812 0.012880924 -0.03654882 0.018212935
0.004988705 -0.119587414 0.0753611 0.026457008 0.08732075 0.07017937 -0.071132414 -0.017825995
-0.074275486 0.023026215 0.058059447 -0.08495373 -0.008052082 0.057807237 -0.042748764 -0.052762553
-0.0177121 0.027304357 0.0741207 -0.002685289 -0.00722261 0.02980828 0.07937133 0.024062388
0.060451128 -0.035248004 0.005796554 0.04451871 0.07426923 0.050387684 0.008097636 0.069786094
-0.04833116 -0.06421884 -0.012910907 0.069564864 0.012064245 -0.056185544 0.049004834 -0.040160753
0.059863113 0.06691008 -0.013277008 0.05444703 -0.025926452 -0.0058070184 0.09622836 -0.04594183
-0.019835288 0.0363401 -0.045644023 0.04570628 -0.02327631 -0.054321703 0.052673914 0.06780084
00000000: f446 c7bd 4cfd 14bd 851c 143d a0f7 da3c
00000010: 37a7 0a3b 0be6 b03d fd22 c5bc 3942 143d
00000020: 387e 89bd 0882 51bd 9fa6 223d 5303 d23c
00000030: c476 a4bd b318 743d 917d be3d 6696 a2bc
00000040: 1723 003d 8778 cbbd f3b2 abbd 7beb 913c
00000050: 3f17 c1ba 1835 73bc 3f1d 2cbd eb3e fc3c
00000060: 40ab a83d dccb 203d 1187 a0bd 9397 08bd
00000070: cc33 b537 f628 393d 7189 863d 2bbe c7bd
00000080: 1c69 a43d 9bfd ba3d 4627 933d f329 c13d
00000090: f6a5 a83d 10f8 cf3c a420 333d d5a0 10bc
000000a0: 0082 603d 4912 15bd d522 c13c c5bc 5fbd
000000b0: b9cf 763d e439 8abd d5d8 d6bc cb13 193d
000000c0: c08e f23b ef8e 87bd e0a1 babc e95b 3c3d
000000d0: ed64 8b3d f0de 2dbd 9658 38bd 669a 8fbd
000000e0: ddd4 9d3d 04bd b43d d0a7 b9bc 9abd af3c
000000f0: 849e ebbb a6d3 dc3c ff8c d4bc cd8c aabd
00000100: 0c1b ae3d 5197 943c 8211 50bd 0adb 83bd
00000110: 007f a93c 789c aebd 94c0 4d3d 14f8 87bd
00000120: 3cd7 353d cafb a13d 0133 a03c 7e8e b63d
00000130: 6926 ad3d 43c1 4dbd 32c0 60bd 2db2 b1bd
00000140: 1414 8b3c f406 cebb ac4b 7b3d 877d acbd
00000150: 3091 103b e75e 1e3d 968c 9fbc eec2 213d
00000160: 275f 593d 89d2 bbbc b3ae b53d c8f7 863c
00000170: 1de2 633d 29fa 8ebd a57e 8c3d 615b 933d
00000180: 01b7 afbc 7574 e3bc 5798 403c 8044 b13c
00000190: cc56 30bd 8720 2f3d 372d b4bd 9303 cb3d
000001a0: 07f2 ef3b def9 cabb 3321 91bc 9fb6 813c
000001b0: 7e72 253d ff18 1a3d 7b5f 963b b119 303d
000001c0: 3153 8a3d 25aa a0bd d7e9 93bd b30c f93c
000001d0: 404c 5b3d a0df 92bd cb8e b8bd d202 66bd
000001e0: f3f5 a83d 4c68 b13d 4951 adbd df38 9c3d
000001f0: 051d e53d d2a0 a5bd 7d53 b4bb 0ee6 aabc
00000200: adc6 8b3c c935 7a3c 3999 e5bc a3d1 81bd
00000210: 917a 763d eee0 49bd 1ea9 453c b82b 37bd
00000220: c266 c93c 2b7a 00bd d6cd 183d f223 80bd
00000230: 4aa7 353c f11d 9dbc e0d7 0ebd f279 943d
00000240: 7f84 05bd 9e8e 9c3c 54ab 0e3d bbf4 2bbd
00000250: ab0c debb ab9d 793d e395 943d e698 84bd
00000260: 3249 6e3d 9f61 3dbc ec72 da3d 6b35 813d
00000270: eba7 c03c 372e 8f3d 2c98 833d e75c 383d
00000280: 1068 513c 8915 dd3c 00bf b53d d0b1 903c
00000290: b445 2fbd dfa0 b1bb a9fd ca3c 659f b43b
000002a0: d81d 8ebd d49a 80bd 62c2 073d eed2 54bd
000002b0: 8fb5 f73c 88ad e5bc b098 89bd a436 32bd
000002c0: bca0 513b 411d 4f3d ee01 cb3c 59fe 963d
000002d0: a15d b53c 656d c1bc 7659 933d 2b4d ef3c
000002e0: 4553 05bd 70c6 643d 34ac 8f3d b7d3 eebb
000002f0: e0ff a63d 5a45 9b3d bd17 423d b8cc 3c3d
00000300: 2ab2 11bb 05c1 113c 90ea 20bd c01a c9bc
00000310: 459d e13c 830a 533c 37b4 15bd 4b33 953c
00000320: 4a78 a33b 3fea f4bd ec56 9a3d 5ebc d83c
00000330: 39d5 b23d 34ba 8f3d dfad 91bd d207 92bc
00000340: bf1d 98bd 79a1 bc3c becf 6d3d 39fc adbd
00000350: e1ec 03bc 48c7 6c3d 5419 2fbd 8c1d 58bd
00000360: f718 91bc 63ad df3c 98cc 973d acfb 2fbb
00000370: a5ab ecbb 7e30 f43c 708d a23d 7c1e c53c
00000380: 9a9b 773d 3660 10bd 05f1 bd3b 4059 363d
00000390: 771a 983d 5163 4e3d f2ab 043c 03ec 8e3d
000003a0: e5f6 45bd 2b85 83bd 4588 53bc 0678 8e3d
000003b0: 1ca9 453c d022 66bd 4bb9 483d 9a7f 24bd
000003c0: 0633 753d 2708 893d cf87 59bc d903 5f3d
000003d0: b663 d4bc cd48 bebb 6013 c53d 802d 3cbd
000003e0: 9d7d a2bc 5bd9 143d 3af5 3abd 8236 3b3d
000003f0: f6ad bebc 6f80 5ebd 9ac0 573d 2bdb 8a3d

rnn.bias_ih_l1 f4 [128]
0.08020016 -0.07944435 -0.04866608 -0.061838437 0.085565224 -0.03349349 0.053141523 0.012975921
0.0158206 0.029278837 -0.00514288 0.07601954 0.021485573 -0.04119582 0.040135905 -0.03884753
0.1019332 -0.06815232 0.011106251 -0.039314244 0.007321494 0.13603614 -0.06854668 -0.0971303
-0.03051247 0.08342436 0.094252974 0.073828965 -0.034545545 0.052814864 -0.069269635 -0.052618206
0.055125155 0.0016194223 0.07927374 0.04304931 -0.034701977 0.07382605 -0.08171924 0.06935941
-0.0625631 -0.009496206 -0.03277474 -0.02190661 -0.008225549 -0.08509627 -0.023504933 0.013665767
-0.122123405 0.11132679 -0.07829212 0.00790633 -0.052240763 -0.07579068 0.0017096814 -0.07946839
0.115184 -0.030449796 0.07642316 -0.06850798 0.007800026 -0.025179017 0.10969578 0.025305271
-0.021185929 0.0020542694 0.050171524 -0.10490912 -0.050502118 -0.098844655 0.08229864 -0.07824601
0.12865 -0.031262636 0.009715852 -0.012817863 0.095648766 -0.031107895 -0.038427882 -0.013137706
-0.041823383 -0.00843506 0.06815234 0.08489544 -0.12310867 -0.055759516 0.069516614 0.045827106
0.09745653 -0.088988885 0.018360423 0.058843892 0.07669882 -0.12944357 0.001963968 -0.010618402
0.027779454 -0.046266213 -0.025630962 -0.021638919 -0.0065806718 0.042675253 -0.0052519115 0.05669072
0.049251623 0.00900876 0.06711945 0.09975127 -0.0005987842 -0.06406451 -0.047397662 -0.057022784
0.007022135 0.10258127 -0.040239003 0.10787588 0.04450943 -0.043854047 0.117427975 0.059832543
-0.117406145 0.027797582 0.034886952 -0.09934477 -0.01568962 0.065211505 0.00428628 0.14025198
00000000: fb3f a43d b8b3 a2bd 1556 47bd 4d4a 7dbd
00000010: d23c af3d 7830 09bd edaa 593d f598 543c
00000020: 349a 813c 2cda ef3c 9b85 a8bb 22b0 9b3d
00000030: 8302 b03c f3bc 28bd 8c65 243d 961e 1fbd
00000040: 5bc2 d03d 7293 8bbd fef6 353c f907 21bd
00000050: 25e9 ef3b 0f4d 0b3e 3462 8cbd 40ec c6bd
00000060: 4af5 f9bc 64da aa3d b407 c13d a433 973d
00000070: a17f 0dbd 6654 583d 3ddd 8dbd 3086 57bd
00000080: eaca 613d cc42 d43a 455a a23d 7954 303d
00000090: a923 0ebd 1d32 973d 6b5c a7bd 4e0c 8e3d
000000a0: 1521 80bd fa95 1bbc ce3e 06bd 7e75 b3bc
000000b0: 74c4 06bc f446 aebd 6b8d c0bc 62e6 5f3c
000000c0: d61b fabd 4dff e33d 9e57 a0bd 8d89 013c
000000d0: 69fa 55bd 2538 9bbd 6317 e03a 53c0 a2bd
000000e0: 97e5 eb3d da71 f9bc bf83 9c3d e94d 8cbd
000000f0: 5c97 ff3b 3a44 cebc 2ea8 e03d 004d cf3c
00000100: 1d8e adbc eca0 063b a880 4d3d 98da d6bd
00000110: 4fdb 4ebd 116f cabd 308c a83d 723f a0bd
00000120: d3bc 033e 400d 00bd 3d2f 1f3c 0402 52bc
00000130: 80e3 c33d fcd5 febc 8e66 1dbd 883f 57bc
00000140: ff4e 2bbd 3533 0abc 7493 8b3d a9dd ad3d
00000150: 6620 fcbd 1764 64bd ba5e 8e3d 34b5 3b3d
00000160: 4a97 c73d ce3f b6bd 9968 963c 4b06 713d
00000170: 4514 9d3d db8c 04be eab5 003b cef8 2dbc
00000180: bd91 e33c a481 3dbd 06f8 d1bc 1a44 b1bc
00000190: ada2 d7bb 3fcc 2e3d 3a18 acbb 8734 683d
000001a0: 12bc 493d 7a99 133c ec75 893d 654a cc3d
000001b0: baf7 1cba 4134 83bd 0d24 42bd b990 69bd
000001c0: f019 e63b 2116 d23d a7d1 24bd 08ee dc3d
000001d0: 854f 363d 4da0 33bd 147e f03d f812 753d
000001e0: a272 f0bd c1b7 e33c 9fe5 0e3d 4575 cbbd
000001f0: 8587 80bc 9c8d 853d ec73 8c3b 379e 0f3e

rnn.bias_hh_l1 f4 [128]
-0.040104292 -0.09576537 -0.057026107 -0.008616807 0.047131017 0.02502245 -0.08808984 -0.049546935
0.09230181 0.086305216 -0.014045461 -0.054919284 0.0177088 0.0913234 -0.04572467 0.100005515
0.01553825 0.049533993 0.0017941417 0.11948127 0.014613948 0.1116294 -0.1170691 -0.104137085
0.040022198 0.07809802 0.0902046 0.10510036 -0.05165091 -0.104966834 -0.043979038 0.050218765
-0.033634435 -0.055049013 0.008354722 0.033640217 0.052546307 0.118027344 0.03059373 -0.047204603
0.038472038 -0.06604507 -0.090469286 -0.048638377 0.06206469 -0.042413052 0.078542285 -0.04158336
-0.037586544 0.09948022 -0.043015532 0.020602802 -0.02114807 0.006863715 -0.009144961 0.04327705
0.0023572773 0.054438107 -0.06253504 -0.07474846 0.011126677 0.000112593014 0.015039819 0.07347858
0.06690993 0.031200007 -0.013398838 -0.09893968 -0.009474094 -0.07588148 0.027607592 0.029325552
0.06913348 -0.047751836 0.03230972 -0.012986303 0.0011397852 -0.08079827 -0.014038092 -0.038639393
-0.05814735 0.06772632 -0.0045294175 -0.0729562 -0.12746668 0.053286392 0.051214363 -0.07197482
0.10255388 -0.0110759735 -0.007167827 0.10417575 -0.010757349 0.0077194595 0.03842459 -0.08315161
-0.0696405 0.045393094 -0.109296344 0.080034494 0.028990878 0.02288468 0.020713108 -0.021122623
-0.03072536 -0.011142104 -0.066915914 -0.006322001 0.009376567 0.06632061 -0.025043674 0.051150844
0.04842904 0.058237113 0.09342982 0.0556248 0.017506702 0.03440769 0.02583664 -0.0045669107
-0.061697517 -0.052768882 0.005291856 0.00070363283 0.048603695 -0.010707932 -0.024796352 0.116700925
00000000: 6644 24bd a220 c4bd 3594 69bd 822d 0dbc
00000010: 740c 413d e2fb cc3c 7268 b4bd baf1 4abd
00000020: bb08 bd3d cac0 b03d ef1e 66bc 0bf3 60bd
00000030: 0c12 913c c307 bb3d cb49 3bbd b1cf cc3d
00000040: 2594 7e3c 28e4 4a3d 6829 eb3a 99b2 f43d
00000050: 576f 6f3c f49d e43d edc1 efbd d345 d5bd
00000060: 51ee 233d dbf1 9f3d 30bd b83d dc3e d73d
00000070: e88f 53bd daf8 d6bd 5d23 34bd 31b2 4d3d
00000080: 43c4 09bd 137b 61bd 3ee2 083c 53ca 093d
00000090: cc3a 573d 52b8 f13d b49f fa3c 9d59 41bd
000000a0: db94 1d3d a342 87bd f647 b9bd 0939 47bd
000000b0: 8b37 7e3d 4fb9 2dbd c7da a03d 5053 2abd
000000c0: 59f4 19bd 49bc cb3d 0e31 30bd 35c7 a83c
000000d0: b83e adbc 04e9 e03b bfd4 15bc 4743 313d
000000e0: 8d7c 1a3b 7efa 5e3d 5f12 80bd b815 99bd
000000f0: aa4c 363c ea1f ec38 9369 763c f07b 963d
00000100: 1308 893d 2897 ff3c cd86 5bbc e3a0 cabd
00000110: 3b39 1bbc c067 9bbd 5129 e23c 243c f03c
00000120: db95 8d3d 6e97 43bd 3257 043d 81c4 54bc
00000130: d864 953a 9079 a5bd 0700 66bc 5744 1ebd
00000140: ea2b 6ebd 19b4 8a3d 826b 94bb 0f6a 95bd
00000150: a086 02be d542 5a3d 27c6 513d 8967 93bd
00000160: c507 d23d 0078 35bc 17e0 eabb 185a d53d
00000170: 983f 30bc 85f3 fc3b 1a63 1d3d 644b aabd
00000180: ae9f 8ebd 1cee 393d c3d6 dfbd 20e9 a33d
00000190: 477e ed3c a778 bb3c 89ae a93c 5a09 adbc
000001a0: c0b3 fbbc 5f8d 36bc 360b 89bd ca28 cfbb
000001b0: 2ca0 193c 1ad3 873d 6428 cdbc 8c83 513d
000001c0: 875d 463d 0a8a 6e3d 2258 bf3d d5d6 633d
000001d0: 376a 8f3c 14ef 0c3d 5ca7 d33c 06a6 95bb
000001e0: 89b6 7cbd 2f24 58bd 4e67 ad3b 0074 383a
000001f0: ab14 473d 5270 2fbc b821 cbbc e500 ef3d

fc.weight f4 [3, 128]
0.021667771 -0.062386017 -0.05118212 0.023145331 0.10264911 0.043941215 -0.02346892 -0.030649053
0.07401868 0.09068307 -0.060625922 -0.07901212 0.027761746 -0.04199775 -0.07102222 0.07913011
-0.022195878 0.056959286 0.09886251 -0.032593507 0.086971894 0.09940751 -0.07294267 -0.10521318
0.075560845 0.06471902 0.05127487 0.11393294 0.011655838 -0.12532845 0.032771595 0.10975906
0.027873907 -0.088587604 -0.08917916 -0.08677876 0.05754388 0.08654697 0.0012205793 0.09530153
-0.048405368 -0.030779377 -0.09860873 -0.023609849 0.02822721 -0.10242515 0.13407563 -0.042914692
-0.10268762 0.12362384 -0.09983901 -0.10249918 -0.062231526 -0.019205691 -0.023517279 -0.05981483
-0.04556304 0.08912498 0.007347511 -0.004759998 0.07287951 -0.08565687 -0.053791422 -0.05266365
-0.014873808 0.08493863 0.051863264 -0.118490174 -0.047993533 -0.10436985 0.09779546 -0.024140758
0.08590151 0.05335827 -0.057146702 -0.05257294 0.035351332 0.044312026 0.050901335 -0.033488877
-0.13422975 0.01672894 0.062545925 0.093989186 -0.09548567 0.11581695 0.08593156 -0.05451598
0.050933573 -0.09932739 -0.05326414 0.019336855 0.12165255 -0.08325797 0.087871924 -0.07146827
-0.006631156 0.055103976 -0.03429925 0.106178574 0.015079014 0.02394802 0.12345633 -0.07409127
0.023812398 0.072205104 0.03736512 0.06031988 -0.058041155 0.032364473 0.00090791006 -0.057379276
-0.027611671 0.049726285 0.0128231915 0.086186275 -0.006153145 -0.09962061 -0.005561597 0.049314473
-0.09782357 -0.073653445 0.012872369 -0.060736094 -0.096527256 0.086719684 0.077460684 0.061756987
-0.06532771 -0.08196796 -0.07079706 0.02533597 -0.11439893 0.019366443 0.11707449 -0.08300935
0.005910756 -0.080601044 -0.09209423 0.07791354 -0.062612675 0.0047744173 0.042715114 -0.07111221
-0.10909343 -0.036975272 -0.04293696 -0.030010212 -0.078938425 -0.06409408 0.059713714 -0.034894858
0.073129654 -0.06648337 -0.06445184 0.013154918 0.04252501 0.112391055 0.07424667 -0.01316008
-0.0071679964 0.084399186 0.16468431 0.12844163 -0.023753718 -0.080335975 0.10368845 -0.082012445
-0.049821682 0.04185078 -0.06289093 0.07984866 0.08517877 0.04945123 -0.15234776 0.092659414
0.0738021 -0.1296711 0.07462569 0.028924722 0.068371035 0.05805498 -0.11704351 0.03475421
0.10877634 0.010612611 0.009915862 0.10635276 -0.09888816 -0.024193255 -0.09115717 -0.09386736
-0.041377705 -0.08761294 -0.08979925 0.07693978 0.053498164 0.06569215 0.013563342 0.019871717
0.044350963 0.11043405 0.092841625 0.01944265 0.12227585 0.015806051 0.0780758 0.06909212
0.055586133 -0.049484104 0.11302702 0.022810267 0.09642505 0.06590293 0.031278744 0.06511648
-0.05332991 -0.049094535 0.09930945 -0.05649449 -0.14570092 -0.04894469 -0.08708652 0.08403325
0.059519414 -0.028620055 -0.032148644 0.079882145 -0.062420838 -0.033949282 -0.13161893 0.07468522
-0.041856673 0.06301691 0.08746918 0.038473144 0.123886675 -0.012384964 -0.038343422 -0.08183951
0.002776618 -0.050113425 -0.011727061 0.02886142 0.071927175 0.054661736 -0.024496883 0.03274697
0.074962415 -0.001583609 -0.07500027 0.046274323 0.10866361 -0.013940798 0.04591742 0.12844685
00000000: 9c80 b13c 7b88 7fbd 58a4 51bd 479b bd3c
00000010: b239 d23d b4fb 333d e441 c0bc b913 fbbc
00000020: 1b97 973d 0cb8 b93d e352 78bd 1bd1 a1bd
00000030: 9a6c e33c d505 2cbd 1974 91bd f80e a23d
00000040: 21d4 b5bc 244e 693d 6d78 ca3d c580 05bd
00000050: 521e b23d 2a96 cb3d f762 95bd 027a d7bd
00000060: a5bf 9a3d 688b 843d 9905 523d ac55 e93d
00000070: 21f8 3e3c 1a56 00be 823b 063d 5cc9 e03d
00000080: d257 e43c 6b6d b5bd 90a3 b6bd 10b9 b1bd
00000090: 22b3 6b3d 8a3f b13d d8fb 9f3a 732d c33d
000000a0: b544 46bd 0825 fcbc 60f3 c9bd 7169 c1bc
000000b0: c03c e73c 47c4 d1bd 1f4b 093e 51c7 2fbd
000000c0: e34d d2bd 7f2e fd3d 6578 ccbd 17eb d1bd
000000d0: 7ce6 7ebd 4155 9dbc 4fa7 c0bc 6500 75bd
000000e0: 4fa0 3abd 2887 b63d 64c3 f03b c2f9 9bbb
000000f0: da41 953d de6c afbd 6554 5cbd d7b5 57bd
00000100: 46b1 73bc 4ef4 ad3d 936e 543d faaa f2bd
00000110: de94 44bd dcbf d5bd fc48 c83d d7c2 c5bc
00000120: 22ed af3d 348e 5a3d a912 6abd b956 57bd
00000130: 8fcc 103d 8780 353d eb7d 503d a22b 09bd
00000140: 8673 09be 210b 893c 1418 803d 677d c03d
00000150: fe8d c3bd 7031 ed3d e3fc af3d 264c 5fbd
00000160: b99f 503d 296c cbbd 802b 5abd 5368 9e3c
00000170: f924 f93d 2883 aabd 32f6 b33d f55d 92bd
00000180: 2b4a d9bb b5b4 613d 5f7d 0cbd 2774 d93d
00000190: f80d 773c a32e c43c acd6 fc3d 2abd 97bd
000001a0: 3812 c33c 45e0 933d 2b0c 193d fa11 773d
000001b0: 90bc 6dbd 9c90 043d d000 6e3a 8806 6bbd
000001c0: df31 e2bc caad 4b3d 5d18 523c 6e82 b03d
000001d0: 52a0 c9bb e405 ccbd 0f3e b6bb f9fd 493d
000001e0: b957 c8bd 9ed7 96bd a1e6 523c 69c6 78bd
000001f0: 15b0 c5bd 179a b13d b5a3 9e3d e5f4 7c3d
00000200: 89ca 85bd d1de a7bd 0dfe 90bd 618d cf3c
00000210: fc49 eabd 60a6 9e3c c0c4 ef3d ce00 aabd
00000220: 04af c13b 2912 a5bd e69b bcbd 2291 9f3d
00000230: 133b 80bd b772 9c3b 0bf6 2e3d 47a3 91bd
00000240: 606c dfbd 6273 17bd aade 2fbd fad7 f5bc
00000250: 78aa a1bd c243 83bd 5e96 743d e9ed 0ebd
00000260: 00c5 953d 6f28 88bd 54ff 83bd ba87 573c
00000270: b42e 2e3d 482d e63d a30e 983d 609d 57bc
00000280: 83e1 eabb 7bd9 ac3d 01a3 283e 3486 033e
00000290: 2897 c2bc 3087 a4bd 9c5a d43d 24f6 a7bd
000002a0: d211 4cbd b96b 2b3d f6cc 80bd b287 a33d
000002b0: 3572 ae3d 5f8d 4a3d 0d01 1cbe 38c4 bd3d
000002c0: 8e25 973d 80c8 04be 5bd5 983d 8af3 ec3c
000002d0: 1d06 8c3d 0fcb 6d3d 82b4 efbd 6e5a 0e3d
000002e0: 21c6 de3d 84e0 2d3c 2476 223c 7acf d93d
000002f0: e085 cabd ef30 c6bc 9cb0 babd 883d c0bd
00000300: ab7b 29bd 6a6e b3bd abe8 b7bd 9a92 9d3d
00000310: e420 5b3d 9b89 863d c838 5e3c 03ca a23c
00000320: 5ba9 353d 3f2b e23d c023 be3d 3146 9f3c
00000330: c36b fa3d b17b 813c 34e6 9f3d 2b80 8d3d
00000340: 49ae 633d d8af 4abd b67a e73d 99dc ba3c
00000350: 7f7a c53d 1ef8 863d 241e 003d ca5b 853d
00000360: 7770 5abd 5a17 49bd c162 cb3d c466 67bd
00000370: 9f32 15be 3a7a 48bd 6b5a b2bd a019 ac3d
00000380: a1ca 733d 9b74 eabc 4cae 03bd 4099 a33d
00000390: feac 7fbd 670e 0bbd 1dc7 06be 91f4 983d
000003a0: e771 2bbd 020f 813d 0b23 b33d 0496 1d3d
000003b0: 4cb8 fd3d 4eea 4abc fe0d 1dbd 799b a7bd
000003c0: ecf7 353b bc43 4dbd dc22 40bc c96e ec3c
000003d0: 8e4e 933d fce4 5f3d b0ad c8bc b021 063d
000003e0: e585 993d 1a91 cfba be99 99bd 258a 3d3d
000003f0: 078b de3d f267 64bc e813 3c3d 9287 033e

fc.bias f4 [3]
0.09324473 0.054976285 0.005736313
00000000: 18f7 be3d d02e 613d aef7 bb3b
