Assignment_2/Task1/RNN_FastText.pth (torch, 357502 bytes, 10 tensors)

rnn.weight_ih_l0 f4 [128, 300]
000000 87 c3 c5 3d ae b1 cd bd a5 cc c5 3d 48 d3 29 bd
       0.096564345 -0.10043655 0.096581735 -0.04146126
000010 2f 77 6d bd ee 2b a8 3d cf 4f f0 bc 1b 88 84 3d
       -0.05797499 0.08211504 -0.02933493 0.064712726
000020 f6 f0 02 bd 4a 46 16 bc b2 2a ef b9 49 f2 93 3d
       -0.03196808 -0.009172032 -0.00045617443 0.072239466
000030 92 d9 cb 3d a0 65 14 bd 79 29 1c 3e dd a3 ad 3d
       0.099536076 -0.03622973 0.15250196 0.0847852
000040 08 44 59 bd 49 cd 32 3d 19 4b 05 be 54 1d fb 3d
       -0.053043395 0.043652806 -0.13016929 0.12261453
000050 0a ba 14 3e 63 cb 53 3d 17 05 83 bd 64 aa 77 bd
       0.14524093 0.051707637 -0.06397455 -0.06046523
000060 3a 26 a1 bd eb 91 85 bd 4e c1 92 bb b9 31 84 3c
       -0.07868619 -0.06521972 -0.00447861 0.01613699
000070 12 d1 87 3d ce b3 20 3d 3f f3 98 bb ef d7 e5 3d
       0.06631674 0.039233975 -0.004667669 0.11222827
000080 83 b9 9f bd e2 70 48 3d f2 83 0e 3e c7 78 6d 3d
       -0.077990554 0.04893578 0.1391752 0.05797651
000090 66 7a b5 3c 2a 92 30 bc e2 46 da 3d 06 34 8a bd
       0.02215309 -0.010777036 0.10658051 -0.06748204
0000a0 06 41 10 3e a6 75 1e bd 2c 7b 3d bd a1 2d 14 bd
       0.14087304 -0.038686417 -0.046260044 -0.036176328
0000b0 28 82 74 38 bd 30 6d 3d af dc 74 3d 75 90 d1 3c
       5.829535e-05 0.05790781 0.059780773 0.025581578
0000c0 df 45 b7 3d 3d 23 78 bd 90 e2 8a bd 38 fd 3a 3e
       0.08948874 -0.06058048 -0.067814946 0.18260658
0000d0 e2 e5 ae 3d 85 59 2e be ac c2 8c 3d 4d b8 a1 3d
       0.085399404 -0.17026336 0.06873068 0.07896481
0000e0 60 bc 1f 3e e0 88 0a 3e 30 1d 14 3d 5f 0e 91 3d
       0.15599203 0.13528776 0.036160648 0.07082819
0000f0 aa 1b ce 3c dd 60 b8 3b 8b 8f 15 3c d1 0c 4d bd
       0.025159676 0.0056267814 0.009128462 -0.05006105
000100 0d 9c 0a 3e f6 8c c5 3d 5a 8d 18 be 14 94 84 be
       0.13536091 0.09646027 -0.14897671 -0.25894225
000110 4c a7 fb 3d 4f 76 3c bd 6c 3c 85 bd 7b 0d 07 3c
       0.12287769 -0.046011265 -0.06505665 0.00824296
000120 f7 a7 3d 3d 28 9d ef bd 86 17 3c be 43 18 00 3e
       0.046302762 -0.11699897 -0.18368348 0.12509255
000130 1d 1a 04 bd 39 58 69 3d ba 9d ef bc 49 40 a2 3d
       -0.032251466 0.0569689 -0.029250015 0.07922418
000140 e6 9e a5 3d f9 24 f5 bd 32 fd 18 3e 13 f4 72 3d
       0.08086948 -0.119699426 0.14940336 0.0593148
000150 43 82 a5 3d 2d 42 99 bd 82 0c c6 bd 11 8e 19 be
       0.08081486 -0.07483325 -0.096703544 -0.149956
000160 1e af c5 bd b1 35 03 3e 1e 22 a9 3d 42 91 f1 3c
       -0.096525416 0.1281345 0.082584605 0.02948821
000170 45 75 36 bd f9 89 81 3d 5c 83 bc bc 19 b0 01 3d
       -0.04454543 0.06325144 -0.023011856 0.03166208
000180 5d 5f 3b 3e 83 8d b4 3d 38 37 4c 3c 50 59 00 3b
       0.18298097 0.08816054 0.012464337 0.0019584484
000190 a0 56 3f bd 0c ef dc bd 00 88 ef 3d 47 e7 e4 3d
       -0.04671347 -0.10787782 0.11695862 0.11176925
0001a0 8d 73 49 3e e6 09 92 bb 63 96 22 be 2e e8 0c 3e
       0.19672985 -0.0044567464 -0.1587768 0.13760445
0001b0 ce 37 b3 bd b8 5a 9e 3b de ca 35 3e b4 5e ba bc
       -0.08750878 0.004832592 0.17753169 -0.022750236
0001c0 6d c8 8a bd 67 1b 8a 3d 11 de c7 3d 33 b2 5b 3c
       -0.067765094 0.06743508 0.09759153 0.013409185
0001d0 26 b7 08 bd 5d ad b5 bd 10 99 fd bc ec 56 f1 3b
       -0.03337779 -0.08870957 -0.030956775 0.007365098
0001e0 b9 0d bc 3d 0b 3c 81 bd c5 0c 50 bd 80 35 09 bc
       0.09182305 -0.063102804 -0.050793428 -0.008374572
0001f0 28 86 13 3e 89 d2 6b bd 76 03 69 3d fd f5 dd bd
       0.14406645 -0.05757383 0.056888066 -0.10837934
000200 9f 37 46 bd e8 80 8a 3c fe ce 30 3e 0e b3 dc 3c
       -0.04839289 0.01690717 0.17266461 0.026940849
000210 29 b2 04 be 22 3b ab 3d 46 24 d9 3c e0 eb a9 bd
       -0.12958588 0.08360888 0.026506554 -0.08296943
000220 c9 2f 84 bc 97 2a bc 3d 53 23 e4 3c 31 82 1c 3e
       -0.016136067 0.09187811 0.027848875 0.15284039
000230 cd 72 62 3d e7 d9 3e 3e 2d f6 02 3d 41 f4 c8 bb
       0.055285264 0.1863781 0.031973053 -0.006132633
000240 20 5d 35 bd 5a ad d8 3c 09 9c 43 bd 48 c2 be 3d
       -0.044278264 0.026449848 -0.04775623 0.093144
000250 ba b1 fa bc d6 cb 87 3e 24 af 86 bc b2 0e c9 bb
       -0.030602325 0.26522702 -0.016440935 -0.006135785
000260 4e b0 67 3d 24 73 94 3d b9 b1 de bd 71 92 7d 3d
       0.05656462 0.07248524 -0.10873742 0.061907236
000270 f1 5a ed 3d 92 34 bb bd fa 4f 59 3d a1 36 10 bd
       0.11589611 -0.09140886 0.053054787 -0.03520835
000280 45 83 ea 3d e0 62 7e bd b4 94 5a 3d d7 f8 87 bd
       0.11450819 -0.062106013 0.05336447 -0.06639259
000290 02 09 a8 3d 6c b6 5a bc 4a a9 1a bc 25 9b 31 3e
       0.08204843 -0.013349157 -0.009439776 0.17344339
0002a0 3e 34 16 bd 99 ea f4 bd 82 fc 87 bc e9 5f fc 3d
       -0.036670916 -0.119588085 -0.016599897 0.12322981
0002b0 70 0a 35 bd cd 80 57 bd 3f b3 95 bc 80 d2 43 bc
       -0.044199407 -0.05261307 -0.018273948 -0.011952043
0002c0 2e 90 1b 3e 92 e6 e6 3c 15 fe 67 bd 5a 80 9d bd
       0.15191719 0.028186116 -0.056638796 -0.07690497
0002d0 e6 05 1e bc 72 db 14 3d 2b 98 2e 3e b8 8e 05 bd
       -0.009644961 0.03634209 0.17050235 -0.03260681
0002e0 66 71 06 3c 57 64 57 3c a2 65 fe bc 0a f8 8c bd
       0.008205747 0.0131464815 -0.031054322 -0.06883247
0002f0 5c 8f 36 bd 2e cf 43 be 85 d7 37 3d 00 e3 09 3c
       -0.044570312 -0.19122002 0.04488327 0.008415937
000300 33 3c e5 3d 0d 19 ba 3d 95 9f a6 3d 4a 59 2a bd
       0.11193123 0.09086809 0.081359066 -0.04158906
000310 8a 29 e9 3d e4 73 43 3c e3 81 a1 3d bd df e6 bc
       0.11384876 0.011929486 0.07886102 -0.028182859
000320 82 35 b2 bd 36 5c 17 bd 17 20 bd 3d 67 0c 8b 3d
       -0.08701612 -0.036953174 0.09234636 0.06789475
000330 b7 f0 af 3d 83 d0 af 3d 29 0c 7c bd 69 59 43 3d
       0.085908346 0.08584692 -0.061535034 0.04769269
000340 0b d6 e4 39 a7 60 25 3e e0 3c 42 3d ab c9 25 3d
       0.00043647023 0.16150151 0.047421336 0.04047553
000350 2f 00 69 3d a4 b2 ea bb 6a 85 22 3d 84 1a 0a be
       0.05688494 -0.007162409 0.039678015 -0.13486677
000360 2b 56 f6 3c da 50 54 bb 85 75 fd bd 9f 1c a6 bd
       0.030070385 -0.0032396824 -0.12375931 -0.08110928
000370 e3 6a 1c 3e ec 8a 08 3d 71 57 09 bd 67 2d 73 bd
       0.15275149 0.03333561 -0.033530656 -0.05936947
000380 3a d4 5c 3c 1a 3a 4e be 7b 3c db bd 84 ad 10 be
       0.013478333 -0.20139351 -0.10704895 -0.14128691
000390 ca 22 3e bd 5b 28 67 3c 78 36 33 3d 5f c6 ca 3d
       -0.046419896 0.014108743 0.043753117 0.099011175
0003a0 3a ca c6 bd 11 ac 74 bd 08 62 16 bc ea e6 74 3c
       -0.097065404 -0.059734408 -0.009178646 0.014947632
0003b0 95 69 48 bc d3 a0 f2 bc d2 90 fa bd ca 0f a4 bc
       -0.012232204 -0.029617703 -0.122346535 -0.02002706
0003c0 ec c9 fb bd 3e 15 71 3b 77 d3 57 bd 28 64 a6 3d
       -0.12294373 0.0036786343 -0.052691903 0.08124572
0003d0 f9 d9 81 bc 41 f6 fa bd 8b 9b 0b 3d 4f 4d 85 3d
       -0.015851008 -0.122540005 0.034083884 0.06508886
0003e0 45 a2 10 3d 40 a3 e0 bc c4 cd ff 3d 5c 30 09 3e
       0.035311002 -0.027421594 0.124904186 0.13397354
0003f0 46 36 ef bd 1f 2d 94 3d b1 38 bf 3b 7f 21 7b bd
       -0.11680274 0.07235169 0.0058356156 -0.06131124

rnn.weight_hh_l0 f4 [128, 128]
000000 63 40 0f bd b3 42 fb 3d 7f c3 8c bd fc 8f f0 bb
       -0.034973513 0.12268581 -0.068732254 -0.007341383
000010 71 22 0b bd 3b 7c 66 3c 27 e7 a1 3d 24 d5 14 3d
       -0.033968393 0.014067705 0.07905417 0.03633608
000020 94 a5 ad bd 72 9f f4 bb ec e9 0f bd 95 28 8b bd
       -0.08478847 -0.0074652964 -0.035135195 -0.0679485
000030 61 d8 a1 bd ba b9 5f 3d db db 38 3d 20 61 e1 bc
       -0.07902599 0.054620482 0.045131546 -0.027512133
000040 16 96 03 3d 5b 7a b7 bd d2 31 85 bd 57 a2 18 bc
       0.032125555 -0.08958884 -0.06503643 -0.009316049
000050 0b a4 3a bc 5b cf 3f bd 50 64 bb bd 23 39 c4 3c
       -0.01139165 -0.04682861 -0.091499925 0.023953026
000060 3b 66 12 bd 8b 5a d8 3b c0 b3 e7 3d 7d f2 8f 3d
       -0.035742026 0.0066025904 0.113135815 0.07028673
000070 1a 13 21 bc fa 32 e5 3d 27 47 cc 3c 42 fc 90 bc
       -0.009831214 0.11191364 0.024936272 -0.01769841
000080 6b 40 83 bd 4b af da bc 69 57 e6 3c ac 89 fa bc
       -0.06408771 -0.026694914 0.028117852 -0.030583225
000090 70 95 b7 3c 31 5e 62 bd db ea 14 bd 50 75 c7 3c
       0.022410125 -0.05526561 -0.036356788 0.024347931
0000a0 bf bd ad 3c 2e 98 2f 3c 0a e6 12 bd 8b a9 64 bc
       0.021208642 0.010717435 -0.035863914 -0.013956438
0000b0 18 e4 39 3d a0 00 6c 3d 19 42 7f bd 34 cb 12 bb
       0.045383543 0.057617784 -0.062318895 -0.002239895
0000c0 4e 70 8a bd 47 02 10 3c 91 18 72 3c 98 64 51 bd
       -0.06759702 0.008789605 0.014776365 -0.051121324
0000d0 bc 7d a3 bb ae c8 65 bc 23 c7 a3 3c d6 53 8c 3c
       -0.004989354 -0.014024897 0.019992417 0.01712982
0000e0 9d 75 d1 3c 39 98 bd bc bf c7 82 3d 30 8b 1d bc
       0.025568778 -0.023143874 0.06385755 -0.009615704
0000f0 59 cf 99 3d 4b 9c b8 3d 05 bd a4 bd 5a 75 94 3d
       0.075102516 0.090141855 -0.08043865 0.072489455
000100 ce 08 71 bd c2 92 e5 bc f5 5a 4a bd 52 25 ba 3d
       -0.058846287 -0.028024081 -0.04940315 0.090891495
000110 16 25 8e bc dd 3e d4 bd f2 2c 49 3c fe 7c 1e bc
       -0.017351668 -0.10363553 0.012278782 -0.009673355
000120 fc 2d 37 3d 78 59 5b bb 25 c5 8b bd 1d 7e 4a 3d
       0.04472159 -0.0033470076 -0.06824712 0.049436677
000130 4b 24 5a 3d 93 bd 2c bd b1 4d e4 3c 82 89 38 3c
       0.053257268 -0.04217298 0.027869077 0.011263253
000140 21 00 78 3c 0b 30 3f bd 2d 78 86 bd 5d d5 ba bd
       0.0151367495 -0.046676677 -0.065658905 -0.09122727
000150 f2 01 ef bd ca d7 84 bd 2e b0 8b 3d c3 01 1b bd
       -0.11670293 -0.06486471 0.06820713 -0.037843477
000160 58 6c 89 bd bd 8a ce 3c 6f c4 00 bd b0 1f b5 3c
       -0.06710118 0.02521264 -0.031437334 0.022109836
000170 2b 55 a0 3d 7b 44 99 3c 46 9c 64 bd 09 7e a1 3c
       0.078287445 0.018709412 -0.055813096 0.019713419
000180 c1 37 75 3d 5f 9d a9 bc d3 1b 6c bd f8 4d 1c 3d
       0.059867624 -0.020704923 -0.057643723 0.038160294
000190 90 71 57 3c a0 5e 4a bd 7a 4a c6 bd 87 9b 09 3d
       0.013149634 -0.049406648 -0.09682174 0.033595588
0001a0 87 d2 65 3d de f1 ae 3d e4 91 53 bd 37 9e 18 bd
       0.056108978 0.08542226 -0.051652804 -0.03726026
0001b0 42 49 37 3c e6 c5 58 bd 9f a1 e6 bb c8 a2 dc 3c
       0.0111869 -0.052923106 -0.0070383097 0.026933089
0001c0 35 8d 4a bd 7f 47 2e 3d cc c2 93 3c 51 50 24 3c
       -0.04945107 0.042548653 0.018037222 0.010028915
0001d0 3e 08 b2 bc d7 a6 48 bd b0 81 93 bc 3c 7e 52 bd
       -0.021732446 -0.048987236 -0.018006176 -0.051389918
0001e0 db 4f 28 3d 23 46 05 ba 17 3d 80 bd 69 27 f5 3c
       0.04109178 -0.00050839985 -0.06261652 0.029926019
0001f0 8b 2f 33 bd ac 7d 0f 3d 5b 92 7c 3c b9 d1 9e 3d
       -0.043746512 0.03503196 0.015415753 0.07754845
000200 d6 18 68 bc 5c 7f 11 bc ae b8 96 3c 0b 0d c8 bd
       -0.014166078 -0.0088804625 0.018398609 -0.09768113
000210 d2 26 58 3d 8f e4 ad 3d e9 17 06 be f9 46 ea bc
       0.052771397 0.0849086 -0.13095059 -0.028598296
000220 a2 36 82 bd 73 ed 99 3d 08 fb d7 bb d4 55 70 bd
       -0.06358077 0.07515993 -0.0065912046 -0.058675602
000230 f2 ac 90 3d 72 d3 49 3c ad 90 84 bc 9f a5 be bc
       0.07064237 0.012318479 -0.016182268 -0.023272334
000240 b9 0d 0b 3d 83 d9 b0 bc 1b f9 ad bb 31 9f 31 3b
       0.033948634 -0.021588093 -0.0053092367 0.0027102942
000250 17 fd 8e bd e3 72 79 3d 12 bd 80 3d d9 5e be bd
       -0.06981867 0.06090058 0.06286062 -0.092954345
000260 33 e6 30 bd 1f 1f 89 3d 32 fa 07 3d e9 98 13 3c
       -0.043188285 0.06695389 0.03319759 0.009008625
000270 04 13 b6 bd 0c 64 d0 3c c3 a7 58 3d 2b 03 71 3d
       -0.08890346 0.025438331 0.052894365 0.05884091
000280 03 82 a7 3d f9 c3 60 3d 2f 2c 58 bd 6d 35 20 3d
       0.08179095 0.054874394 -0.05277651 0.03911345
000290 2b 05 3a 3c 32 85 8b bd 54 5c 29 3d ab 9f 43 bd
       0.011353771 -0.06812514 0.041347817 -0.047759693
0002a0 15 66 d1 3d d0 79 13 bd 71 6b ae bc a2 18 fd 3d
       0.10224549 -0.03600484 -0.021291466 0.12358214
0002b0 8f 82 50 bd 31 51 ba 3d 2a 2e 1c bb 88 5e 8f bc
       -0.05090576 0.09097517 -0.0023831227 -0.01750113
0002c0 9a 63 02 3c d8 f4 04 3e 64 53 4b bc 0d 98 2f 3d
       0.007958317 0.12984025 -0.012410019 0.042869616
0002d0 cd 5e 27 3d 44 d5 87 3d 17 b6 f8 3c 30 b8 95 bd
       0.040861893 0.06632474 0.030360265 -0.073105216
0002e0 e1 94 9c 3c 77 3b 9e 3d 24 fe 0b bb 0d 19 76 3d
       0.01911396 0.07726186 -0.0021361196 0.060082484
0002f0 ba 3a 96 3d 4a 2f 5b 3c 30 4a 5c bd 7f 81 a5 bd
       0.0733542 0.013377974 -0.05378169 -0.0808134
000300 b9 dc 00 3d 7b 76 88 bd 35 2f e7 bc eb f9 c8 bb
       0.031460498 -0.06663223 -0.028220752 -0.006133308
000310 63 b4 41 3d f8 16 c1 bd e8 ab db bc b3 e5 dd bc
       0.04729117 -0.09428209 -0.02681537 -0.027087068
000320 b6 c8 e1 bd 62 13 15 bd d9 08 9d bd 01 d8 20 bd
       -0.11024611 -0.036395438 -0.07667703 -0.039268497
000330 4e c4 28 3d a6 31 8e bd de f4 9e 3c d6 af d3 bc
       0.041202836 -0.069430634 0.019403871 -0.025840681
000340 bc 7c 34 3c 91 0e 97 3d ca 78 4f bb 12 d1 7f bd
       0.011016067 0.07375825 -0.003165769 -0.062455244
000350 ad 8d 3e 3d 23 c2 57 3d 03 5e 32 3d d1 85 99 bc
       0.04652183 0.052675378 0.043546688 -0.018740566
000360 9f 75 16 3d c6 f2 4e bd 5f 43 21 3d c8 8c 65 3c
       0.036733266 -0.050524496 0.03937089 0.014010616
000370 18 7f 63 3b 35 80 b9 bd 5a d8 65 bd d9 eb 4d 3d
       0.0034713205 -0.09057657 -0.056114532 0.05027375
000380 34 7f 85 3d 21 0d 65 bd 99 95 9a bd 1e 33 55 3d
       0.06518403 -0.055920724 -0.07548065 0.052050702
000390 96 0c ce bb 4e a2 9b 3d ad 0f 7f bd 5f 3e 57 3d
       -0.0062881215 0.075993165 -0.06227081 0.052549716
0003a0 82 00 24 3d 9f 2a 93 3d 9f d5 4b bc 9b ee 2e bd
       0.040039547 0.07185864 -0.012441068 -0.04270802
0003b0 5b 2e 85 bd 1e 41 6c 3d 36 e6 8a 3d 5a f3 ce bd
       -0.06502982 0.057679288 0.067821905 -0.101050094
0003c0 b3 cb fb bc 5a 09 8c 3c a9 98 a6 3d 1f 11 97 3d
       -0.03073678 0.017094303 0.08134586 0.073763125
0003d0 7b a6 64 3d ea 76 c7 bd a0 ab d0 bb f7 a6 29 bd
       0.05582283 -0.09739478 -0.0063681155 -0.041418996
0003e0 3c 4d 99 bd 97 a0 10 3d b1 0f 46 3d 58 c6 86 3d
       -0.074854344 0.0353094 0.04835481 0.065808
0003f0 74 33 68 bc bd 13 9d 3d e1 06 9e 3d 5f 81 20 3b
       -0.014172424 0.076697804 0.07716156 0.0024491174

rnn.bias_ih_l0 f4 [128]
000000 79 03 02 bd 27 36 dd 3b 0e cd 4f bd 1c db 3d bd
       -0.031741593 0.00675084 -0.050732665 -0.046351537
000010 69 4c 97 ba 04 e1 9a bd 1f 9f a4 3d ae 05 8a bd
       -0.0011543158 -0.075624496 0.080381624 -0.067393646
000020 b5 66 9c bd 7f 67 f7 3c 68 55 1c bd 66 8f 23 3d
       -0.07636777 0.030200718 -0.038167387 0.039931677
000030 6c 77 85 bd 09 3b 86 3c e2 c7 cc bc fa 55 a1 3c
       -0.065169185 0.016385572 -0.024997655 0.019694317
000040 53 99 ca bc ac e3 84 3d d1 88 19 3d a5 2d 5b 3d
       -0.024731314 0.064887375 0.037483994 0.053510327
000050 d8 0f 36 3d 25 11 66 3d df 87 0d 3d e6 f6 a9 3d
       0.044448704 0.056168694 0.034553405 0.08299045
000060 04 05 60 bc 0d 4b c2 3d 19 9e 1b bd 93 87 8a 3d
       -0.013673071 0.09486971 -0.03799257 0.0676414
000070 f4 20 7c 3d 48 ac 88 3d 67 86 54 3c f9 45 38 bd
       0.061554864 0.06673485 0.012971497 -0.044988606
000080 e0 2d 51 3b 67 3c 8d 3c c0 2d ce bc 03 a0 df 3c
       0.0031918213 0.017240716 -0.0251683 0.02729798
000090 38 46 67 3d 80 5c b5 bd ac 86 1d 3d c2 68 f3 bc
       0.05646345 -0.088555336 0.03845851 -0.029713038
0000a0 33 cd 00 bd f3 6c 82 ba 18 44 0d 3d 15 a4 37 3d
       -0.031445693 -0.0009950682 0.034488767 0.044834215
0000b0 95 c7 09 3d 24 80 09 3d 4e 61 65 3c 9e 1f 6c bd
       0.033637602 0.03356947 0.01400025 -0.05764734
0000c0 18 c5 06 bd 35 97 01 3d fd 1d 39 3b 4b 47 d0 3c
       -0.032902807 0.031638343 0.0028246634 0.02542462
0000d0 9c a6 c4 3c cd a1 85 3d 99 a1 16 bd 54 88 24 bc
       0.024005227 0.06525002 -0.036775205 -0.010042269
0000e0 b4 09 c7 bd c3 95 84 3c ff 90 48 3b 27 1c 43 3c
       -0.097186476 0.016184693 0.0030604003 0.0119085675
0000f0 66 58 81 3d 9f 8c fc bc 32 81 6a bd ef ae 58 3d
       0.06315689 -0.030828772 -0.057252117 0.052901205
000100 da 4d 91 3d 49 b2 c3 bc 02 e1 44 3c c7 ce 86 3d
       0.07094927 -0.023888724 0.012016537 0.065824084
000110 cc 4b 50 bd 87 fe 4a 3c ee 0e 09 3d 5d 95 fd 3c
       -0.050853536 0.012389786 0.033461504 0.030955011
000120 96 13 30 3d 8c a3 8f 3d 37 9e 8c 3c f2 3d e6 3c
       0.04298743 0.07013616 0.017165286 0.02810571
000130 13 e2 9f bd db 88 d8 bc ea 74 b8 3d ba de 0c bd
       -0.07806792 -0.026432445 0.090066746 -0.034392096
000140 22 78 5b 3d 2b c5 74 3d a4 5a 9d bd e3 df b9 3d
       0.053581364 0.059758347 -0.07683304 0.09075906
000150 c0 45 94 bd e5 95 93 3b c8 29 09 3d d1 17 01 3d
       -0.07239866 0.004503953 0.03348711 0.031516854
000160 6c 4a 9d 3d ff aa 8a 3b ea 72 10 bb 61 3f d5 3c
       0.076802105 0.00423181 -0.002204115 0.026031198
000170 c6 81 39 3d 17 21 aa bb 11 d6 a5 bc 99 bd 28 bd
       0.045289777 -0.005191933 -0.020243676 -0.04119644
000180 2a 76 1b bc 83 8a 64 3d 34 72 8f bc 22 7e 65 3d
       -0.009488622 0.055796158 -0.017510511 0.056028493
000190 23 c1 05 bd a6 81 00 3d 27 f6 48 3d 9f 65 6b bd
       -0.032654893 0.031373642 0.049062874 -0.05746996
0001a0 2f 84 9e bd 08 06 de 38 57 f2 da 3d e5 ed bb bd
       -0.07740056 0.00010586908 0.10690754 -0.09176234
0001b0 ca aa 83 3d 59 c6 76 bc 5b f8 0a be 8a dc d3 bc
       0.0642906 -0.015061938 -0.13571303 -0.025861997
0001c0 b4 34 61 bd 7a 07 0f 3c 7f 7f 78 bd a2 d2 b4 3c
       -0.054981902 0.00872981 -0.060668465 0.022073094
0001d0 02 04 8c bd 70 ff af ba e8 7d e3 3c 56 09 18 bd
       -0.06836702 -0.0013427567 0.027769998 -0.03711828
0001e0 30 9a 1b 3b 39 0c e8 bc 7d b2 4b bc de 3d 0c bd
       0.0023743026 -0.02832614 -0.012432692 -0.03423869
0001f0 66 1c ed bb a4 de 84 bd 03 a1 90 bd bd 84 41 3d
       -0.0072360514 -0.06487778 -0.070619605 0.04724573

rnn.bias_hh_l0 f4 [128]
000000 af 07 91 3c f5 4d 72 3d 0b 0e a4 3b 45 1a a3 3c
       0.01770386 0.059156377 0.005006557 0.019909987
000010 0f ba 01 bd 8b 1d 99 3d 06 1a 69 bd 00 92 24 bd
       -0.03167158 0.07476338 -0.056909584 -0.0401783
000020 a2 aa 38 3c b0 b8 bd 3c 06 51 a6 3c b9 81 6a 3d
       0.011271151 0.023159355 0.020302307 0.05725262
000030 b6 6c 58 bd 63 a5 54 b9 ed ab 9c bc db 76 bc 3b
       -0.05283805 -0.00020279507 -0.01912495 0.0057514734
000040 e0 6f 76 3d 0c b4 23 3d 5d 92 5b 3d 3d ca 64 3d
       0.060165286 0.039966628 0.05360638 0.055856932
000050 02 f7 d4 3c da f6 9c bd 22 55 59 bd 15 a6 19 3d
       0.025996689 -0.07664271 -0.053059705 0.037511904
000060 72 3a ba 3d 9a 73 c4 3a 38 f2 7b 3d b9 bf 31 bd
       0.09093179 0.0014988065 0.061510295 -0.04339573
000070 e9 16 84 3d 69 ad 86 bd bc 3c 4e 3d 1e 0b 47 3d
       0.06449682 -0.06576044 0.05035089 0.048594587
000080 92 c7 24 bd 60 ed 78 3c 54 fc 94 3c da 4f 47 3d
       -0.040229388 0.015193313 0.018186726 0.048660137
000090 b8 01 b9 3a 97 44 93 3d 3f aa 90 3d 62 7a ff 3b
       0.0014114892 0.07190817 0.07063722 0.0077965716
0000a0 0f ad 88 3d 77 3d ae bd c9 db 91 bd 59 d6 83 bd
       0.06673633 -0.08507817 -0.07121999 -0.06437368
0000b0 25 a7 e9 bc 9c be 73 bd 51 b8 6c bd c6 ce 1a bd
       -0.028522084 -0.05950795 -0.057792965 -0.03779485
0000c0 f4 06 53 bd 04 9e 8c bc 2d 17 27 3d 18 f6 20 bd
       -0.051520303 -0.017165191 0.040793587 -0.039297193
0000d0 28 db 01 3d a5 dc e9 ba 50 71 b5 3c 48 02 9c 3b
       0.031703144 -0.0017842246 0.022148758 0.004761014
0000e0 e3 e9 a1 bd f1 92 cf bc 92 26 55 bd 50 57 64 3d
       -0.079059385 -0.025338622 -0.052038737 0.05574733
0000f0 c2 e7 5d bc d5 66 cc bc fc 8f 8e bd de f7 91 bd
       -0.013544025 -0.024951378 -0.069610566 -0.07127355
000100 ec 31 5c bd 73 4a 8f 3d a6 58 15 bd 4a cb af 3d
       -0.053758547 0.06996622 -0.036461495 0.08583696
000110 58 4a 63 3c 7c 57 b2 3d 7e d5 37 3d 93 fb 1f bb
       0.013872705 0.087080926 0.044881336 -0.0024411425
000120 39 f9 41 bc 86 de 44 3c 7b 18 8f 3d 8b e1 ad bc
       -0.0118392045 0.012015944 0.06987091 -0.021225711
000130 a5 a9 44 bd 4d 4f 3c 3d 74 d5 8d bc 03 b3 cc bd
       -0.048013348 0.045974065 -0.017313696 -0.09995081
000140 58 61 98 bc 90 9b af bc c4 13 b6 bd 6a c1 2e bd
       -0.018601105 -0.021436483 -0.08890489 -0.042664923
000150 5a f5 38 3c d0 17 58 bd 2e 29 41 bd e5 53 48 bd
       0.011288965 -0.052757084 -0.047158413 -0.048908133
000160 2c 1d 2e 3c 5b 45 3b bd e0 3b 48 39 a1 e0 04 bd
       0.010627072 -0.04572044 0.00019095792 -0.032440785
000170 dd 09 8d bd 11 71 9f 3c 4e de e6 bc e1 36 cd bc
       -0.06886647 0.019463094 -0.028182175 -0.025050582
000180 26 80 11 bd 4c 0d af 3d d2 58 0a 3d 83 05 e6 bc
       -0.035522602 0.08547458 0.033776112 -0.0280788
000190 07 83 2a bd 2e 30 21 bd d6 6e a0 bc 77 f0 a9 bb
       -0.041628864 -0.03935259 -0.0195841 -0.0051861363
0001a0 b1 15 aa bd 2c 24 35 3c 01 86 c6 bc ae bc 11 bd
       -0.083049186 0.011055987 -0.02423382 -0.03558033
0001b0 88 db 86 3d 45 48 37 bd d3 68 33 3c 0e b2 fd 3c
       0.06584841 -0.044746656 0.010950285 0.030968692
0001c0 7e 8e 66 3c ed 0a be 3c 01 49 b0 bd 66 58 97 bd
       0.014072059 0.02319857 -0.086076744 -0.073899075
0001d0 3e e6 91 3d 8a 60 c7 3c 2d 52 0c bd e4 ab 71 3d
       0.07123993 0.024338026 -0.034258056 0.05900182
0001e0 dd bd b6 3c 8a 73 94 bc 8c a2 e4 3c eb 0e 0f 3d
       0.02230733 -0.0181215 0.02790954 0.034926336
0001f0 a3 c4 a5 bd 0d e6 91 bd 27 30 aa 3c ab f2 35 bd
       -0.08094146 -0.07123957 0.020774914 -0.04442088

rnn.weight_ih_l1 f4 [128, 128]
000000 d7 c0 e7 3d 3f da d4 bc dc 49 04 be d7 38 07 bc
       0.11316078 -0.025982974 -0.129188 -0.008253298
000010 53 0b bf 3d 26 b4 2c bd 3c 6c 4e bd 47 c5 93 bd
       0.09328332 -0.04216399 -0.05039619 -0.07215362
000020 5f 6f d6 bd ae 13 e9 3d 17 f1 9b 3d 19 21 99 bd
       -0.10470461 0.11380707 0.076143436 -0.07477016
000030 e1 9c 52 bd 80 c7 54 3d 25 de 8e 3d 7f a0 c9 3d
       -0.051419143 0.05194807 0.069759645 0.09845065
000040 41 10 7e 3d 79 bf d3 3d 47 d7 be 3d eb c2 65 3d
       0.06202722 0.10339255 0.09318405 0.05609409
000050 e2 06 5e 3c f1 0a 65 3c 3c fc 90 bd f8 01 56 bd
       0.013551446 0.013979659 -0.0707936 -0.05224797
000060 f4 96 ed 3d b2 b6 a4 3d 10 2b 52 3d 2b ef e6 3d
       0.11601058 0.08042659 0.0513106 0.112760864
000070 9c 6b d2 bc 8c a9 31 3c 22 83 85 3c 8e 5b 9e 3c
       -0.025686078 0.010843646 0.01629788 0.019330766
000080 12 5c 00 be 71 4d 22 3d dd 48 dd bb 63 bd 46 bd
       -0.12535122 0.039624635 -0.0067530707 -0.048520457
000090 1c d2 38 bd f1 57 02 3d b9 85 82 3d 47 d6 68 bc
       -0.04512225 0.03182215 0.06373162 -0.014211244
0000a0 bc 98 af bd cd a8 0a 3d 61 0e a9 3d 52 23 32 bd
       -0.08574054 0.033852387 0.08254696 -0.043490715
0000b0 1a 89 b1 3d c0 c1 70 bd 57 0f 96 3b a7 45 ff bc
       0.08668728 -0.058778524 0.0045794654 -0.031161143
0000c0 73 54 98 bd 13 42 c5 bd 11 29 cc bd 7c 65 18 bd
       -0.074379824 -0.09631743 -0.0996877 -0.037206158
0000d0 2e e5 88 3a 73 cb 35 bd c5 32 d9 bd e6 79 90 bd
       0.0010444277 -0.044383477 -0.10605387 -0.070545
0000e0 8d a2 1a bd 0d 47 65 3c 78 69 45 3c 88 4b 16 bd
       -0.037752677 0.013993991 0.0120490715 -0.036693126
0000f0 4e ec 87 3d c7 c9 d0 bc 53 70 08 be e1 83 00 3e
       0.066368684 -0.02548684 -0.13324098 0.12550308
000100 5a 03 cc bd fc bd 6f 3d 1c 59 63 bb 12 a9 7d 3d
       -0.09961577 0.058530793 -0.0034690564 0.061928816
000110 7e 79 32 3d fb 68 5e bd 26 f3 f2 bc 4d 6c 1c 3e
       0.043572895 -0.054299336 -0.029656958 0.15275688
000120 ae a5 36 3d 28 2b 92 3c 15 44 a9 3d d3 84 47 3d
       0.0445916 0.017842844 0.08264939 0.048710655
000130 fd 69 5d bd 3e 6f 71 3d 81 dc 78 3d 47 de 5b bd
       -0.054056156 0.05894398 0.060757164 -0.053678777
000140 a8 b0 c1 3c e3 17 ed 3c 8b 4e 4c bd 22 04 41 bd
       0.023643807 0.028942054 -0.049879592 -0.047123082
000150 c3 dc c9 bc dc 29 93 bd 96 c9 15 bc b1 4f 6a bd
       -0.0246414 -0.071857184 -0.0091423 -0.057204906
000160 33 5e ba 3d dd bc c1 bd cc 77 4a bd 1e d3 87 39
       0.09099998 -0.09459851 -0.049430653 0.000259065
000170 f8 e2 b0 bc fa 47 b0 bd 1b 87 a2 bd b6 a0 77 3d
       -0.021592602 -0.086074784 -0.079359256 0.060456
000180 f9 41 ba 3d 1e e7 06 3e 70 d6 a4 3d 40 4a 23 36
       0.090946145 0.13174102 0.08048713 2.4332112e-06
000190 7f 0d 5c 3c 55 da b0 bd 2b b4 3a 3b 3c d7 27 3d
       0.013430952 -0.086353935 0.0028488736 0.040976748
0001a0 ec 2d c9 bd c0 99 89 bd 13 f7 df 3d 33 e8 fc bd
       -0.09823212 -0.067187786 0.109357975 -0.12348976
0001b0 3f 3f cf bc a5 25 b6 bd 77 2a 35 be 7e 51 84 bc
       -0.025298713 -0.08893899 -0.1769198 -0.01615214
0001c0 09 99 02 bd ce 37 71 3d 0c cb 59 3d 80 5d 95 bd
       -0.031884227 0.05889111 0.053172156 -0.07293224
0001d0 04 81 9a 3c 57 0b 39 bd 0a 47 a5 3d a3 1c 81 3b
       0.018860348 -0.04517683 0.0807019 0.0039401813
0001e0 00 df 02 be 0f 55 a1 bd 7c 82 b3 bc 37 f7 6d 3d
       -0.1278038 -0.07877552 -0.021912806 0.05809709
0001f0 70 2a c2 3c 8e ca a9 bd 42 54 c0 3c d2 5e 90 3d
       0.023701876 -0.08290587 0.023477677 0.070493355
000200 f0 09 b3 bc 32 23 07 3d ca 25 c8 bb c5 b9 9c bd
       -0.021855325 0.03299255 -0.0061080204 -0.0765262
000210 a4 64 ba 3c 94 10 d0 3c c1 d2 87 3d 98 72 27 3d
       0.022753067 0.02539853 0.06631995 0.04088077
000220 f6 c1 73 3d 60 6e b3 3d d9 21 17 3e 49 a6 c4 3c
       0.059511147 0.08761287 0.14759006 0.024005072
000230 9b 4b 0b bd 26 7f 2e 3d bb 9c 4e 3d c2 0f 22 3d
       -0.03400765 0.042601727 0.05044244 0.03956581
000240 32 95 97 bb d0 79 7e 3d e9 2c 89 3b 62 62 fe 3d
       -0.0046259398 0.06212789 0.004186262 0.12421109
000250 e4 fc 1b 3d 1d 2b 31 bc a0 ba 43 3c c1 88 d3 3d
       0.038082972 -0.010813502 0.01194635 0.10328818
000260 2b 73 b3 3c a9 1f c8 3d bb 0b dd 3d d1 0e 65 bd
       0.021905502 0.09771664 0.10793253 -0.055922333
000270 f6 da 89 3d ca fd c8 3d 76 11 42 3d 8f 51 51 3d
       0.067312166 0.098140314 0.047379933 0.05110317
000280 02 76 e3 bc 74 d8 3d 3b 49 22 c6 3b d9 0f 82 3a
       -0.027766231 0.0028968127 0.0060465676 0.0009922936
000290 a5 6e d1 3d 1c 65 12 bc bc a3 d0 3c dd e5 bf 3c
       0.10226182 -0.008935239 0.0254687 0.023425037
0002a0 46 c6 ad bc 1f c6 de 3c 0e 57 20 be 99 1c 09 3d
       -0.021212708 0.02719408 -0.15658209 0.03347454
0002b0 0c 5e 2a 3d d0 b1 b1 bd 21 e2 08 3d 3f 67 bf bc
       0.041593596 -0.08676493 0.03341878 -0.023364661
0002c0 8d 5e 99 bd dc 26 5b 3d 86 bd c9 3c 04 cb 73 bd
       -0.07488737 0.053503856 0.024626505 -0.059519783
0002d0 ad 63 33 bd 27 19 96 3d cb 09 d3 bc d2 20 88 bd
       -0.04379623 0.07329016 -0.025761506 -0.06646885
0002e0 c5 07 06 be 2c 04 3a bd 30 40 c0 bd 78 ca d1 3d
       -0.13088901 -0.045414135 -0.09387243 0.10243696
0002f0 ca bc 51 bd 10 b5 4a bc 7d 1c 7b bc 05 d2 86 bd
       -0.051205434 -0.01237227 -0.015326616 -0.06583027
000300 4f 09 35 bb 21 32 5a bd 9b a4 9d 3b c6 43 fc bc
       -0.0027623957 -0.053270463 0.0048108823 -0.030794036
000310 97 34 bf 3c bc ff ab 3d 9b 93 5e bd b3 7b 5a bd
       0.023340506 0.08398387 -0.054339986 -0.053340625
000320 8e 0b 8e bd 08 31 bf 3d e8 95 7a 3d b3 ed 72 3d
       -0.06935798 0.09335524 0.061178118 0.05930872
000330 f9 18 42 3c 8e 56 ad 3d d3 ff c3 bd 37 57 86 bd
       0.011846774 0.084637746 -0.09570279 -0.06559604
000340 df 4e f1 bc f3 6d 35 3c 40 d8 d7 bd ab 12 57 3d
       -0.029456554 0.011073577 -0.10539293 0.052508038
000350 e4 14 29 3d b1 94 5e 3d b6 35 e5 bd 70 51 0f bd
       0.04127969 0.054341022 -0.11191885 -0.034989774
000360 d6 fa ca 3d 21 0c 6e bd b6 d7 f3 3d ed 79 95 3d
       0.099111244 -0.058117036 0.11906378 0.07298646
000370 a2 fd 19 3d 03 10 bf bd 58 c4 27 bc e3 70 10 bd
       0.0375954 -0.09329226 -0.010239683 -0.035263907
000380 92 97 0d 3d d9 b6 c9 3d d5 7a 4e bd f2 fa d4 3d
       0.034568377 0.098493285 -0.05041011 0.103994265
000390 56 48 a1 bc a9 cb 4b bd 14 02 52 3d 17 b3 f3 bc
       -0.019687813 -0.049754772 0.051271513 -0.029748483
0003a0 c4 67 74 bd c0 13 19 bd 6b 65 3c bd 3b 37 24 bd
       -0.05966927 -0.03737235 -0.045995157 -0.040091734
0003b0 80 c1 c8 3d 60 35 99 3d 91 4c 0e bd 84 85 27 bd
       0.09802532 0.074808836 -0.03474099 -0.040898815
0003c0 17 aa 8f bd 5e ac 1f 3d b2 b2 a8 bd b9 1d bb bd
       -0.07014864 0.03898274 -0.082372084 -0.091365285
0003d0 4e 82 af 3d 94 a0 ff bb a1 68 00 3e c7 aa 68 3d
       0.085697755 -0.007801125 0.12539913 0.05680349
0003e0 b9 95 27 bd 54 76 44 bd 3c f8 80 3d 40 bf f7 bc
       -0.04091427 -0.04796441 0.06297347 -0.030242562
0003f0 54 d5 fc bc 9a d4 c9 bb c5 4d 8b 3c ab 57 1c bd
       -0.030863442 -0.0061593773 0.017004857 -0.038169544

rnn.weight_hh_l1 f4 [128, 128]
000000 b6 fe 90 bd 83 cb 36 bd b9 7c 77 bd 92 0b 86 3d
       -0.07079832 -0.044627678 -0.06042168 0.065451756
000010 19 15 5b 3d b1 9f 55 3d 92 ab c6 bb ce 96 c4 bd
       0.053486917 0.052154247 -0.0060629332 -0.09599076
000020 c2 01 7c bd 3f bf 1b 3a 57 8a 8c 3c 88 74 5a bd
       -0.061525114 0.00059412787 0.01715581 -0.05333379
000030 6c 4c 64 3d 01 fe 4b 3d 0b 1b 5b bd 25 af dd 3c
       0.055736944 0.049802784 -0.053492587 0.027061054
000040 04 71 d3 3c 76 3b 92 bd 4e 0a c7 3c 3f 54 cd 3a
       0.025810726 -0.071402475 0.024296906 0.0015665366
000050 87 6e 9d 3d 5f 65 4b 3c 93 d3 86 bd 70 f0 51 bd
       0.07687097 0.0124143055 -0.06583323 -0.05125469
000060 4c f4 b5 3b 60 6c 98 3d 0b 7c d4 3c 1f bf 41 bd
       0.005552804 0.07442546 0.025938055 -0.047301408
000070 ea 33 e0 bb 73 ff 7c bc 81 9a a6 3d b8 68 c7 bd
       -0.006842126 -0.015441763 0.08134938 -0.097367704
000080 f3 95 db 3d 85 19 27 bd c1 7a c7 bd b3 02 58 bd
       0.1072196 -0.04079582 -0.0974021 -0.05273695
000090 19 72 95 bd 4b 52 b7 3d 41 03 50 3d 21 42 03 3d
       -0.07297153 0.08951243 0.050784353 0.032045487
0000a0 3c 27 5c bd 55 78 6c 3d ff 53 65 3d 74 2d f0 ba
       -0.053748354 0.057731945 0.055988308 -0.0018324093
0000b0 33 2b 62 3d c2 14 69 bd 47 eb ec 3c fd 4e 71 bd
       0.05521698 -0.05690456 0.028920783 -0.05891322
0000c0 3f c7 c9 bc 36 bb 98 bd fd b2 fb 3c be 71 21 3d
       -0.02463114 -0.07457583 0.030724997 0.039415114
0000d0 f9 19 d5 bc 93 52 a6 bd 37 98 36 bd b8 36 67 bd
       -0.026013361 -0.081212185 -0.044578757 -0.05644867
0000e0 0c a4 5e 3d bd 80 06 bd e5 8d c0 3c 43 37 ed 3c
       0.054355666 -0.03283762 0.02350516 0.028957015
0000f0 cf 37 a6 3d 83 6e 94 3b 30 49 42 3d 5b 42 b5 3d
       0.081161134 0.0045297756 0.04743308 0.08850547
000100 3c b2 c3 bd de b3 82 3d 8b 47 95 3c 0f 8c 99 3d
       -0.0955548 0.06381963 0.01822259 0.07497417
000110 5d 4f 8a bd d1 f4 be bd ff b0 32 3c db b6 b1 3c
       -0.067534186 -0.09324039 0.010906457 0.021693638
000120 2b 84 81 3d 2a ac 64 39 b6 53 2a bd 3b c4 86 bd
       0.06324037 0.0002180791 -0.04158374 -0.06580397
000130 dd c7 30 bd 8e 2a 82 3d 3b c0 4c 3d b3 f5 56 bd
       -0.043159354 0.06355773 0.049988013 -0.05248041
000140 41 29 0a be 0d 6a bf 3d 96 3a 68 bd 86 1c a2 3d
       -0.134923 0.093463995 -0.056696497 0.07915597
000150 bc f1 46 3d 43 99 56 bd fe fa 9e 3d 11 4d 38 3c
       0.04857038 -0.052392256 0.07762717 0.011248843
000160 85 d3 e5 bc 53 ad 0c 3d f1 42 a6 bd 8b ff bd bd
       -0.028054962 0.034344982 -0.08118237 -0.092772566
000170 74 62 6d ba 96 c3 98 3c 30 fe 21 bc 34 08 dd 3d
       -0.0009055503 0.01864795 -0.009887263 0.1079258
000180 4d fe 1f bd f2 6e 07 3c 1b 8e 66 3d 8d 7b 3b 3d
       -0.03906088 0.0082661975 0.056287866 0.045772124
000190 f4 d0 c8 bc c0 36 8c bd 6c 21 cc 3c 9f 3f 34 bd
       -0.0245137 -0.0684638 0.02491828 -0.044005986
0001a0 98 91 ae 3b 03 3f 68 bc c2 3a 71 3d 92 14 7b 3d
       0.0053274147 -0.014175179 0.058893926 0.061298914
0001b0 d1 66 7f bd 3d b5 bf 3d f5 13 35 3d 46 3d c8 bc
       -0.062353913 0.0936074 0.044208486 -0.02444328
0001c0 3a 9b 18 3d b1 39 71 bd 93 a1 b0 3d f0 f8 ab 3d
       0.03725741 -0.05889291 0.08624568 0.083970904
0001d0 c9 b5 95 bd 4c 14 7a bb 62 b8 9b 3d 31 09 9e 3d
       -0.073100634 -0.003815907 0.076035276 0.07716597
0001e0 4e c1 0b bc b3 72 89 3d 47 ea 3c 3d d7 54 15 3c
       -0.008529974 0.0671133 0.04612186 0.009114466
0001f0 12 e2 9d 3d 8f 7f 3d 3c cf 44 73 3d b1 d0 ea bc
       0.07709135 0.011566057 0.059391793 -0.028663965
000200 9e c4 b6 bd 0a ee 41 bc f3 08 de 3d 10 97 dd bc
       -0.089242205 -0.011836538 0.10841551 -0.027049571
000210 38 c9 65 3d 05 bd c2 bc 2d 33 ca 3d 71 24 98 bd
       0.0561001 -0.023771772 0.09873042 -0.07428826
000220 a3 63 8d 3d 4d 5e a2 3c 0c 39 a9 3c dd fa 98 bd
       0.0690377 0.019820357 0.020657085 -0.074697234
000230 9f 11 3b bd 2b a6 9a bc 3e 99 92 bd 23 90 c8 3d
       -0.0456711 -0.018878063 -0.07158135 0.09793117
000240 eb f8 db bc ab 9c f0 bc 91 c9 50 bc c0 e6 5f bd
       -0.026852092 -0.02937158 -0.01274337 -0.05466342
000250 9e 24 f1 3c cc 04 78 bb 9e 6b ac bd ca 0e 80 3d
       0.029436406 -0.0037844656 -0.08418964 0.06252821
000260 7d 29 3d bc 0a c4 1e bd 9a 80 89 3d f7 05 20 3d
       -0.011545536 -0.038761176 0.06713982 0.03906819
000270 5e 2f 2e bd 36 15 03 3d 0a a1 9b bc 76 54 84 bd
       -0.04252564 0.03200265 -0.018997688 -0.06461422
000280 f7 14 0b bb 0d 5d bb 3d a7 6f 1a bd 22 d9 ae 3d
       -0.0021222213 0.091486074 -0.037704136 0.085375085
000290 28 6e 46 3d 1f 27 63 3d 52 c5 e8 bc 30 19 b0 bc
       0.048444897 0.05545723 -0.028414402 -0.021496385
0002a0 d3 28 2f bd b1 34 95 bd 17 3f 8a 3d 8c 34 0b bd
       -0.042763542 -0.07285441 0.06750315 -0.03398566
0002b0 75 04 86 bd 50 33 91 bd bf 04 21 3d 6c b4 9d 3d
       -0.06543819 -0.07089865 0.039311167 0.07700428
0002c0 7c 51 9c 3b 65 62 8f bd 9e 3b 59 3d a6 7e 97 bd
       0.004770456 -0.07001189 0.05303537 -0.07397203
0002d0 ca 70 0e 3d 13 57 e3 bc a9 48 81 bd 07 8c 86 bc
       0.034775533 -0.027751481 -0.06312687 -0.016424192
0002e0 88 c8 4e 3d d7 f1 95 3d ea 66 a7 3b 86 ae 7f bd
       0.05048421 0.07321518 0.005108704 -0.062422298
0002f0 e3 0a ed 3b b6 ef 0e 3d d9 1d 9b bd e0 60 85 bc
       0.007233964 0.034896575 -0.07574052 -0.016281545
000300 f2 b1 30 3c 9d 5a aa bd 1e 32 b1 3c 44 15 20 3d
       0.010784613 -0.08318064 0.021630343 0.03908278
000310 02 7a 03 3a 60 56 e4 3d 4f 91 05 3d c7 8a 80 bd
       0.0005015434 0.11149287 0.03260928 -0.0627647
000320 00 76 af bd bf 01 8c 3d b3 ee 9d bc ae 69 0c bd
       -0.085674286 0.068362705 -0.01927886 -0.03428047
000330 2c 6c 6a 3d 75 f5 0a bd bb 6e 26 3d 83 04 74 3d
       0.057232067 -0.033925492 0.040632945 0.059574615
000340 80 21 cd bd 66 55 55 bb d0 63 4f 3d ec bb 93 bd
       -0.10016155 -0.0032552122 0.050632298 -0.07213578
000350 2c db 03 3c 78 96 d1 3c b3 39 94 bd 97 fa 3b bd
       0.00804786 0.025584444 -0.07237568 -0.045893278
000360 e8 ce 8d bd b7 a0 a2 bb df c7 49 bd c8 21 bf bc
       -0.0692423 -0.0049630064 -0.049262878 -0.023331538
000370 f2 6c 7c 3d bb a4 e0 3d 12 28 8e bd ce 0d ec 3d
       0.061627336 0.1096892 -0.069412366 0.115260705
000380 ce 20 9c bd f5 2e 08 3d 82 1a 8f bc ce 18 0b 3d
       -0.076234445 0.033247907 -0.017468695 0.033959202
000390 5d ba 78 3d f5 60 28 3d 83 82 15 bd 79 d6 72 3d
       0.060724605 0.04110809 -0.03650142 0.05928657
0003a0 5b 20 cf bd 55 b8 74 3d 6f 51 72 bd 3f 7f b8 bd
       -0.10113593 0.059746105 -0.059159692 -0.09008645
0003b0 e5 cb c8 3d 60 bb 02 bd bb 4b 8a 3b 8e e8 c8 bc
       0.09804515 -0.031916976 0.0042204536 -0.024524953
0003c0 09 16 c1 3c a8 90 3f bd 75 e2 9c bd 7a 4f 69 bd
       0.023570077 -0.046768814 -0.07660381 -0.05696056
0003d0 f9 36 89 bb b1 98 c4 bc d9 af 99 bd dd d5 0a bd
       -0.0041874615 -0.02399859 -0.075042434 -0.033895362
0003e0 aa 9c f5 3c 40 d6 4f 3d 1d b6 ad 3d 23 d2 86 bd
       0.02998193 0.050741434 0.08482001 -0.06583049
0003f0 d2 8c 4b bd 15 88 d8 bd ad f3 a9 bd 0f dd 69 3d
       -0.049694844 -0.105728306 -0.082984306 0.057095584

rnn.bias_ih_l1 f4 [128]
000000 9a 94 ad bc 5d bc c6 bc 06 f7 f4 3c be 52 ce 3d
       -0.021189023 -0.02425974 0.029902946 0.100743756
000010 c5 42 60 3c 2c cc 2f 3d e3 77 38 bd a2 ae 8c 3d
       0.013687794 0.042919323 -0.045036208 0.06869246
000020 35 63 b0 bd 6c 56 a5 3c 97 9d 65 3d c3 09 1e bc
       -0.08612672 0.02018281 0.056058493 -0.009645882
000030 ef 14 b9 bd ac 25 a6 3d 02 77 58 bd 99 b0 9e 3d
       -0.09037196 0.08112654 -0.05284787 0.07748527
000040 36 da a1 bd a3 2e 42 bd d3 8a d3 bc bf 94 a4 bd
       -0.079029486 -0.047407757 -0.025823032 -0.080361836
000050 23 51 b1 bd 9c 6d b3 3d f3 5c d1 bc 91 09 18 3d
       -0.08658054 0.08761141 -0.025557017 0.0371185
000060 d0 a0 0f 3d 20 df d0 3d 86 0a 39 bd d5 f2 05 bd
       0.035065472 0.10198808 -0.04517605 -0.032702286
000070 ed 73 81 bc 81 4b 34 3a 15 d0 94 3d 6f 2c fc bc
       -0.015802348 0.0006877706 0.07266251 -0.030782906
000080 8f 7c 3b 3d 40 68 59 3a 58 69 c3 bd 87 cb 56 3c
       0.045773085 0.00082934275 -0.09541577 0.013110048
000090 6e 60 ea 3d fc 21 46 3d 50 23 12 bd 51 40 41 bd
       0.11444174 0.048372254 -0.035678208 -0.047180478
0000a0 32 c7 ec bc 2e 28 c5 3b e7 9a 5f bd 07 bd af bd
       -0.028903577 0.0060167527 -0.054591086 -0.08580976
0000b0 53 39 d7 bd 7f 3b 45 3d d1 c8 4d bd 77 f3 bb 3c
       -0.105089806 0.048152443 -0.05024034 0.022943242
0000c0 b9 fc 08 3e ad 57 80 3c 4e 21 22 3b c1 12 1f be
       0.13377656 0.015666807 0.002473909 -0.15534498
0000d0 eb 30 b6 3d b0 a2 cb 3c cc 28 f6 3d f3 1f d7 bc
       0.08896049 0.024857849 0.120195 -0.026260352
0000e0 98 0f c9 3d cd f7 62 3d 6a 8f 9a bd 3d 51 c8 bc
       0.098174274 0.055412102 -0.07546885 -0.0244528
0000f0 53 37 bd 3d 6c d5 e2 3d 0a a9 8c bd df bc dc 3c
       0.09239068 0.11075863 -0.06868179 0.02694553
000100 64 a1 72 3d 68 bc a6 bd 01 ca c6 bd f1 03 9e 3d
       0.059235945 -0.081414044 -0.09706498 0.077155955
000110 e7 11 18 3d 9a 43 89 bb 0c 25 ef 3d 95 4f 0a 3e
       0.037126448 -0.004188967 0.11676988 0.1350692
000120 a5 dc 7a bd 32 aa 27 bd d9 38 2e bd d4 ef 09 3d
       -0.06124558 -0.040933795 -0.042534683 0.033675984
000130 b5 73 b5 3d a9 83 5b 3d 3e b9 a6 bd 86 43 aa bd
       0.0885996 0.053592358 -0.08140801 -0.0831366
000140 21 94 e8 3d c8 b3 82 3d 86 6a 9d 3d ff 95 59 bd
       0.11356378 0.06381947 0.07686333 -0.053121563
000150 e0 39 80 bd 63 8a fa bd a5 c8 c2 3d d7 52 fe bd
       -0.06261039 -0.122334264 0.09510926 -0.12418144
000160 5a 7a b4 bd 6e 87 25 3d b8 65 83 bd 28 60 50 3c
       -0.08812399 0.04041236 -0.06415886 0.012718238
000170 ed ff 63 3d 2f 6b f1 bd f4 9f 0d be f1 42 70 3d
       0.05566399 -0.11788022 -0.13830549 0.05865759
000180 68 32 2b bd 84 f6 4c bd da f9 e0 bd 7b f0 d0 3d
       -0.041796118 -0.050039783 -0.109851554 0.10202118
000190 59 85 c1 bd 0b a4 69 bc 54 c1 de 3d 8e b3 84 bc
       -0.09449262 -0.014260302 0.10876718 -0.0161989
0001a0 60 24 22 3d a7 98 93 bd 4f 6d 7e 3d c8 95 2e bd
       0.03958547 -0.072068505 0.062115964 -0.04262331
0001b0 0a 7a 13 3e 7a ee 6b bd c6 aa 85 3d 22 fb 11 3d
       0.14402023 -0.057600476 0.06526713 0.03563989
0001c0 35 26 07 3d 02 b9 97 bd f9 05 0d 3d 84 30 92 3d
       0.03299542 -0.07408334 0.034429524 0.0713816
0001d0 48 99 13 be 7a de ae bd 59 b7 c1 3d 2f b8 d9 bc
       -0.14413941 -0.08538528 0.09458799 -0.026577083
0001e0 d4 11 9e bd 49 4f 46 be 4e 75 a9 bd a1 74 33 3c
       -0.07718244 -0.19366182 -0.08274327 0.0109530995
0001f0 5c 36 32 3d 0e 72 7e bd 47 93 6b bd 3e 04 43 3d
       0.043508872 -0.06212049 -0.0575135 0.047611468

rnn.bias_hh_l1 f4 [128]
000000 5a 74 81 3c 57 a1 0d bb 19 be 56 bb 8f ff 38 3d
       0.015802551 -0.0021611059 -0.0032767116 0.045165595
000010 ba 5d ba 3d 3b a4 8d 3d 35 bc a2 bd a0 62 08 3d
       0.09099908 0.0691609 -0.07946054 0.03329718
000020 d2 10 dc bd ec 4f 38 bd 85 2e 12 bd b2 67 e0 bc
       -0.10745396 -0.044998094 -0.035688896 -0.027393196
000030 74 e4 e9 bd 85 db 0f 3c 85 eb 89 bd 48 9d 87 3d
       -0.11420527 0.008780365 -0.06734375 0.06621796
000040 0c 0f c7 3c 86 1c b8 bd 70 ba a5 bd 87 74 fa bc
       0.024299167 -0.089898154 -0.08092201 -0.030573143
000050 49 d0 8e bd 53 cf a9 3d 1a ef f3 bc 2c 5c 6e 3d
       -0.06973321 0.08291497 -0.029777098 0.05819337
000060 4e ad c8 bd 03 09 8e ba ce cd 69 bd 6c d1 27 3d
       -0.0979868 -0.0010836426 -0.057081036 0.040971205
000070 6e 6f 83 3d d0 fc 31 3d d0 06 7c bc 90 4c b5 bd
       0.06417738 0.04345399 -0.015382484 -0.08852494
000080 cd 3e 76 bd e3 75 b0 bd 45 60 e2 bc ce 75 64 3b
       -0.060118485 -0.08616235 -0.027633796 0.0034860256
000090 83 e3 93 ba b9 26 83 bc 76 53 82 3d 4c 16 7f bc
       -0.0011283014 -0.016009675 0.06363575 -0.015569281
0000a0 33 91 72 bd 0c 0f 3d 3d 5a 98 c3 3d 66 15 4b bd
       -0.059220504 0.046156928 0.09550543 -0.049580954
0000b0 f4 2e e0 bd bd 54 41 3c 4b ad 7b bd 39 81 92 3d
       -0.109464556 0.011799988 -0.061444562 0.071535535
0000c0 26 37 4e 3c cb 00 7b 3d 13 48 51 bd 54 b7 93 bd
       0.012586391 0.061280053 -0.051094126 -0.072127014
0000d0 66 6a 09 3d ca b6 a9 bd 77 c6 19 3d b8 c8 39 bd
       0.033548735 -0.08286817 0.037542786 -0.045357436
0000e0 ef b5 bb 3b 61 c6 0d 3d 0a 8a 86 bd e7 c8 82 3a
       0.0057284753 0.034613017 -0.065692976 0.0009978086
0000f0 14 a6 8f 3d ce 67 e0 3d c1 2f 45 3c e5 12 52 bd
       0.07014099 0.10957299 0.012035311 -0.05128755
000100 87 f3 57 3e 3c 67 db bd d7 a7 7e bd 5e 07 14 3d
       0.21088992 -0.1071305 -0.062171783 0.03613984
000110 ce a2 84 3d 7d ee af bd 64 3c 01 3e d1 60 ff 3a
       0.06476365 -0.0859041 0.12620693 0.001948381
000120 51 a3 b4 bc 82 87 32 bd e4 83 52 bd 9b 09 fd bc
       -0.022050532 -0.04358626 -0.051395312 -0.03088837
000130 3a bf fc 3d 21 1b 92 3c 7b 42 65 bd 2c 03 b6 bd
       0.12341161 0.017835202 -0.055971604 -0.08887324
000140 07 10 26 3e d0 b4 b6 3d 5b ba c4 3d 95 96 c0 3c
       0.16217051 0.08921206 0.09605857 0.023509303
000150 f9 ad b2 bd 65 ed e6 bd ed df fd bc 3d d2 dc bd
       -0.08724589 -0.11275748 -0.030990565 -0.10782287
000160 91 2f 00 be a6 0a f1 3d ca 3a ca bd 34 2e a6 3c
       -0.12518145 0.11769609 -0.098744944 0.020285703
000170 62 fe 32 3d 8a 52 3f bd ec b5 35 bd 22 f2 2d 3d
       0.04369963 -0.046709575 -0.044362947 0.042467244
000180 6e f4 cc bd da 32 13 bd 45 b5 e9 bd de 42 7f 3d
       -0.10007559 -0.035937168 -0.114115275 0.06231963
000190 a2 70 fa 3c 61 51 d9 3d 57 46 af bc 46 49 d8 bc
       0.030571286 0.10611225 -0.021395845 -0.026402127
0001a0 70 b7 2f 3d df 75 fe 3b 56 b0 df 3c 3f 0d 0e bd
       0.04289955 0.007765516 0.027305763 -0.0346806
0001b0 7e 28 2a 3d d9 c2 af 3b b7 62 93 bd 74 95 16 bd
       0.041542523 0.005363804 -0.07196563 -0.036763623
0001c0 0f 45 31 3d b0 54 c3 bd c5 55 b3 bd 74 2a 16 bd
       0.04327875 -0.09537637 -0.087565936 -0.03666158
0001d0 a5 d6 dd bd fc b4 56 3d 92 de 9a 3d 0a 70 ae 3c
       -0.10831956 0.052418694 0.07561983 0.021293659
0001e0 7b e2 ae 3d 99 13 7d bd 27 2c ee bd 77 b2 3e 3d
       0.085392915 -0.061786268 -0.11629515 0.046556916
0001f0 d8 20 2a 3e 9d 4e 82 bd 0a 1a be bd 25 cf 25 bc
       0.16614091 -0.063626505 -0.0928231 -0.010120188

fc.weight f4 [3, 128]
000000 91 f4 4b bd bb 2c ca 3d 8d 33 f9 bc 0e df e0 3d
       -0.049793784 0.09871813 -0.03042009 0.10980044
000010 ec ad a9 bc 4f 97 30 3c 9b b2 7c bd 79 fd 2c 3d
       -0.020712815 0.010778262 -0.06169377 0.042233918
000020 33 6e d0 bd a9 c1 e4 3b ca 9c 29 3d 19 2a 8c 3d
       -0.10177269 0.006981094 0.04140929 0.06843967
000030 77 63 a9 bd 8b 07 a6 3d 8a 79 09 bd 94 09 3d 3d
       -0.082709245 0.081069075 -0.033563174 0.046151713
000040 66 24 16 3c 05 5a a3 bd 8f 0f 87 bd 22 01 4b bd
       0.0091639515 -0.07976154 -0.065947644 -0.049561627
000050 f6 bd f7 bd 5a ff c3 3d 37 56 c8 3d 7a c8 38 3d
       -0.12096779 0.09570189 0.09782069 0.045113064
000060 c6 e4 e7 3c fb 17 43 bd fe 7a b0 bb 1a f6 95 3d
       0.02830733 -0.04763029 -0.0053857556 0.07322331
000070 62 67 81 bd be ce 43 bd f9 dc 2e 3d c9 c2 ea bd
       -0.06318547 -0.047804587 0.042691205 -0.114629336
000080 b2 4b d2 3d 41 0c c8 3d 18 62 af bd 50 29 ee 3c
       0.10268344 0.09767962 -0.08563632 0.029072434
000090 2b c2 0e 3d 74 35 76 3d 9f 7d 0c 3d 59 48 d6 3d
       0.03485314 0.06010957 0.03429949 0.10463018
0000a0 21 e7 d8 bd 79 c7 91 bd 04 1d 88 bc 99 c3 07 3e
       -0.10590959 -0.071181245 -0.016615398 0.13258208
0000b0 e8 42 98 ba ce 9e 8e 3c be a1 a3 3a c1 00 11 bd
       -0.0011616619 0.017409708 0.0012484116 -0.03540111
0000c0 48 16 1e bd cd 37 90 3d ab ae e1 3d 0c 36 56 bc
       -0.038595468 0.07041893 0.110196434 -0.013074409
0000d0 d4 08 68 3d f5 94 8a bd 30 66 04 3d 02 0e a2 3d
       0.056649044 -0.067666925 0.032324016 0.07912828
0000e0 ac a1 c1 3d 1a ae ad bd e8 b2 b2 3d 45 39 f7 bc
       0.094546646 -0.08480473 0.0872553 -0.030178675
0000f0 0b d5 96 3a 98 75 d9 3d e0 96 08 3e 2e ac f9 bd
       0.0011507584 0.10618132 0.13338804 -0.12191044
000100 a9 1b 21 3e 70 fc 96 bd 50 7c f5 bd 63 fe 02 3c
       0.15733208 -0.073723674 -0.11986601 0.007995221
000110 55 eb 8e 3d 23 9f a2 bd a5 d0 ad 3d cb af 8c 3d
       0.0697848 -0.07940509 0.084870614 0.06869467
000120 41 7a 7d bd d2 31 c1 3d 93 07 55 bd f6 c6 c7 bd
       -0.06188417 0.094333306 -0.052009176 -0.09754746
000130 a0 f5 94 3d 66 3e 11 3e 8d 0b f8 bd 94 5a d2 bd
       0.07273412 0.1418396 -0.12111578 -0.10271183
000140 a1 fc b1 3d a4 67 98 bd 5f d0 ec bc 20 4f aa 3d
       0.08690763 -0.07441643 -0.028907953 0.08315873
000150 c2 9b bd bd 32 38 a1 bd 65 8c a2 3d cd 1a e3 bc
       -0.09258224 -0.078720465 0.079369344 -0.02772274
000160 e1 b0 d4 bc 13 aa 5e bd 6c 89 e3 bd 69 29 af bd
       -0.025963249 -0.054361414 -0.111101955 -0.0855282
000170 60 d3 ba 3d b5 77 a2 bd 77 ee ba 3c 25 29 81 3d
       0.09122348 -0.079329886 0.022818787 0.06306676
000180 19 68 58 bd f9 1c d7 bd 54 de c5 bd 3f 31 e4 3d
       -0.05283365 -0.10503573 -0.09661546 0.111422054
000190 63 15 fe bc 64 6c b7 3d 2c e7 ba 3d ab 2d 24 3e
       -0.031016057 0.08956221 0.09126124 0.16033046
0001a0 70 56 07 3e a3 99 1e bd 30 0c a7 bd 54 ef 49 3b
       0.13216567 -0.03872074 -0.081566215 0.0030812817
0001b0 63 5b 29 3e 73 52 43 3d 04 67 11 be 73 bd 8b 3d
       0.16538768 0.04768605 -0.14199454 0.06823244
0001c0 55 e3 35 3c 6a 7f 36 bd b2 8b cb bd 68 2e 9c bd
       0.011101563 -0.044555105 -0.09938754 -0.07626039
0001d0 34 2a 42 be 3b 0b c8 bd da a8 e8 3d d2 93 0b 3c
       -0.18961412 -0.09767767 0.11360331 0.00851913
0001e0 dd e4 57 3d 4e 70 5d 3d a0 bb d8 bd 61 fb 12 3d
       0.052708495 0.05406218 -0.10582662 0.035884265
0001f0 45 b7 e7 3d fd 95 ab bd 3f 6a f8 3c c2 12 12 be
       0.11314253 -0.08378217 0.0303241 -0.14264968
000200 85 50 6d bc 95 d5 2f bd 95 fe 35 3e 4f a9 3a 3d
       -0.014484529 -0.042928297 0.17772897 0.04557162
000210 0b 60 18 3e bc 96 b5 bc c1 92 a9 3d 69 ed ee 3c
       0.14880387 -0.022166602 0.08279944 0.02916594
000220 bc 37 cf 3d 4c 52 1e be 2c 6f 04 be 1a 4e d3 bd
       0.10118052 -0.15461081 -0.12933034 -0.10317631
000230 36 e5 1e 3c e8 d0 8c bd 45 f9 36 3d 8f 43 63 be
       0.009698203 -0.06875783 0.044671316 -0.2219374
000240 b1 fa 0b bd 21 c5 29 bc 6a 1f 0b 3d 7c a3 d5 3a
       -0.034174625 -0.010361941 0.033965506 0.0016299332
000250 e6 83 bf 3d 66 50 d9 bd ee 09 86 bd a8 56 e1 bd
       0.093513295 -0.10611038 -0.06544863 -0.110028565
000260 35 13 db 3d a5 92 8a 3d ec 92 de 3d e6 7e 7d bd
       0.10697023 0.067662515 0.10867867 -0.061888598
000270 c9 2d 70 bc 9d 5b ad bc e7 44 e3 bd 2d fc 82 3d
       -0.0146593535 -0.021161849 -0.110971265 0.06395755
000280 63 49 fe bd 92 04 88 3c a3 aa b5 3d b1 f7 c8 bd
       -0.12416341 0.016603742 0.08870437 -0.098128684
000290 90 bd 32 38 9a e2 63 bd a8 5d 59 bd d3 72 50 bd
       4.261505e-05 -0.055636026 -0.053067833 -0.050890755
0002a0 c7 83 e5 3d 5e 4a bd bc 46 26 db bc 94 03 85 bd
       0.11206775 -0.02310675 -0.026751649 -0.06494823
0002b0 0e b5 35 3c f0 1a 90 bc 7d 5f 48 bc 92 9c ff 3d
       0.01109053 -0.01759097 -0.012229797 0.12481035
0002c0 1d 40 3f 3e 3d 95 30 bd 45 94 0a 3d 8c ed 09 bd
       0.18676801 -0.043111075 0.033832807 -0.033673808
0002d0 2e 2a 2b be 98 d7 46 bd 58 39 c4 bd 86 1e 8d bd
       -0.16715309 -0.04854545 -0.0958125 -0.068905875
0002e0 92 c1 84 bd b6 2b 25 3e f8 ac 4c bd 32 d5 bf bd
       -0.06482233 0.16129956 -0.049969643 -0.09366836
0002f0 c1 14 a1 bb 4f 03 32 be bb 7a 47 bc cc ad 8d 3d
       -0.004915804 -0.17384075 -0.012175257 0.06917915
000300 26 29 a8 bd 4b 5a ec 3d 3f d1 a2 3d a7 b5 c7 3d
       -0.082109734 0.115406595 0.07950067 0.09751444
000310 7f 1d 07 bd 37 07 b3 3d 73 1d 9c bc e7 53 cc 3d
       -0.032987114 0.087416105 -0.019057011 0.099769406
000320 b8 d9 bc 3d 7c 08 84 bd 02 af 2b 3d fe 84 b1 bd
       0.09221214 -0.06446931 0.041914947 -0.08667944
000330 49 fb ec bc ba ed 89 bc 32 78 d2 bd 26 c0 e5 3c
       -0.028928416 -0.01683699 -0.10276832 0.028045725
000340 ea 7d 89 bd 74 34 07 3e a9 45 c7 bd 1a 04 26 bd
       -0.06713469 0.13203603 -0.097300835 -0.040531255
000350 81 a9 fc 3d 5d e9 fc bc 2a 96 b0 3a 78 fc f1 bd
       0.12337018 -0.030872995 0.0013472487 -0.11815733
000360 49 29 16 3e dd 50 3e bd 0b 3f 88 3c 30 34 ca 3d
       0.14664187 -0.046463836 0.016631624 0.09873235
000370 67 36 b7 3d ce 3b 5b 3e 71 72 68 bd cd 35 67 3d
       0.08945923 0.21409532 -0.056749765 0.056447793
000380 c4 59 c9 3c 50 ae d1 bd 85 50 90 3d 7f ce c9 bd
       0.024578936 -0.102383256 0.07046608 -0.09853839
000390 c3 22 c1 3d ee fc f4 bc 8d e9 96 3d df af 20 be
       0.094304584 -0.029905763 0.07368765 -0.1569209
0003a0 50 f2 6e bd 95 ad 4f 3e 66 16 c4 bd 19 72 ed bd
       -0.058336556 0.2028106 -0.09574585 -0.11594028
0003b0 1e 4f 09 be e6 13 91 3d 7a 2f aa 3d 66 cb d6 3d
       -0.13409087 0.070838735 0.08309837 0.10488014
0003c0 07 28 e3 bc 6f 74 b0 3c bb 4a 88 3d 4b 59 ca 3d
       -0.027729047 0.021539895 0.06654879 0.098803125
0003d0 ef ca 7f 3d 3e 88 ac bd c0 2d 13 3d 1d 9b 00 be
       0.062449392 -0.08424424 0.035932302 -0.12559171
0003e0 4d bf dd bd 80 fa 6f bd d5 90 94 3d d7 0b af bd
       -0.10827503 -0.058588505 0.07254187 -0.0854718
0003f0 a8 bf 25 3d c7 51 c1 bd 9d 34 78 3a 1f 25 1c 3d
       0.04046598 -0.09439426 0.0009468289 0.03812134

fc.bias f4 [3]
000000 6e 72 d8 3d 0d 31 9d 3c be 49 eb 3c
       0.10568701 0.019188428 0.028721686
