Assignment_2/Task1/RNN_GloVe.pth (torch, 255060 bytes, 10 tensors)

rnn.weight_ih_l0 f4 [128, 100]
00000000: 7003 a13d 2792 9d3c ce95 883d 56c4 a23d
00000010: ffd1 4abd 674c 94bb e4a6 833b 1067 2c3e
00000020: 7a81 cfbb 5ac5 b43d d1f9 4a3e d7c2 133e
00000030: 4551 063e 70c8 b4bd 4a3b b13d 49be 99bd
00000040: ac0d a4bd cf3f ee3c d80b 3b3d 5cc0 c03d
00000050: de55 03bd ab11 9d3d e1a9 963b c3fd eabd
00000060: 4c89 65bd e37e 91bc 2f94 50bd eaef 593d
00000070: b351 323d 1188 71bd bc8e 73bd ba23 d23d
00000080: 97a9 8f3c 4fd0 dd3b 42a3 1c3e 384e 6d3d
00000090: 1293 39be 9d02 1fbd d7a8 1cbe b263 bb3c
000000a0: 49d1 ee3d 3115 73bd 2c09 a33c 05e7 3a3c
000000b0: 4672 e0bd 775c 8dbc 6deb 353e 14d6 f33d
000000c0: 4252 2b3d bf3e 2ebd 598f 20bd 21a6 3ebd
000000d0: 9be9 ccbd 19bc 603d f6fd 613d 3a13 bcbd
000000e0: 156b f23d 03c4 2b3d be77 923d f971 313d
000000f0: ed6c c63b a53d 93bd 04cd a03d 62df b7bd
00000100: 6137 883b 1f19 83bd e277 87bd fe56 793d
00000110: 618e 3ebe c69f 81bd 1834 90bd 1c50 0bbe
00000120: eef6 ae3d f88f ac3c 8a17 92bd 6d80 ff3b
00000130: 824f 683d aa5c 41bd b2b1 e83b c387 1abe
00000140: 1fcb 94bd dc00 413d c966 bbbd c80f 01bd
00000150: 42f2 0f3d ac05 1abe 25ef 913c 7d42 da3c
00000160: 4d1a b8bd e47d ea3c 2cc7 26be e809 5f3d
00000170: 5139 e03d a707 993d 8628 963b 7a47 063d
00000180: 0b9b 773d 73f0 3ebc 19a3 23bd 9618 413d
00000190: 03bc 2abd 09c8 f3bd 32ae 473d db71 16bc
000001a0: 76dd a83d 5faa 68bd 677b 95bd d5ac 25bd
000001b0: b005 173c 7296 84bc 1be8 9bbc 5a4b e8bb
000001c0: c46f 0f3d d367 8cbd 6072 0bbc 35bf 073c
000001d0: 793b cdbd ad27 6abc 8ced 17be f24c dc3d
000001e0: 8f72 593b c2fe b73d 2b81 483d 39a3 e4bd
000001f0: 4511 0cbe 4913 863d 7781 d73d 151b f2bc
00000200: 6a35 a3bd 12c2 a4bd b61d 323d 987a 48bd
00000210: 61cb d03d 83a0 21bd 4058 0ebd f5c0 b53d
00000220: fee9 0b3c fbb5 533d 2400 4cbc 8649 91bd
00000230: 1ca6 6dbd b6fc 6ebc 4428 7cbd 6e1f d1bd
00000240: fc03 d2bd 19c0 1dbd 6e6f 833d 94ea 03be
00000250: 0f83 cabc bbd0 883d e4d7 0c3e 8681 0cbe
00000260: 047a 31bc 4749 e23d 0d03 e93d da36 8c3d
00000270: 430a 3abe c2eb 19be 38b3 ed3d 5de8 913c
00000280: 0b57 1e3e 654b 29be bb00 3b3d d775 afbd
00000290: 85b0 88bd ce83 82bd 77d1 f93c dee3 f83c
000002a0: 28a4 383d edf4 293d 5fcd 9c3c 6f50 11bd
000002b0: 9e54 923c d277 913c 334f b8bd bd35 37bd
000002c0: 3015 2b3d 5382 aa3c 1bcc 75bd 6379 d93d
000002d0: 1272 3fbe 4337 8dbd f50f c4bd 622c 91bd
000002e0: 0926 c63d f3f7 d6bd abc7 44be 45df f2bc
000002f0: 417e d3bb 1dba d93c abdc 663d f2af f0bd
00000300: 1932 323d f307 cebd 5829 f3b9 fb71 b5bd
00000310: 31c6 543d f498 8a3d 19b3 a83d 2394 903d
00000320: a1e5 e33b 54f7 3cbd 81e0 2c3d 8ca8 a2bd
00000330: 3cb3 ce3c 4c6a b43c c435 69bd 7dec 923d
00000340: 32d4 aa3d 3ae1 41bb 6ca7 853e cae1 60bd
00000350: 9891 203e 37ee 813d 848f df3d 3fd9 2fbe
00000360: c38d b43d 478f fdbd 4544 6bbd 3b58 93bd
00000370: 74ca a13b 88ca c23d 9208 8fbd b75d 253e
00000380: b187 713c 0d33 a0bd 59b5 45be 2d65 a8bd
00000390: bad6 de3b a006 f93d fca0 7a3d 3a09 d13d
000003a0: 45b6 48bc bab5 e4bd aaf6 f63d a8cb 863d
000003b0: b600 69bd 0628 3dbd 5e7a 033e 6f6d 383e
000003c0: e8f9 b63d 9440 17bc fe8f 293e 5800 823d
000003d0: df92 7e3d 27ff b73d d45a b73d 6f1b c53d
000003e0: 99ff 363e 035d 083e a8fb 043e 830d dcbd
000003f0: 6eb4 633e 014c 273b e350 79bd d5b2 123c
0.07861984 0.01923473 0.06669198 0.07947604 -0.049516674 -0.0045257094 0.0040176976 0.1683619
-0.0063325735 0.08826704 0.1982186 0.14429794 0.1311694 -0.08827293 0.086538866 -0.07506997
-0.0801042 0.02908316 0.045665592 0.0941169 -0.03206431 0.076693855 0.004597888 -0.114741825
-0.05603914 -0.0177607 -0.05092257 0.053207316 0.043534946 -0.058967654 -0.059462294 0.102607206
0.017536921 0.006769217 0.15296653 0.057935923 -0.18122509 -0.03882085 -0.15298782 0.022874687
0.11661012 -0.05934638 0.019901834 0.011407618 -0.10959296 -0.017256005 0.17765589 0.119060665
0.041826494 -0.042540308 -0.039199207 -0.04654515 -0.10005494 0.054866884 0.055173837 -0.09183355
0.118368305 0.04193498 0.07151745 0.043321583 0.0060554654 -0.07189492 0.078516036 -0.08978154
0.0041569923 -0.06401276 -0.06614663 0.060873978 -0.18609 -0.063293025 -0.07041186 -0.13604778
0.08543192 0.021064743 -0.07133396 0.007797292 0.05671645 -0.047207512 0.007101261 -0.15090851
-0.07265305 0.04711996 -0.09150464 -0.03150919 0.035143144 -0.15041226 0.017814228 0.026643032
-0.089893915 0.028624482 -0.16286916 0.054452807 0.10948432 0.07472163 0.0045824675 0.03278301
0.060450595 -0.011654007 -0.039950464 0.047142588 -0.04168321 -0.11903388 0.04875011 -0.009182419
0.08245365 -0.056803104 -0.07298928 -0.04044803 0.009217665 -0.01618502 -0.019031575 -0.0070890607
0.035018697 -0.068557404 -0.008511156 0.008285333 -0.10021109 -0.014291686 -0.1483671 0.10756864
0.0033179855 0.08984138 0.04895131 -0.11163945 -0.13678463 0.06546647 0.1052274 -0.02955393
-0.07969172 -0.080448285 0.043485366 -0.04894504 0.101950414 -0.039459717 -0.03475213 0.08874694
0.008539675 0.051687222 -0.012451205 -0.070941016 -0.058019742 -0.014586618 -0.061561838 -0.10211073
-0.10254666 -0.038513277 0.06417738 -0.12882453 -0.024720697 0.06680437 0.1375423 -0.13721284
-0.010832313 0.11049133 0.11377535 0.068463996 -0.18167977 -0.1503134 0.11606449 0.017810995
0.15462892 -0.16532667 0.045654994 -0.08567398 -0.066742934 -0.06372796 0.030495388 0.030382093
0.045078427 0.041493345 0.019140897 -0.035477098 0.017862614 0.01775733 -0.08999481 -0.044728983
0.041768253 0.020814097 -0.060009103 0.10618856 -0.18695858 -0.06895306 -0.09573356 -0.070885435
0.096752234 -0.10496511 -0.19216792 -0.029647479 -0.0064542596 0.026578004 0.05636279 -0.11752309
0.043504808 -0.1006011 -0.00046379375 -0.08859631 0.051946823 0.06767455 0.08237285 0.07059505
0.006954864 -0.046134308 0.04220629 -0.07942304 0.02523195 0.022023343 -0.05693604 0.07174013
0.08341254 -0.0029583708 0.26104295 -0.05490283 0.1568054 0.06344264 0.10916045 -0.17172717
0.088161014 -0.123808436 -0.057438154 -0.07194563 0.0049374644 0.09511286 -0.069840565 0.1614903
0.014741824 -0.07822237 -0.1930746 -0.08222423 0.0068004997 0.12159467 0.061188683 0.10206838
-0.012250488 -0.11167474 0.12058766 0.06581813 -0.056885444 -0.046180747 0.12839648 0.18010496
0.089343846 -0.009231705 0.16558835 0.06347722 0.062151786 0.08984213 0.08952871 0.09624373
0.1787094 0.13316731 0.12986624 -0.10744765 0.22236797 0.002552748 -0.060868155 0.00895377

rnn.weight_hh_l0 f4 [128, 128]
00000000: d2c5 7bbd f6ad c1bd 4fae 1d3d a659 093b
00000010: 65c1 763d d1e5 8abd 66f2 e4bb f443 cdbd
00000020: acce f5bc 269f ef3c e1ea 7ebd a701 2cbd
00000030: 88b2 743d 6730 0abe 2d57 0b3c e579 893c
00000040: a85a aa3d e40f 20bd 4304 9a3d 9557 debd
00000050: f153 6abd c123 8d3d 2fea 0d3d 3db1 60bd
00000060: 72e0 d33d 986d 36bc f7e8 a03d 1862 8a3b
00000070: 8413 69bd 76c5 8dbd eaf7 db3d 4663 f23c
00000080: c9bc c73c c7a1 393c c947 1b3c 8cc5 b8bd
00000090: 88d3 c33d e878 773d 6191 09bd 2714 1d3c
000000a0: 7bde 84bd 24ca 43bd 822c a43d 397d afbd
000000b0: ec8e d539 8224 5dbd 5e92 83bc 84bf 22bd
000000c0: a279 78bd 0228 e53c c510 b0bd 5c82 febb
000000d0: 51d8 853d 0102 703d 8fda 0c3c e825 42bc
000000e0: 4896 5e3c fafd a83d 58ce 823d cf09 89bd
000000f0: 2a80 623c 9623 afbc c7e9 c33c 87ff 8fbd
00000100: 8b03 88bc f4d9 0ebb 0834 24bd bf71 143d
00000110: 0f5c 9d3c e13c f6bd d7fb f03d e5f4 87bc
00000120: 413a 353d fcd3 9d3c 4b79 193b 2062 633d
00000130: 38d5 60bd f765 d8bc 77f1 04be 8951 523d
00000140: 4232 ba3c 9280 2e3c 962e 96bd 3a10 b43c
00000150: 0f6c c4bd 0d52 8ebd 0dda 82bd dbf7 d2bc
00000160: 803c 95bd 7fe1 b0bd edf5 543d cddd 3b3d
00000170: 7374 4d3d b6a3 7d3d 2d5f b33d 6be3 733d
00000180: 8c81 853d eaef 2a3d 8df9 e93c e39f e2bd
00000190: 2862 a4bc a4b7 7dbc 3ade 16bd 00eb 1abd
000001a0: 0b93 1dbd e3c5 913d 86b4 b73d cddb 493d
000001b0: d6e2 91bd 5f54 d53d 2807 95bd 2f7a d03d
000001c0: c012 5a3d e002 36bc 6be2 d8bc 5be3 1cbd
000001d0: f78d 673c e005 97bd 1e81 fcbc 90ae 8c3c
000001e0: 05c6 983b e08a 23be 9b74 2abd ed7c bf3c
000001f0: d397 1f3d 1b82 e0bc 8d74 8cbc 0e78 c03c
00000200: f40d 103d 0e41 c13b ba15 083d c31c 3e3d
00000210: b1fb 893d 1191 de3c c81b 1a3d b612 753d
00000220: edd7 563e 13ea c33c 590a ca3d 3415 aabd
00000230: 36e6 bfbb a5ab 9ebd bd61 fa3d b44f 95bc
00000240: 553a 28bc 9060 0d3d a7da 053e 4ff2 e73c
00000250: b131 86bd 2cbf 64bd f6a6 41bd ed6b 72bd
00000260: 228e 313d 1af5 e2bb 6047 3c3d d546 8a3d
00000270: a8a5 ff38 67f4 f6bd 702e 2ebd bfce eebc
00000280: 5b9a 793d 7dd4 cabd 475e 0ebe 385c 343d
00000290: 2841 c83d c184 d23d 847d 5abd 89e1 643c
000002a0: 32ac c13d d024 693d 7111 c83d 657a d4bc
000002b0: 08e8 c63d 11d0 f0bd dd7a 28bd afe2 003d
000002c0: d0fe 563d e1f9 953d d8aa eebd a0fe 853d
000002d0: f35f d9bd 78d3 443d 01b4 ccbd 34e8 72bd
000002e0: 76aa ba3d 05d0 f4bc d201 c23d 24d1 a83c
000002f0: 6ce0 0dbd 0c10 8bbd 1d6e 8b3d 6818 87bd
00000300: 3294 88bd e941 9c3d 0509 dabd 2274 cabd
00000310: ea06 093d 31f8 113d c22c 11be 7e01 d7b9
00000320: 5657 bdbc a4d1 9fbc 0d91 75bd 64fd 123d
00000330: bce5 81bd 55ce 50bd 303d 023e 74ea c83d
00000340: 0949 af3d a230 19be d25e d9bd ab82 a63d
00000350: 7496 ce3a 6c79 48bd 53d9 0b3d 8404 aa3d
00000360: 9351 263e e49f 263c d489 c73d ce89 983d
00000370: 6e0f d13d 5f2d 503d 3c18 4e3d 7a31 0a3e
00000380: aa15 e33c f62e c03d 8cfa c63c 40bf 0dbc
00000390: 83bb e43d 4218 57bd 8e35 4cbd 87fe d03d
000003a0: 4ae3 a8bb fee6 f03c 3db7 d93d d88e d53c
000003b0: 6de5 5bbd 96ec 91bd 7aab d3bc cfb2 ae3b
000003c0: 0800 0dbe 5d2d aa3d c46c 8eba dbc2 173e
000003d0: 0f84 813d b66b f13c e9b7 803d 03f1 0339
000003e0: 8c42 5f3d 7bca aebc 556b 0abe 1238 2a3e
000003f0: 95cb 0a3e 8456 d63b 4836 803d 2e8d 873d
-0.061467953 -0.094570085 0.03849631 0.0020957976 0.06024303 -0.06782115 -0.006986904 -0.10022727
-0.030005775 0.029250693 -0.062235717 -0.041993763 0.059740573 -0.13495027 0.008504671 0.016781757
0.083180726 -0.039077654 0.07520344 -0.10856549 -0.05720896 0.06891585 0.034647163 -0.054856528
0.10345544 -0.011134528 0.078569345 0.0042231195 -0.056903377 -0.06922428 0.10740645 0.029588353
0.024382012 0.011330075 0.009477564 -0.09022054 0.09561831 0.06041804 -0.03358591 0.009587324
-0.06487747 -0.0478002 0.08016302 -0.08568806 0.0004073301 -0.053989895 -0.016061004 -0.039733425
-0.060662873 0.027973179 -0.085969485 -0.007767005 0.065354 0.05859566 0.00859703 -0.011849858
0.0135856345 0.08251567 0.06387013 -0.06691324 0.013824502 -0.021379273 0.023915185 -0.0703116
-0.016603252 -0.002179739 -0.040088683 0.03624129 0.019208936 -0.120233305 0.11766785 -0.016596267
0.04424501 0.019266121 0.0023418244 0.0555135 -0.05489084 -0.026415808 -0.12982737 0.05134729
0.022729043 0.010650771 -0.07333104 0.021980394 -0.09590923 -0.06949244 -0.06389246 -0.025752952
-0.0728693 -0.0863676 0.051992346 0.045865823 0.050159883 0.061923705 0.08758388 0.059543055
0.0651885 0.041732706 0.028561378 -0.11065652 -0.020066336 -0.015485678 -0.036833026 -0.03782177
-0.03847031 0.07117822 0.08969979 0.049281884 -0.07123344 0.10416483 -0.072767556 0.10179555
0.053240538 -0.011109084 -0.026475152 -0.03830276 0.014132968 -0.073741674 -0.030823287 0.017173082
0.0046622776 -0.15970945 -0.04161511 0.023374999 0.03896315 -0.02740579 -0.01714542 0.023494747
0.035169557 0.0058976477 0.033223845 0.046414148 0.067374595 0.027168782 0.03762415 0.059832297
0.20980807 0.023915326 0.09865255 -0.083048254 -0.0058563007 -0.07747582 0.12225673 -0.018226482
-0.010267814 0.034515917 0.1307169 0.028313784 -0.06552447 -0.05584638 -0.047278367 -0.059184957
0.04334844 -0.006926191 0.045966506 0.067517914 0.000121902034 -0.12058335 -0.042524755 -0.029151319
0.06093822 -0.0990381 -0.13903151 0.04403326 0.097780526 0.10279227 -0.053342357 0.013969787
0.09456672 0.056919873 0.09768952 -0.025937269 0.09712225 -0.117584355 -0.041132797 0.031466182
0.052489102 0.07323051 -0.116536796 0.065427065 -0.10614004 0.048053235 -0.099952705 -0.059303477
0.09114544 -0.029884348 0.094730034 0.020607539 -0.034637854 -0.0679017 0.06808112 -0.06596452
-0.06668891 0.07629759 -0.106462516 -0.09885432 0.03345386 0.035637084 -0.1417723 -0.00041009107
-0.023112934 -0.019509144 -0.059952784 0.035886183 -0.063426465 -0.050978024 0.12718654 0.098103434
0.08558852 -0.14959958 -0.10613789 0.08130392 0.0015761391 -0.048943922 0.034142803 0.083016425
0.16242056 0.010169957 0.097430855 0.07448159 0.10208021 0.05082452 0.05031608 0.13495436
0.027720291 0.09383957 0.024289392 -0.008651555 0.111685775 -0.05251337 -0.04985576 0.10204797
-0.005154048 0.02940702 0.10630653 0.02606909 -0.053685594 -0.07125203 -0.025838602 0.0053313742
-0.13769543 0.083094336 -0.0010866155 0.14820425 0.06324016 0.029470306 0.06285078 0.00012582917
0.054506823 -0.021336785 -0.13517506 0.16622952 0.13554223 0.006541075 0.06260353 0.06618725

rnn.bias_ih_l0 f4 [128]
00000000: 4182 7d3d 6aa8 393d 7479 eabc 99c9 aa3d
00000010: 4362 793c 4b37 45bb e1a4 50bc dd94 f03c
00000020: 3b3a 4e3d 65e1 043e 4f1f 5a3d 838c 88bc
00000030: 4708 85bd dccf c0bd afc0 91ba 3e73 8fbd
00000040: 47c6 043e 1663 7b3d a12a e0bd 021f 113d
00000050: 4e19 523d aa71 c73d 1ec1 9b3d b8ae e13c
00000060: 539b 8fbd 22d5 e0bd f9a7 95bc 4f54 bcbd
00000070: 9574 81bc 29af 023d 867e 2bbe d708 8ebd
00000080: 0b7f 6cbd 3de8 38bd daa5 ca3d 4931 40bd
00000090: d42c 953d d836 d0bc 9713 3abd 3c31 b1bc
000000a0: 4830 eebd 1301 90bd a8ba 0738 0c0c eebb
000000b0: 6c67 2abd bc49 d13d 5d82 fe3d f84b 863c
000000c0: fa7d 073c 5d9c 6b3d f396 34bd 58da b43d
000000d0: 3595 df3c 92d9 16bd a34d 393d 532a 533c
000000e0: cfc1 d83c 9ff5 733d 461f 92bd 96b5 d83c
000000f0: 7c7d 9e3c 75bd 12be 50f8 2fbe 1c4b 7bbc
00000100: 3847 e0bd e414 aebd 51ef ce3c 7a08 c5bd
00000110: 34b2 d23d cae7 2ebc 96cd 8abe 2e81 d7bc
00000120: 085e d2bc 61d2 a73c 2369 bf3c 8e54 183d
00000130: 5af6 753b 0b0c 303e c016 59bd f97a 0d3d
00000140: e343 c23c c1f5 82bc 4149 1bbe 60b9 38bd
00000150: 4cee 8c3b ad6e 41bc 6176 20be f61e 463d
00000160: dba9 e1bd aa51 3a3c a2e1 b13d 390a 7bbd
00000170: a301 a9bc 196f 173d 5172 57be fdf5 373d
00000180: 50d1 d3bc f547 ea3d 1a2e b23d c82e 52b9
00000190: b5ed b0be 37c1 af3d 7052 88bb 2b7f 6f3d
000001a0: 9042 813d d4b9 c03c a3b5 c73d b894 2cbe
000001b0: 503c cc3d 2b4c 4c3d 531a f4bc 160f d13d
000001c0: 6a4a 0fbd 8cba 7c3d 8d79 a0bd 01cc aebd
000001d0: e4fb afbd 15ae 523b 666f 78bd 7361 e9bd
000001e0: 0e38 8dbd 7bb8 d53c c8a8 85bd f0e2 ddbd
000001f0: 0e73 a9bd 9696 403d 7f85 733d 2260 9d3d
0.061891798 0.045326628 -0.028622366 0.08339233 0.015221181 -0.0030092772 -0.012734623 0.029367859
0.0503485 0.12976606 0.053252514 -0.016668564 -0.064957194 -0.09414646 -0.0011120046 -0.070044026
0.12966262 0.061373793 -0.10945631 0.035429962 0.051293664 0.097384766 0.076051936 0.027549133
-0.070120476 -0.10978152 -0.018268572 -0.09195768 -0.015802661 0.031905327 -0.16747484 -0.0693528
-0.057738345 -0.045143355 0.09894915 -0.046922002 0.07283941 -0.025416777 -0.04542884 -0.021629922
-0.11630303 -0.07031455 3.2360345e-05 -0.0072646197 -0.041602537 0.10219142 0.124272086 0.016393647
0.008269781 0.057522167 -0.04408927 0.08830708 0.027292827 -0.036828585 0.045240056 0.012888509
0.026459603 0.059560414 -0.07134871 0.026453774 0.019346945 -0.14330085 -0.17184567 -0.015337732
-0.10951084 -0.08500078 0.0252606 -0.096207574 0.10287896 -0.01067538 -0.27109975 -0.026306715
-0.025679603 0.020486059 0.023365563 0.037190013 0.003753087 0.17192094 -0.05300021 0.034541104
0.023714012 -0.015986325 -0.15164663 -0.045098662 0.004300868 -0.011806172 -0.15670158 0.04836937
-0.110187255 0.011372009 0.08685614 -0.061289046 -0.020630663 0.036971185 -0.21039702 0.044912327
-0.025856644 0.11439506 0.087001994 -0.00020044588 -0.34556356 0.08581775 -0.004160218 0.058470886
0.06311524 0.02352611 0.09751441 -0.16853607 0.09972441 0.049877327 -0.029797709 0.102079555
-0.034983076 0.061701342 -0.07835684 -0.085350044 -0.08592966 0.0032147218 -0.060653113 -0.1139554
-0.06895457 0.026088944 -0.06526333 -0.108343005 -0.08273898 0.04701861 0.059453484 0.076843515

rnn.bias_hh_l0 f4 [128]
00000000: 44a5 2c3d 9c8a be3d 8a3a c83d 218c 363e
00000010: f560 643d da7b 3dbc 1b69 ee3d eb41 d23b
00000020: b73c babd c9d4 023e 83f8 6f3d 093d 053c
00000030: 9ccc eabd b232 adbd 00c9 0dbc a041 0bbe
00000040: ec0a b73d 36a0 7c3d 8c20 bbbd 96f9 af3d
00000050: 9c1b c9bc ba4b 46bc 8d37 883d 3b19 2f3d
00000060: d646 c5bd 53ee 11be 103e f63c 07bf e0bc
00000070: 3a7d 0ebd 2582 c73c 4047 5cbd 7f96 5f3d
00000080: faf6 8b3d a67b 9c3d 9234 763b 7665 7c3d
00000090: 526c 62bc b29f c83d ffad db3c 987f 7cbd
000000a0: fc17 f5bd 42e1 8b3d 7e46 a23b 71c1 b1bd
000000b0: 2a11 033d 2561 073d dfe6 ac3d 9c41 813d
000000c0: 3294 88bd 07e4 e2bd 51ae 003d 69ea d93d
000000d0: 8df9 b3bd b1d0 31bd b514 1a3e 0ee0 d9bd
000000e0: 8c62 3e3c 8351 52bd 778c 2bbc bf52 443c
000000f0: 6a7d 993a e469 67bd ec4b 01be a6fa b63c
00000100: c4a1 e9bd 1388 cebd 6113 debd ef55 843c
00000110: 3f6f 683d 61f1 85bd a923 60be 618b 423c
00000120: 9fb9 c43c 5a5e 7dbd f261 313e 3f80 413d
00000130: f32f a7bd b7a7 4d3e 6db0 65bc 28b8 22bd
00000140: b627 b2bd e771 5cbd 74ce 80bd a225 57bb
00000150: 85ca 0cbd f6e0 733d c555 f2bd 6f10 9cbd
00000160: 6042 98bd 5a89 173d 3278 63bd b9a7 80bd
00000170: b0f9 d0bd 2aaa a13b b052 12be df62 bebd
00000180: 1105 debc d48a e8bc e606 913d 4e4e f33d
00000190: 838f b6be 953b b2bc 3c51 0fbd 0449 893d
000001a0: f3c9 5a3d b090 af3b 3bb9 333c f002 61bd
000001b0: 3224 ce3d d7af 9e3d fc29 a53b 522e 303d
000001c0: e630 cabc 9cf4 623d 1c8a a1bd 5d5e ecbc
000001d0: 509a afbd 4af6 73bd f221 953b c470 753c
000001e0: a64a e9bd d216 c63d 1543 eebc d653 dcbd
000001f0: 609e 053d 0983 903d 7a31 8e3d 0d28 dc3d
0.042149797 0.093037814 0.097767904 0.17826892 0.055756528 -0.011565173 0.11641141 0.0064165494
-0.09093612 0.12776484 0.05858661 0.008132228 -0.114648074 -0.08456935 -0.008653879 -0.13599253
0.0893763 0.061676227 -0.09137067 0.085925266 -0.024549298 -0.012103016 0.066512205 0.04274867
-0.096326515 -0.1425107 0.03005889 -0.027434839 -0.034787394 0.02435405 -0.053778887 0.054586884
0.068342164 0.076407716 0.0037567955 0.0616202 -0.013819771 0.097960845 0.026816366 -0.06164512
-0.11967465 0.06830074 0.004952251 -0.08679474 0.03199879 0.03305163 0.08442473 0.06311342
-0.06668891 -0.11078649 0.03141624 0.10640413 -0.087878324 -0.043411914 0.15046962 -0.10638438
0.011620175 -0.051347267 -0.010470501 0.011982619 0.001171035 -0.05649747 -0.12626618 0.022336315
-0.114078075 -0.10084548 -0.1084354 0.016154258 0.056746718 -0.0654018 -0.21888603 0.011874051
0.024014292 -0.06185756 0.1732252 0.047241446 -0.081634425 0.2008351 -0.014019114 -0.039726406
-0.086989805 -0.053819563 -0.06289378 -0.0032828827 -0.034372825 0.05954071 -0.118327655 -0.07620322
-0.07434535 0.036996223 -0.05553455 -0.062819906 -0.10203874 0.004933615 -0.14289355 -0.09296202
-0.027102025 -0.02838651 0.07081394 0.1188017 -0.35656366 -0.021756927 -0.03498958 0.0670338
0.05341525 0.0053578243 0.010969455 -0.054934442 0.100654975 0.077483825 0.0050404053 0.043012924
-0.02468152 0.05540906 -0.078876704 -0.02885359 -0.08574355 -0.05956105 0.0045511657 0.014980499
-0.11391191 0.096723214 -0.029084722 -0.10758178 0.03262174 0.07056243 0.06943031 0.107498266

rnn.weight_ih_l1 f4 [128, 128]
00000000: 124b 01bd 3641 0c3d 00c4 9cbd 8004 67bd
00000010: cb0e 313c 0cc7 e5bd a145 b03c 9a41 37bd
00000020: a537 dabd 42cd 5d3c e5c0 cfbd a3fd 853c
00000030: 5f28 033d de58 263b 8ed4 15bd c519 8a3d
00000040: 3649 2b3d 877a 343d b578 ad3d ab8a 44bc
00000050: 3521 50bd 6587 98bd 3dcf 943d 383d 133e
00000060: f09c 1ebe 59ab 913d 6686 c0bc 049c bebd
00000070: 98bd 0f3c 9be9 133c 9c11 8bbd 8983 0c3e
00000080: c405 c2bc 7d93 cabd 3a4c 863c b447 7abc
00000090: 1efa a4bd acec bebc 7b76 2ebd 42c8 e13c
000000a0: 9b46 b53c cf0a d03a 6369 73bd d6a0 4bbd
000000b0: d238 d5bd 4c0e d93c c7dc 363d 9344 a23c
000000c0: 1fd9 8b3c 6bf6 15bd e6f7 ffbc 6343 8e3d
000000d0: 785c 733d a0d2 413d a202 50bd a1b2 b4bc
000000e0: 3069 5abd 2376 943c 04b8 2d3b 44ac 903c
000000f0: 380e d7bc c387 06be 9378 49bd 36dc fd3d
00000100: fb52 84bd 6f11 88bd d57d 9abe 99b2 223e
00000110: f64c 7739 97cf f6bc 6c4d 07be f0d9 a5bd
00000120: 5e5f c9bc 5006 1e3b 57d2 4a3d 6ec5 d8bb
00000130: efce bdbd 1824 e0b9 5b72 0e3d bfbf d8bb
00000140: 2420 73bb 1ee7 61bd 8651 6dbd 5587 c73c
00000150: e782 993d 3111 21bd a6f7 2ebd d468 60bc
00000160: 0ca5 77bb 0840 c43c b96c 603d bc35 f7bc
00000170: 2273 9abc 1778 62bd 9403 c1bd 1301 573d
00000180: fd04 25bd 860e d5bd 6d61 29bd db95 27bd
00000190: be00 1abe 487e 9e3d 7af4 3a3e 9378 133e
000001a0: 2ebb ab3d 3900 c23d 45fa 3bbd f53e b6bd
000001b0: 5bbf 823d a5fe ec3b cb11 32bc d5ba 0c3e
000001c0: 30d8 8d3c ae59 bf3d 56a1 9dbd c8b1 213b
000001d0: 5ff9 5cbd dfb3 533c 8aae dbbd 5274 253e
000001e0: 9ea9 0cbe 376e 9b3d ceff 14be 8843 00be
000001f0: 5eff 92bb 48cc 293d 783b 86bd 349f ac3d
00000200: 48e2 40bd b6ce 963a 4292 673d daaf 293c
00000210: 3fee 13bc 0265 04be 2cf1 14ba 491d 67be
00000220: 1c42 8dbd e49a 00be 7e30 3cbd 0516 84bc
00000230: 13ae 493d 24dc b93d 6c64 5cbd 80d2 e13c
00000240: e504 1e3c 35ff bbbd aa42 9bbd dce6 20bd
00000250: 7224 b8bd aea2 ccbd edf5 613d 21e8 24bd
00000260: c855 17be 1931 9dbc f3b6 d13c 0bd8 e5bd
00000270: 54bc 4b39 5323 873d cc3f 5dbd d0f0 323d
00000280: 970f 613a 7916 abbd 7d87 08be ad29 963d
00000290: c9d3 293d 6846 7a3d cd3c d7bd 77fe 2fbd
000002a0: 8d0a 35bd a152 91bd 00ef b93d 24ff 36bd
000002b0: e04f f7bd 75df bbbd d945 383d 4ceb 80bd
000002c0: 01a1 133d cf65 b4ba e12d 923c 74ad 9bbd
000002d0: 1721 273d 9cc5 143d b3b9 96bd 354e a7bd
000002e0: f474 eabd e517 1cbd b1cb 073d ef3d b4bd
000002f0: 85bc 36be bff9 89bd d2d2 0ebd 39fc 133c
00000300: 36c9 37bd eca5 383d 2bf8 8ebe 7360 fc3d
00000310: 2f1c cdbd 6d0d 21be e880 12bd 6168 86bc
00000320: d85f 273d 6072 653d eb70 b4bd 6762 60bd
00000330: 0073 973d 1c75 67bd bd02 b83c 768c afbd
00000340: 1ae9 ccbd c6db 133c 1ec7 e13d f90d c7bd
00000350: b0b6 0bbd e046 8dbd 4ac7 893d 2981 fa3d
00000360: 033b 3fbc 6678 823d 63a7 cdbd 129d a4bc
00000370: 177a 4a3d ff90 c2bd 3f42 843d c62f 2bbe
00000380: 6c68 303c 5924 19be 141b ac3d a62e e9bc
00000390: 7995 16be 21a8 8f3d 3276 b33d 9289 c33d
000003a0: fa6e 0e3b d5d6 c9bb c2cc fabd eaf9 e03c
000003b0: 9211 613d 4cb1 1b3d 2b96 bb3d 0875 853d
000003c0: 631e 543c 6082 9c3c 9d2d 083e 9ec2 7e3c
000003d0: 1431 7abc 5b2e bd3d 4bac aebc e981 b23d
000003e0: ecc8 72bd ea1c 933d 0428 f6bc cab2 11be
000003f0: 034a c4bd 1793 fd3b fb56 dcbc 77f4 0ebb
-0.031565733 0.034241877 -0.076545715 -0.056400776 0.01080675 -0.11219606 0.021517577 -0.044740297
-0.106551446 0.013537707 -0.101442136 0.016356295 0.032020923 0.0025382559 -0.03657966 0.067431964
0.041817866 0.044062164 0.08470289 -0.011995952 -0.05081292 -0.074476995 0.0726609 0.14378822
-0.15489554 0.0711276 -0.023501586 -0.09307101 0.00877323 0.009027864 -0.06790468 0.13722052
-0.02368439 -0.098914124 0.01639377 -0.015275884 -0.080555186 -0.023306213 -0.04259346 0.02756131
0.022128394 0.0015872362 -0.059426676 -0.049713932 -0.10411228 0.026496075 0.044644143 0.01980809
0.017071305 -0.036611956 -0.031246137 0.06946447 0.059414357 0.04732001 -0.05078376 -0.022057833
-0.05332297 0.018122738 0.0026507387 0.017660268 -0.026251897 -0.13137726 -0.049187254 0.123955175
-0.0646114 -0.0664395 -0.30174127 0.15888442 0.00023584426 -0.030128283 -0.13213128 -0.08098209
-0.024581607 0.002411265 0.049517002 -0.0066153323 -0.09267985 -0.000427515 0.034777027 -0.006614655
-0.0037098015 -0.05515205 -0.057939075 0.024356524 0.07495671 -0.039323036 -0.042716645 -0.013696868
-0.0037787585 0.023956314 0.054791186 -0.03017699 -0.018853728 -0.055290308 -0.094245106 0.05249126
-0.04028796 -0.10403161 -0.041352678 -0.040914398 -0.15039346 0.0773893 0.18257323 0.14401464
0.08385311 0.09472699 -0.045892972 -0.08898727 0.063841544 0.0072325044 -0.0108685 0.13743146
0.017315 0.09343277 -0.07696788 0.0024672616 -0.053948756 0.012921303 -0.1072665 0.16157654
-0.13736579 0.07589381 -0.14550707 -0.12525761 -0.0044860085 0.041454583 -0.065543115 0.08428803
-0.0470908 0.0011505696 0.056535967 0.010356868 -0.00902897 -0.12929156 -0.00056816894 -0.22569765
-0.06897375 -0.12559086 -0.045944683 -0.016123781 0.049238276 0.090751916 -0.053806707 0.027566195
0.009644722 -0.09179536 -0.075810745 -0.039282665 -0.089913264 -0.09991966 0.055166174 -0.040260438
-0.14778817 -0.01918845 0.025599932 -0.112228476 0.00019429746 0.065985344 -0.05401592 0.043686688
0.0008585392 -0.08353896 -0.13332935 0.07332168 0.04146174 0.0611023 -0.10509644 -0.042967286
-0.044199515 -0.07095838 0.09078789 -0.044676915 -0.12075782 -0.091734804 0.044988487 -0.06294879
0.036042217 -0.0013763251 0.017844142 -0.07601443 0.04080304 0.036321267 -0.07359638 -0.08169214
-0.11448088 -0.038108725 0.03315324 -0.088008754 -0.17845352 -0.067370884 -0.034869023 0.009032303
-0.044869624 0.04508011 -0.27923712 0.12323084 -0.10015141 -0.15727778 -0.035767466 -0.016407194
0.040862888 0.05601728 -0.088106 -0.054781344 0.073949814 -0.05650817 0.022462243 -0.08571713
-0.10005398 0.009024566 0.11024307 -0.09719462 -0.03410977 -0.06898284 0.067274645 0.122316666
-0.011671784 0.063706204 -0.10041692 -0.020094428 0.04943284 -0.09500312 0.06457948 -0.16717443
0.010767084 -0.14955272 0.08403602 -0.028464627 -0.14705457 0.0701449 0.08762778 0.09547724
0.0021733628 -0.006159643 -0.12246086 0.027462918 0.054948397 0.03801088 0.09159502 0.065164626
0.012946698 0.019105136 0.1329865 0.01554933 -0.01527049 0.09237357 -0.02132239 0.08716185
-0.059273645 0.07183249 -0.030048378 -0.14228359 -0.09584429 0.0077384817 -0.026896944 -0.0021813193

rnn.weight_hh_l1 f4 [128, 128]
00000000: 0812 29bd c37b 66bd 11fc e43b 7c47 223d
00000010: f9ed c6bc d7d3 253d 1b4e 2cbc 3e98 863d
00000020: b772 07bd c949 103d ce0b cf3d 430b ac3c
00000030: 8345 9a3d 0ffb f0bc da87 5cbc a845 f5bc
00000040: ddc6 d1bc 7afd ed3a ab70 603b 271c a7bc
00000050: b106 71bc bcf3 543c a0a1 b23c 512f 56bd
00000060: bba5 8abd faab 1cbc de1a 9cbc 1d6a 4ebd
00000070: 1814 6bbd 828a 093e 0534 d13c 4be9 23bc
00000080: 8b59 233d baca b13d 766a 6b3c 4a8b c03d
00000090: d8cb 5c3c a301 703b b87a 37ba a9b8 923d
000000a0: e0ac b9bd ec3d a73c 525e 2a3c 1c1f 483b
000000b0: bcce 3e3d e727 cbbd 7693 3cbd bd1e 233d
000000c0: 780f 70bd 45f9 cabc bc0f c13d c8bd 1d3d
000000d0: 349e 453d ee5e b4bd ae55 84bd 3a0d a03c
000000e0: 3f1f ba3d 47ab 23bd ea60 083d 47ec a63d
000000f0: 2f26 8cbc 0c6c 033d 4e6b ee3c bc73 c03d
00000100: e6bb 463d 1873 8d3d f3f9 143d 2133 e33c
00000110: 3982 acbb 6d7e afbd b35f a8bc e880 15bd
00000120: 111f eb3c f182 0e3d db67 7dbc ab8d c83d
00000130: 74ca 3e3c 111e 673d 5335 c63d 2f98 93bd
00000140: 8e65 6c3b 706e e83c 7879 793d d7fb c0bb
00000150: cb54 893d 5f10 a03d 70ef 523c 8e20 1fbd
00000160: 2a89 81bd 2dfd 9c3d 1a4f 63bd ed8d d13d
00000170: 23ef f3bc 7325 b0bd 102f ec3d dcae c8bd
00000180: eb65 a5bd 6201 ee3d 7b77 933c 6079 c33c
00000190: b2bc 21bb 7c7e 4f3d 4c50 aebd 7473 d33c
000001a0: 3765 adbb 0cd3 f9bc 3645 34bd aedc a3bd
000001b0: ddea 51ba 9f35 f93d 80ba b53c f186 31bc
000001c0: 6aaa 63bd 9fb7 4dbd 7e63 fabc dd49 a6bd
000001d0: 0987 42bd 8d73 69bc b563 31bd a098 62bd
000001e0: 271a 4f3d 0282 1d3d 82a9 993d a4be d3bc
000001f0: 3999 d93c 968c 1d3d 7fee a13d 5d91 ce3b
00000200: 675c 5d3d f9e7 9ebd 36e3 55bd d030 0bbe
00000210: 34c5 1abd 0ff1 81bd b55b bf3b 8f3c 26bc
00000220: 3dae a2bd d295 0abe 6935 793d 9fa9 a8bc
00000230: 356b d83c 28ce 3b3c 3dbc 97bd 9ff2 963d
00000240: 08fe 903d 2ddd 75bd 290e e23c deee e93d
00000250: e26d 4c3c 6bcd b1bb f337 dbbc 6e40 c6bb
00000260: c8bf 99bd 2c7c 8e39 2fa6 54bd 2290 75bd
00000270: b435 593d 3a65 b53d c95f d83d 6c98 2dbe
00000280: f628 0c3c 610f a63c 4247 ab3d c090 a539
00000290: 89bc 933d 9de3 953b 040c 2abd 2c05 ca3d
000002a0: 411e 26bd 34d4 d63c 17be aebb fc86 14bd
000002b0: 9f7f e6bc 25ff 35bd 7c88 2c3d f3e3 a6bc
000002c0: 0b9d 103e 1a9e f7bd 3966 af3d 8d8e 273d
000002d0: 5e37 6a3d 9fb9 0ebd b23b 823d 57df b73d
000002e0: 093a 6a3d cb6c 76bd 049d 653d 25ef 98bd
000002f0: f620 c8bd 2935 a83c 830b 4a3d 1b14 6e3c
00000300: 468c 1d3d e8fb c53d 7421 e3bb b4d2 1dbd
00000310: 3b6f b73d 2673 1fbd 54f2 9dbd cac4 a2bd
00000320: 4de1 733c da19 65bd 2d2b e4bc 718b abbd
00000330: b07b 90bd d21a d7bc ab69 ce3c 5fd8 7b3d
00000340: 3d30 41bc 23fc 5a3d 86f9 173c 53f6 943d
00000350: fba1 cd3d 284b 03be 2e83 debc 15b8 f63d
00000360: cea2 e63c e61b 743d 1151 38bc 30b5 d6bc
00000370: f42a dbbd d9db 123d fcd5 76bb 0518 23bd
00000380: c609 33bd 2693 25bd 1f74 95bd bdd0 0c3d
00000390: 501d 3b3d 2e34 023e b0cd 193d 83c9 3cbd
000003a0: a3ec 34bd f36b 303d bc3d 833c 7142 233c
000003b0: a21e 86bd 9ec3 313d 931b 9c3d b7e8 61bc
000003c0: a933 c63d 1040 763c 31c6 0dbd 143f 773a
000003d0: d07b 0bbc 6232 e8bc 0f9e 193d d06f 903b
000003e0: 765e 733c c8dc 0e3d ebaa 623d 9f28 2cbd
000003f0: 08b2 253b 8383 913d cb5c 8b3d c4ac 1d3d
-0.04127696 -0.056270372 0.0069880565 0.039618954 -0.024283396 0.04048523 -0.010516669 0.06572007
-0.033068385 0.035226617 0.101096734 0.021001464 0.075327896 -0.029416589 -0.013460124 -0.029940441
-0.02560752 0.0018157207 0.0034246843 -0.020399166 -0.014711068 0.012997564 0.021805584 -0.05229122
-0.06769892 -0.009562487 -0.01905578 -0.050394166 -0.05739221 0.13431743 0.0255375 -0.010004352
0.039880317 0.08681245 0.014368644 0.09401567 0.0134763345 0.003662207 -0.00069991825 0.071641274
-0.090661764 0.020415269 0.010398464 0.003053612 0.046583876 -0.0991972 -0.046039067 0.039824236
-0.058608502 -0.024777064 0.09426829 0.038511068 0.048246577 -0.08807169 -0.064616546 0.019537557
0.09087991 -0.039958265 0.03329555 0.08150535 -0.017108051 0.032085463 0.029103901 0.093970746
0.048519038 0.06906718 0.036371183 0.027734341 -0.005264547 -0.08569036 -0.020553445 -0.036499888
0.028701337 0.034792844 -0.015466656 0.09792646 0.011644948 0.056425158 0.096781395 -0.07206761
0.0036071273 0.028372973 0.060906857 -0.0058893966 0.06705626 0.078156225 0.012874469 -0.038849406
-0.0632499 0.07665477 -0.05549536 0.10232148 -0.029777115 -0.08600893 0.11532414 -0.09798977
-0.0807608 0.116213575 0.018001309 0.023861587 -0.0024679122 0.050657734 -0.08511409 0.025811888
-0.0052916068 -0.030496143 -0.044011317 -0.08001076 -0.00080077146 0.121684305 0.022183657 -0.010835395
-0.05558244 -0.050223943 -0.03056502 -0.08119557 -0.04749206 -0.014248741 -0.04330798 -0.055321336
0.05056205 0.038454063 0.07503034 -0.02584774 0.02656232 0.03846415 0.07906818 0.0063039497
0.0540432 -0.07759089 -0.05221864 -0.13592839 -0.037785724 -0.063448064 0.0058397898 -0.010146274
-0.079433896 -0.13533714 0.06084195 -0.020588694 0.026418308 0.011462726 -0.074089505 0.07370495
0.070797026 -0.060025383 0.027594643 0.114225134 0.01247737 -0.005426099 -0.026760077 -0.006050161
-0.075072825 0.00027176866 -0.051916298 -0.05995191 0.05302973 0.08857198 0.105651446 -0.16952676
0.008554688 0.020271005 0.08363201 0.000315791 0.072136946 0.0045742528 -0.041515365 0.09864268
-0.040556196 0.026224233 -0.005332719 -0.036261544 -0.028137026 -0.044432778 0.04212235 -0.020372367
0.14122407 -0.12090702 0.08564419 0.04090743 0.05718171 -0.03484499 0.06359042 0.089781456
0.057184253 -0.060162347 0.056057945 -0.07467488 -0.09771912 0.020533161 0.049327385 0.014531161
0.038463853 0.09667188 -0.006931478 -0.03853102 0.089567624 -0.038928173 -0.07712236 -0.07947691
0.014885259 -0.055932857 -0.027852619 -0.08376206 -0.070548415 -0.026257906 0.02519687 0.061485644
-0.011791286 0.053463113 0.0092758 0.07273545 0.10040661 -0.12821639 -0.02716216 0.120468296
0.028153803 0.05959692 -0.0112497965 -0.026209444 -0.10701552 0.035854194 -0.0037664166 -0.03981783
-0.043710493 -0.040423535 -0.07297539 0.034378756 0.04568225 0.12715217 0.037549675 -0.046090614
-0.044170987 0.0430717 0.016020648 0.009964571 -0.065488115 0.043399446 0.07622447 -0.013788394
0.09677822 0.015029922 -0.03461284 0.00094317016 -0.008513406 -0.028344337 0.037504252 0.0044078603
0.014854064 0.034878522 0.05533878 -0.042030927 0.0025283117 0.07105162 0.06804808 0.03849484

rnn.bias_ih_l1 f4 [128]
00000000: 6670 55bc 8b9d 4cbd b148 913d 01c4 7a3d
00000010: bd43 aeba 6db8 07bd ed19 0bbe ce2d e7bc
00000020: 3b3f dd3d 90b9 263c 2b05 fbbc cc59 6d3d
00000030: 31bf 1f3d 1a9c f03c 94cc c8bc 0888 893b
00000040: a920 74bd baa7 4c3d 14c9 483d 48af 88bd
00000050: 885e d7bc 4a38 393d 72a7 3c3d 855c fb3d
00000060: 7763 18bd 0085 72bd 1dfd a43d d6d2 6a3d
00000070: e775 c5bd 3f3b 4abc 512f bbbd 0551 a8bd
00000080: ad01 743d d4e3 00bc 932e a3bc 83e7 7f3d
00000090: 32a3 a4bd 1431 35bd 247e 013b 4596 973d
000000a0: 1df2 c6bd a6b8 e53d 7597 1d3d acf8 8bbd
000000b0: 05a9 9abc 5bdb 843d 7efd 133d 2898 013b
000000c0: 8bd2 b1bd 0a38 b0bd 54e2 543d 7642 e1bd
000000d0: 7917 dabc 51fa 0abd 0559 8a3c d163 093c
000000e0: 8c22 e03d 5774 45bd c1b6 14bd 9c23 233c
000000f0: b089 18bd ddc8 01bd b970 273e 04b0 923c
00000100: 21a0 a0bd ad9c 2d3c be27 5c3d ee17 c7bd
00000110: 6bb5 5f3d cb7c a4bd f843 01bd 766a 173d
00000120: 340e 3b3d 579f bebd 0e99 2bbd 7443 cebd
00000130: 2ba3 96bb 1c39 c33d b364 ddbc 009d 89bd
00000140: 42bc cf3d 89e2 01be ef8b 8d3d 0ab2 e2bd
00000150: bcbe da3d fe6f c23d 8b0d 3dbd 63fd b2bc
00000160: f56c cdbd f9fc e03d 3737 e6bd c030 bf3d
00000170: a2cd 08bd dcf8 c43c a3e6 8d3d 54c1 b8bb
00000180: 7d4f 54bc aac5 633d e3f9 ce3d 547e a9bc
00000190: 3cb6 673c e762 c9bd 785f b6bd 1f8d 13be
000001a0: 9dfb d6bd a357 123e ae34 453d 7e58 e5bd
000001b0: 80d9 363d a870 b53a 2e0b 853d bc8e 8bbd
000001c0: 8e65 14be 2aaf 423e d018 273d 2d76 aebc
000001d0: bab9 adbd 4e76 f93d 6931 0a3c c89e 763d
000001e0: 1ca0 283d 41e5 32bd 788f 95bc 7165 9abb
000001f0: a0e3 0e3d 952e 83bd 389a a3bd c4d9 18bd
-0.013027286 -0.049954932 0.07093943 0.06122208 -0.0013295334 -0.033134867 -0.13584109 -0.028220084
0.10803076 0.0101760775 -0.030642113 0.057946965 0.039000694 0.02937131 -0.024511613 0.0041971244
-0.05960146 0.049964644 0.049019888 -0.06674057 -0.026290193 0.045219697 0.046058126 0.12273506
-0.037204232 -0.05920887 0.0805609 0.057329975 -0.09641629 -0.012343227 -0.09139884 -0.08218578
0.05957191 -0.007866818 -0.01991967 0.062476646 -0.080389395 -0.044236258 0.0019759024 0.074017085
-0.09714148 0.112168595 0.03847452 -0.0683454 -0.018879423 0.06487151 0.03613042 0.001977453
-0.08682736 -0.086044386 0.051973656 -0.109990045 -0.02662252 -0.033930127 0.016888151 0.0083856145
0.10944089 -0.048206653 -0.0363071 0.00995722 -0.037240684 -0.0316857 0.16351594 0.017906196
-0.07843042 0.010596436 0.05374884 -0.09721361 0.054616373 -0.08031615 -0.03155896 0.036966763
0.045667842 -0.093077354 -0.04189401 -0.100714594 -0.004597088 0.09532377 -0.027025556 -0.067193985
0.10143329 -0.12684073 0.06911456 -0.110691145 0.10680911 0.09494017 -0.046155494 -0.02184934
-0.100305475 0.10985751 -0.11241 0.0933547 -0.03339923 0.024044447 0.06928756 -0.005638281
-0.012958405 0.05560843 0.10106256 -0.02069012 0.014142569 -0.09833317 -0.08904928 -0.14409302
-0.1049721 0.14291243 0.048145942 -0.11198519 0.044641018 0.0013842778 0.06496273 -0.06814334
-0.14491865 0.19012132 0.040795147 -0.021296585 -0.0848269 0.12180768 0.008434632 0.06021002
0.041168317 -0.043675665 -0.018256888 -0.0047118 0.03488505 -0.06405369 -0.07988399 -0.037317052

rnn.bias_hh_l1 f4 [128]
00000000: 2dec 223a 540d 583d 69e0 82bc aaee 8ebd
00000010: df66 5ebd 38d7 c8bc e703 43bc 34a1 4ebc
00000020: 2eb8 463d 7beb f9bb cbc7 97bc d831 d13d
00000030: 886a c13b 0964 9d3d 56ed 4cbb 2094 5dbd
00000040: 1020 bb39 d022 663d bcaf 633d 49ee a4bd
00000050: 1567 1abd 3bfd a2bd d20d 10bc 07cc 01bd
00000060: f8fe cfbd dd6a 6a3d bf9e 83bd 5a50 a9bb
00000070: 685a 4f3d 1e65 b2bd 7e19 e0bd 36d3 a2bd
00000080: 17c6 a0bc 95f0 e13d 9791 58bd c8ee ec3d
00000090: df43 6fbc c6c3 eb3c 5dae 493c 3ea7 6dbd
000000a0: 31b7 b8bc 0959 3abc 557c 14bd 513f 73bd
000000b0: cc96 b5bd fe33 773d 864e 38bd 5c23 7ebd
000000c0: cb96 6a3d f49c e5bd b0f2 c4bd a21b dfbd
000000d0: de53 0d3e 57b2 3e3d d3b0 90bd 464d be3d
000000e0: 8127 3c3d a98d de3c c786 c2bc 481c ac3c
000000f0: 7472 9d3d 4629 6a3d 4b49 073e 1646 463d
00000100: ffbb e9bd b135 69bd cfd2 b4bc be43 27bc
00000110: 5631 a43c 5d54 7dbd fcab a13c 3b4d 063e
00000120: adb5 1a3d 78ae cbbd ca01 93bd cc3a 91bc
00000130: f1c2 c9bd 8838 c33d 8932 b23c 00a8 983d
00000140: 7313 ba3d 131b c3bd 7a3f 743d 6693 0c3d
00000150: a38a 813d 55b1 d33d 050c 03be 7d80 ad3d
00000160: c5b3 3abd 2f81 ad3d a654 423c e994 e43d
00000170: d253 3bbd 1dc8 f5bc f1ef c73d f88f d5bd
00000180: 1d5e 653d 8f7c b23d 4946 123d 52b6 f7bd
00000190: 3a24 62bd f3fa 50bd 7ae7 72bd 5c87 0cbe
000001a0: 5bc9 b8bd 2cfd 933d e420 263d 763e 11be
000001b0: e6da 3f3d 5549 0ebc 6e1b f43d 80cc 8fbd
000001c0: af2b 9dbd 1800 343d 021c e4bd 688d 97bd
000001d0: 6e94 b73a 8c9a 2a3d ce74 1cbd a38b 53bb
000001e0: a35d bbbc ad67 58bc 8f5a 7e3c 997f 6f3c
000001f0: ddf6 8c3d 8025 bfbc 08af 92bd 1106 633d
0.00062150025 0.052747086 -0.015976148 -0.06979115 -0.054297324 -0.024516687 -0.011902786 -0.012611676
0.04851549 -0.0076269484 -0.018527886 0.10214585 0.005902592 0.07685096 -0.0031269393 -0.05409634
0.00035691308 0.056185544 0.055587515 -0.08053262 -0.037695963 -0.07958456 -0.0087923575 -0.031688716
-0.10156053 0.05723082 -0.06426763 -0.0051670494 0.050623327 -0.08710693 -0.10942362 -0.079504415
-0.019625707 0.110322155 -0.05287322 0.115689814 -0.014603584 0.028779875 0.012309638 -0.058020823
-0.02254829 -0.011373767 -0.036251385 -0.059386555 -0.08866653 0.060352318 -0.04499676 -0.06204544
0.057272714 -0.11211577 -0.096166015 -0.108939424 0.13801524 0.046556797 -0.070649765 0.092920825
0.04593611 0.027167158 -0.023745907 0.02100958 0.07687846 0.057168268 0.13211553 0.048406683
-0.114128105 -0.05693597 -0.022073178 -0.010209022 0.020043056 -0.061848033 0.019735329 0.13115399
0.037770916 -0.09945387 -0.071780756 -0.017728232 -0.09851635 0.09532267 0.021752613 0.074539185
0.09085741 -0.09526648 0.05963085 0.034320258 0.06325271 0.10336558 -0.12797554 0.08471773
-0.045581598 0.084719054 0.011861002 0.11161215 -0.045734234 -0.030002648 0.09762562 -0.104278505
0.055997957 0.08715164 0.03571156 -0.12095322 -0.05521033 -0.051020574 -0.059302785 -0.1372351
-0.090227805 0.07226023 0.04055871 -0.14183983 0.046839617 -0.008684476 0.11919294 -0.07021427
-0.076743476 0.043945402 -0.111381546 -0.07400018 0.0014006027 0.041651294 -0.03819733 -0.0032279275
-0.022871798 -0.013208312 0.015524521 0.014617824 0.06883023 -0.023333311 -0.07162291 0.055425707

fc.weight f4 [3, 128]
00000000: fce4 a23d d97e 013d 7c03 1cbe 5aa9 b4bc
00000010: 5eba 4cbd 9731 1e3e e34c 6bbc 83c3 bd3d
00000020: b864 653d 2c39 34be eda6 9f3c 6005 c8bd
00000030: e866 22bd 6d4c f23d 41a1 dcbd c20a 013e
00000040: 7de2 b33c e201 153e 29e7 f13b 0366 86bd
00000050: 2824 6dbd 1073 34be cd01 c73d e491 8f3c
00000060: cfbd 693c 5f19 19be 3e3f 883b b79e 9f3d
00000070: 4774 3abe 4bed 25be bd39 5ebd eced 5e3d
00000080: 0029 16be 056c 493d 586d c53d 7699 d1bd
00000090: 30d2 c7bd 2d8e 823d 3cb8 c83d 325b 1a3e
000000a0: 7cdf febd f75e 21be f273 a33d d6af a93b
000000b0: dc48 4ebe 472d c0bd 5955 133e 9360 24be
000000c0: 793a 0c3d 2f8a 10be f57c 8abe cfc9 34be
000000d0: 909e 043e 97e1 dcbd b974 2abd e774 a73d
000000e0: 369b a83d 7573 af3d e565 4b3d dba3 8abd
000000f0: 42cc a33c d64e b53d 2a7c 74bb 2eb3 c3bd
00000100: 079f c4bd 0d1e 7fbc 30d8 31bc 1c9e 26bd
00000110: b919 03be 724e 37be 3964 1e3e 7658 a8bb
00000120: 216f 7d3e e1f1 32bd 1aac 193e 5c77 1f3d
00000130: 3571 ebbd 6067 193e b065 d2bd 83c7 6abc
00000140: aeaa 283e 545f 50bd 2aa7 333d 5ddf ee3d
00000150: dc36 9cbd 4d0a c83d 15a3 fe3c 6689 4f3e
00000160: f4fb 593d 0a34 2c3e 6ac4 d5bc eeac 6eba
00000170: d81e 763d 1d67 15be 31e1 57be b91e 8c3d
00000180: 60a5 a13d 0f08 913c be78 2bbe 6f78 89bd
00000190: d0ec c0bd 14ee b7bc 48d1 c43d 3a08 16be
000001a0: 01f7 283d 5d49 863d 5914 c63d 8cd7 9dbb
000001b0: 24b8 56bd 5956 d1bd 48e9 4b3d d95f 28be
000001c0: cb1f 3cbe cc4b cabc 6180 1c3d 3360 87bd
000001d0: df48 f63d b86a 973d 54d3 0dbe 0c19 36bc
000001e0: c264 03be 4ad3 043e ad81 e73d 65b0 023e
000001f0: fd5c c13d a8d0 103e d7ac 83bd 525e 183e
00000200: f0fd 08be ac9d c0bd e05d f33d cd50 2b3e
00000210: 10fa c43d 8032 44be c411 abbd 66c8 c5bd
00000220: 1b94 2bbd d6ad d83d ce73 833c e93e 3a3d
00000230: 748b 393e e29b 033d 9b81 133e 4b70 52bd
00000240: 114a fa3d 145a 24be f3dd 2d3e 3dca 353e
00000250: 2e29 bf3d d9a4 b03d 15dd 293d 516d fc3d
00000260: 9d48 46be 90b9 2ebd 75f7 573d 8314 45be
00000270: 0f18 29bd 5dee 123d 6c16 2f3e 3b38 3fbd
00000280: 5e4c c63d df93 1bbe e657 8dbd f2ac 50bb
00000290: 2ef6 1e3d fba4 26be 293d bbbd 1d88 f9bc
000002a0: 0b2c 233e a9f3 333e e2bd ad3d be52 bd3c
000002b0: 2b68 f13d 9f25 203c ed38 973d 0385 303e
000002c0: 988d 1dbd 9882 89bd e73e 473e 0b38 c73d
000002d0: b971 21bd 92c6 043d 0486 bcb7 cf2f edbd
000002e0: 96b2 82bc fe19 37bd 31f7 1abd 7398 273d
000002f0: c5fe 47be bff5 033e 7699 403e 889b d4bd
00000300: 8ce6 303e 722b cabd 81c4 35be 376e 303e
00000310: 1374 4dbd eb69 863d 52e9 ecbd 3fe7 4f3e
00000320: 2346 38be 4b5d d13d 505d 16be d353 efbd
00000330: 23b6 383e d9c0 30be eb81 1c3e abd2 333e
00000340: 6366 66bd c9b8 fe39 5f20 613d ef9d 3fbe
00000350: 7160 873d d319 f33d 6b4d 90bd 4651 f1bd
00000360: cd8e f9bd d164 99bd 030d e63d 1be5 e83d
00000370: de56 69bd 9bc4 953b 59f2 563e b5ad 20be
00000380: b70f 1f3e b5b0 d13c c567 403e b789 dabc
00000390: aed4 abbd 5129 1ebd 8f41 3abe b3c7 303d
000003a0: d24c 39bd a21b 543d 78df 39be a6a6 eabd
000003b0: 526e 53bc 9e24 4c3e adcb f03d 4523 0d3e
000003c0: 4fdd 373e 4bf9 363e 245b a63d a725 413e
000003d0: bb3f 5abe 388d 783d a183 bd3d 7534 653d
000003e0: c7a3 123e d4ed 37bd d5c2 f23d 7d60 63bd
000003f0: 03cb 65bd 735b 14be ffd8 dcbd 1647 88bd
0.079538316 0.031615112 -0.15235704 -0.02205341 -0.04998242 0.15448605 -0.014361593 0.092658065
0.056004256 -0.17599934 0.019488776 -0.0976665 -0.03964892 0.11830983 -0.10772944 0.1260176
0.021958584 0.145515 0.0073822928 -0.06562426 -0.05789581 -0.17622018 0.0971714 0.01752562
0.014266445 -0.14951085 0.0041579297 0.07793944 -0.18208419 -0.16203801 -0.054254282 0.05442612
-0.14664078 0.04917528 0.09639996 -0.102343485 -0.09756887 0.06374774 0.09800765 0.15073851
-0.1244497 -0.15758882 0.07981099 0.005178432 -0.20144981 -0.09383636 0.14388026 -0.16052465
0.03423545 -0.14115213 -0.2704846 -0.17655109 0.12951112 -0.10785215 -0.04161522 0.08176594
0.08232729 0.085669436 0.04965772 -0.06769534 0.019994859 0.088529274 -0.0037305453 -0.0955566
-0.096006446 -0.0155711295 -0.010854766 -0.04067813 -0.12802781 -0.17901018 0.1546792 -0.0051374985
0.24749424 -0.043687705 0.15007058 0.03893219 -0.11496202 0.1498084 -0.102733016 -0.014329794
0.16471359 -0.050872162 0.043860592 0.11663697 -0.07627651 0.0976759 0.031083623 0.20267257
0.053218797 0.16816726 -0.026094634 -0.0009104748 0.06008801 -0.14590116 -0.21081997 0.068417974
0.07892871 0.017704038 -0.16745278 -0.06712424 -0.094201684 -0.022452392 0.0961023 -0.14651576
0.041251186 0.06556962 0.0967185 -0.004816955 -0.052421704 -0.10221548 0.04978302 -0.16442813
-0.18371503 -0.024694346 0.03820837 -0.066101454 0.12025618 0.07393402 -0.13850147 -0.01111437
-0.12831405 0.12971225 0.113040306 0.12762602 0.09441564 0.14142096 -0.06429451 0.1487973
-0.1337812 -0.094050735 0.118831396 0.16730042 0.09618008 -0.19159889 -0.08352998 -0.096573636
-0.04188929 0.105800316 0.01604643 0.045470152 0.18119603 0.032131083 0.1440491 -0.051376622
0.12221158 -0.16049987 0.16979198 0.17752929 0.09334026 0.08625192 0.041470606 0.12325538
-0.19363637 -0.042657435 0.052726228 -0.19246106 -0.04128271 0.035871852 0.17098397 -0.046684485
0.09682535 -0.15193127 -0.06901531 -0.0031841365 0.038808994 -0.16273873 -0.09142525 -0.030460412
0.1593477 0.17573418 0.08483483 0.023110744 0.117874466 0.009774595 0.073839046 0.1723824
-0.038465112 -0.06714362 0.19457589 0.09727486 -0.039415095 0.032415934 -2.2473752e-05 -0.115813844
-0.015954297 -0.044702522 -0.037833396 0.04091687 -0.1953078 0.12886713 0.1880854 -0.10381228
0.17275447 -0.09871568 -0.17750742 0.17229544 -0.050159525 0.06563171 -0.1156794 0.20303057
-0.17995505 0.10222872 -0.14684033 -0.1168591 0.1803823 -0.17261066 0.15283935 0.17560832
-0.056249987 0.0004858433 0.054962512 -0.1871259 0.066101916 0.1187016 -0.07046016 -0.1178308
-0.1218544 -0.07489932 0.112329505 0.113718234 -0.05696761 0.0045705563 0.20990886 -0.15691264
0.15533338 0.025596956 0.18789585 -0.026676996 -0.08390175 -0.03861362 -0.18189071 0.043159198
-0.045239277 0.051784165 -0.18151653 -0.11457567 -0.01290472 0.19935843 0.11757598 0.13782986
0.17955516 0.17868535 0.081228524 0.1886202 -0.21313374 0.06068155 0.09253622 0.05595823
0.14320289 -0.044904545 0.118535675 -0.05551194 -0.05610181 -0.1448801 -0.10783576 -0.066541836

fc.bias f4 [3]
00000000: ffd0 22bd 8220 193d 59f8 623d
-0.039750095 0.037384517 0.055412624
