Assignment_2/Task1/RNN_FastText.pth (torch, 357502 bytes, 10 tensors)

rnn.weight_ih_l0 f4 [128, 300]
00000000: 2784 aabd 8295 19bd 56b5 0abe 71d3 c93c
00000010: 1d4d 83bd e4af 393d 5658 0d3a 4e2f ecbc
00000020: f729 54bd 84dc 0b3e 0436 4dbd f2b9 b3bd
00000030: fb48 35bd 4356 67bc 5afa 1b3d ecb0 fcbd
00000040: 2b6d 353d 3858 503d 342c f5bc 3364 21bd
00000050: 7e5b 99bd e1e4 72bd e469 073e 93d8 24bd
00000060: 5edf 25bd 5e03 083e f376 0cbd a0bb 513c
00000070: de41 623c 7e86 14bc c8c8 713d 96ea a2bc
00000080: 6dc4 123d 07cc a83c bf3b 85bb ffbf a9bd
00000090: 7569 773d bdc7 543c 0bcf 3dbe b0a1 933d
000000a0: 4adb ffbd d3c0 d2bb c314 f93d 6313 893d
000000b0: 3428 1e3c 2fca ac3c 3196 7fbc 285d f43c
000000c0: ed42 133d d10b 89bc f166 983c 0009 4a37
000000d0: 2e6f 343d 234c 1f3c 61b0 553d a1b8 07be
000000e0: 1049 4fbd 6a53 72bd 7f47 96bd fb09 00bd
000000f0: 12b0 5dbd a2bd 59bc 3d43 94bd 311f f23d
00000100: 06a7 20bd 3d94 d1bd d25f ec3c b997 0e3e
00000110: 13ca 073e 36a8 0c3d 8f2f 79bd 5d98 033e
00000120: efd0 31bd 5a7c c7bc ba97 ba3d 6985 3abe
00000130: c7b5 cc3c d711 2a3d 926d d13d 35b9 7dbb
00000140: f85f a9bd 2284 78bd a8d2 04be 0e07 a0bd
00000150: 4637 a23d f264 833d f392 b73b dd9e 5a3d
00000160: 3bdd 3e3e 1fb4 35be 494a 91bd 054c 133d
00000170: 7317 96bd 8ddc 76bd ed43 8f3d f7eb 09bd
00000180: e06f 1ebe 8897 ab3d ade8 ddbc 4eb3 723d
00000190: 2ad5 9ebc 4622 c53d 6ed7 cdbc c601 cfbd
000001a0: 5421 ffbd 15ab 29bd 028c 113c f82c 6bbd
000001b0: cf07 b83d 1402 b1bd a11f 433d 0659 93bd
000001c0: fba3 5cbb 1344 0ebe ff33 90bd 32f5 38bd
000001d0: af5f 8fbc 1a7d c03d 555e 86bd e668 f63c
000001e0: 6c87 08be 32c2 bf3c 5342 e13c 9b00 993d
000001f0: c834 02bc 439d 453b 7c37 87bd 3a4e 303c
00000200: 3c9c 8f3d 0eb0 ed3c 12b0 313d 4390 c83d
00000210: 8501 9e3d 06fd a23c 4d0e 4fbd 22f8 323e
00000220: fd71 dcbb cc6e 93bc 2fa2 a4bc ac42 2fbc
00000230: 05bc d23d 20ef 86bd fc64 e4bd 868e e23d
00000240: f9b8 c2bd b8d3 f23b 51c0 5c3c 5839 b3bb
00000250: 77c2 8d3d 3eba fdbd a15f 99bd 49a8 a73d
00000260: 2f89 97bd 885a 92bd f017 753c eba1 31bd
00000270: a901 76ba 097e aebd 92eb aabd 549c 61bd
00000280: c8d3 cbbd feca 0ebc 7947 1c3d 0e44 00be
00000290: 4a28 31be 1f5e 75bd 91db a43d b4c2 38be
000002a0: ddd5 f5bd 3397 c23d 3c60 89bd 8b4a 9a3d
000002b0: fa22 31bd 4b59 c03d f640 ee3c 8d93 64bd
000002c0: 52b5 dd3c 46d4 8dbd f50f dd3c 6876 72bc
000002d0: 7cb2 e93d ed2f 0f3d fe49 21be 92b2 053d
000002e0: 8fd7 d2bd 9ccb c63d 8ce3 1d3e 8766 48bd
000002f0: 318a dc3d ab28 f43c 75f8 2fbe 941b 093d
00000300: c828 55bb b444 0f3d fde8 a8bd d84d ccbd
00000310: b50f 0bbe 8f58 e53d 7b4f 7b3c 353b 093d
00000320: c135 403c 155b f23d 16d2 8bbd 1c13 ab3d
00000330: 3367 783d 936d c0bd c7a0 e53c 436f 27be
00000340: e4fd 82bc 68a8 e83c 797d 7ebb 8ff4 acbb
00000350: 2590 babd 061e aabd f67c acbb 1c7f 84bd
00000360: a4db 8cbc 77e7 183e 5cb6 093e 8f2c e8bd
00000370: 7814 c9bd d162 3ebc 01e3 32bd 1f75 97bd
00000380: b6e3 2cbd c3cb d33d 3bb1 bc3d 589d b93d
00000390: b683 23bd b997 31bd 5cc5 473d 9861 ec3a
000003a0: 355d ff3d fa4a 253d f67f 3a3d 292d b4bd
000003b0: 6580 3b3d 30ad 0e3e 5950 0a3d 32f3 053d
000003c0: 21c4 f23c 21af a73d 308b 18bc 8a64 3fbd
000003d0: ff4b 9d3d 706f 653d 4a71 8ebd 4843 e13d
000003e0: d223 273d cc4b 233d 619e 64bd ba8a edba
000003f0: 5516 aa3d 0946 f13d 280e 4b3d d691 13bd
-0.08325987 -0.037496097 -0.13545737 0.024636956 -0.064111926 0.045333758 0.0005391886 -0.02883115
-0.051797833 0.13658339 -0.05010034 -0.08775701 -0.044259053 -0.0141196875 0.03808055 -0.12338433
0.044293564 0.050865382 -0.029928304 -0.039402198 -0.07488154 -0.059300307 0.13223988 -0.040245604
-0.040496223 0.13282534 -0.034293126 0.012801081 0.013809649 -0.009065269 0.05902937 -0.01988725
0.035831857 0.0206051 -0.00406596 -0.082885735 0.060403306 0.012987074 -0.18536012 0.07208574
-0.12492998 -0.006431678 0.12162163 0.06693151 0.00965314 0.021092502 -0.015599773 0.029829577
0.035952497 -0.016729267 0.018603774 1.2042234e-05 0.04405134 0.009722742 0.05217016 -0.13254024
-0.050606787 -0.05916158 -0.073378555 -0.031259518 -0.05412299 -0.013289841 -0.07239387 0.118223555
-0.039221786 -0.10233352 0.028854284 0.13925065 0.13260679 0.034340106 -0.06083637 0.1285109
-0.043412145 -0.024351288 0.09110971 -0.18214954 0.024989022 0.04152092 0.10225977 -0.0038715128
-0.08270258 -0.060672887 -0.12970984 -0.078138456 0.07920699 0.06415738 0.0056022345 0.05337416
0.1863908 -0.17744492 -0.07094247 0.03596117 -0.07328691 -0.060268927 0.06995378 -0.0336723
-0.15472364 0.08378512 -0.027088488 0.05925303 -0.019388754 0.09625678 -0.025127139 -0.1010776
-0.12457529 -0.041422922 0.008883478 -0.057415932 0.08985864 -0.086429745 0.047637586 -0.07194714
-0.0033667076 -0.13893156 -0.070411675 -0.04515571 -0.01750168 0.09398861 -0.06560961 0.030079316
-0.1333291 0.02340803 0.027497446 0.074708186 -0.007947154 0.003015355 -0.0660238 0.010760838
0.07012221 0.029014613 0.043380804 0.09793141 0.077151336 0.019896042 -0.050550748 0.17477468
-0.0067274556 -0.017997168 -0.020096866 -0.010697048 0.10289768 -0.06588578 -0.11152074 0.110623404
-0.09507937 0.0074104927 0.013473586 -0.0054694824 0.06921857 -0.123890385 -0.07488943 0.08186395
-0.073992126 -0.07146174 0.01495932 -0.043367308 -0.00093844027 -0.08520133 -0.08345713 -0.055080727
-0.099525034 -0.008715389 0.0381541 -0.12525961 -0.17300525 -0.059904214 0.080496915 -0.18043023
-0.12003682 0.09501495 -0.067078084 0.07533749 -0.043246247 0.09392031 0.02908371 -0.055804778
0.027064 -0.069252536 0.026985148 -0.014798738 0.11410996 0.034957815 -0.15750882 0.032641
-0.10295021 0.09706804 0.15418833 -0.048925903 0.107685454 0.029804548 -0.17184623 0.033473566
-0.0032525528 0.03497763 -0.08247564 -0.09975785 -0.1358021 0.11198532 0.015338774 0.03350373
0.011731566 0.11833779 -0.0682718 0.08353254 0.060645293 -0.093958996 0.028030766 -0.16351037
-0.015990205 0.028400615 -0.0038832112 -0.005278177 -0.09109525 -0.08306508 -0.00526392 -0.06469557
-0.017194577 0.14932047 0.13448471 -0.11336624 -0.09818357 -0.011620239 -0.04367352 -0.07395386
-0.04220935 0.10341599 0.092134915 0.09063214 -0.03992053 -0.043357585 0.0487722 0.0018034456
0.1246895 0.040354706 0.04553219 -0.08797676 0.045776743 0.13933253 0.03376803 0.032702632
0.029634537 0.081877 -0.009310529 -0.04672674 0.07680511 0.05601448 -0.06955202 0.10999161
0.040805645 0.039867207 -0.055815104 -0.0018123009 0.08305041 0.11780936 0.049574047 -0.036027752

rnn.weight_hh_l0 f4 [128, 128]
00000000: 0616 d33c bbc6 95bd 6f21 343d 955e b23d
00000010: 7958 903b 65b8 1bbd 3f10 02bd 7804 1d3d
00000020: 5c57 08bd 963e 6e3d b13f 763d 8245 543d
00000030: ad66 6dbd 1a15 b2bc c2df 60bd 981c e3bd
00000040: 4866 a4b9 4a3e 45bd e74d f0bc 4b2c 28bc
00000050: 2247 b5bc b48e af3d 9c15 f23c cf33 953d
00000060: cc95 c8bd fc06 5dbc 2879 03bd 4505 8b3c
00000070: c95a a13d 7c77 d1bd 5d7b 443d 0054 49bc
00000080: 2aaa ecbc a74b 6a3d 4558 f0bd 7c65 8f3d
00000090: d97a 46bd c668 223d ff4b 9d3d 7186 233c
000000a0: c438 ccbc 3293 86bd b7a6 acbc 5cdb b0bc
000000b0: 07a9 d93c 04cc 91bd bc23 25bd 740c 45bd
000000c0: 58e3 3a3d 1471 9bbd 1b30 8dba b05c a1bd
000000d0: d385 b9bd d938 6ebd 63d5 9c3d 3a78 8cbd
000000e0: cdfd 6dbd 812c 873d d680 0dbd 48fc b23d
000000f0: bee6 9abc 150d 993d dba8 f1bc 70d5 56bc
00000100: 2f21 4b3d c5b8 c83d 6cd3 96bd 1273 44bd
00000110: 41a6 e7bc e87a a03c afad 81bd a9d9 0cbc
00000120: 3ce7 b9bd 7b66 6bbd b3ca 693b fa18 aabb
00000130: 7c9b a9bd 7f55 4fbd 5e8b 5abd b8b0 aebc
00000140: 8804 d63c e721 8d3d 8313 8f3d ed7f 683d
00000150: 3bc6 1cbd aa24 a4bc 3988 36bd 6ac0 7d3d
00000160: e2a3 d9bc a6d3 1d3d c083 9cbd cf5c 623d
00000170: ee79 94bd 55cb f73b 465f 503d c360 2bbd
00000180: 7763 663d 097d 803d 25ca c83d 216e 493c
00000190: d68b 863d 6998 c3bd c502 fa3a fc27 9ebd
000001a0: cc37 c83d 4b96 663b 8bb6 e9bd c248 893c
000001b0: 8f5c 90bd 79ec acbc fa0c 70bd cdab 57bd
000001c0: 0004 2ebd da85 6b3d 8359 65bd 1375 1d3b
000001d0: 376d c7bd c36b 263c 1a83 8dbc b65f b3bc
000001e0: 74a8 80bd 8954 7fbb 1331 9abb f6fa 9e3d
000001f0: 9759 c5bd ad4d c73d d7e4 37bd f56c f43c
00000200: b6ee 96bd 1156 aabd ce85 7abd 336c 663c
00000210: be7b 4cbd 56f5 97bd f738 b63d 9f6b 443c
00000220: f281 5bbd e210 41bd 1841 3ebd 48ae f33c
00000230: 6d49 91bd 2820 b33d 35bd 90bb f69c e23c
00000240: bf6b b83c 7500 093d 30e0 a2bd 2d16 2cbd
00000250: bc03 a9bc 0a9c 033d 8a09 093d 116c 47bd
00000260: 2aa3 533d b4ad 0abd 0dbe 7e3d dde2 443d
00000270: 979f 0f3d c702 d7bb c261 9fbd 9ffe 143d
00000280: 4e12 57bd ac85 22bc 5f96 9c3d 26de 69bd
00000290: d658 2fbd c75b 9b3c 3a2a 0abc e719 d4bd
000002a0: 4dc5 1fbd 680b 613d dd75 89bd 7680 523d
000002b0: 84b7 863b 579c 90bd 5abb 11bd 9691 a8bd
000002c0: 447f 123d 8c32 6b3d f1fe 84b8 fcf4 83bd
000002d0: c450 5dbc 0ce1 5ebd c2be b73d dc21 8e3d
000002e0: 7cdf 793c cadd 683c 7d03 99bd f17c babd
000002f0: 54e3 933d 8ed5 4ebd c369 46bc cef8 8bbc
00000300: ddf7 523d 467b 54bd 6357 483c edc9 89bd
00000310: 6850 883c 99d9 dd3c 5a62 843d a407 a73d
00000320: d16c d53c 8436 8eba fb1a 7e3d 9c49 c23b
00000330: 1e11 abbd 2929 7e3d b643 dbbc 9d9d 543d
00000340: c659 26bd b9fd bcbc fd66 67bd 9c13 bd3c
00000350: e156 48bd 869c a03d 60da fa3c 06f1 25bd
00000360: a220 8bbd 9cf5 72bd 2661 33bd 487f 823c
00000370: 1d94 ab3d f2de 763d 8ace 623c 3c58 58bd
00000380: a83f 913d 8318 aabd 0f8e 0b3d 381a 743d
00000390: 6cc5 883d 1cd2 13bd 34ed bcbd c100 a63c
000003a0: ea4d 9a3d bdc4 8dbc 90f2 88bc 80b0 9cbd
000003b0: cabc dcba 42ec 503d 5638 c9bc 6251 e4bc
000003c0: 512f cf3d 9d49 9abd 66f2 953c e9d4 0bbd
000003d0: 7dd3 18bc 01d7 d3bc 4256 29bd 726c 1ebd
000003e0: 550f 363d ea7e 8bb9 b9ee b3bc e1b7 b7bd
000003f0: 9178 a6bd 87a6 a8bd 6269 3e3d d062 7e3d
0.025767338 -0.073132955 0.043977197 0.08709446 0.004405078 -0.03801765 -0.031753775 0.03833434
-0.033286437 0.058165155 0.060119335 0.0518241 -0.057959247 -0.021738578 -0.054900892 -0.11089438
-0.00031356723 -0.048155107 -0.029334022 -0.0102644665 -0.022128645 0.0857214 0.02955132 0.07285272
-0.097941965 -0.013490435 -0.032097965 0.016970286 0.07878644 -0.10227868 0.04796921 -0.012288094
-0.028889734 0.057201054 -0.11735586 0.070017785 -0.048457 0.0396507 0.07680511 0.009980784
-0.024929412 -0.06571044 -0.02107559 -0.021588974 0.026569856 -0.07118991 -0.040317282 -0.04810758
0.04562697 -0.07589927 -0.0010771783 -0.07879007 -0.09058728 -0.058159683 0.07657888 -0.06858869
-0.05810337 0.06600285 -0.034546696 0.08739525 -0.018908855 0.07473198 -0.029499462 -0.013112411
0.049592193 0.09800867 -0.07364544 -0.047961302 -0.028277518 0.019589856 -0.06331956 -0.008596816
-0.090773076 -0.05747078 0.0035673797 -0.0051909657 -0.082816094 -0.050618645 -0.053355567 -0.0213245
0.026125208 0.06891232 0.069861434 0.056762625 -0.038274985 -0.020037014 -0.044563506 0.06195108
-0.026567403 0.03853192 -0.07642317 0.05526429 -0.07249819 0.007562081 0.05087211 -0.041840326
0.0562472 0.062738486 0.09804181 0.012294323 0.0656964 -0.09550554 0.0019074312 -0.0772247
0.097762674 0.0035184796 -0.114117704 0.016758326 -0.07048904 -0.021108853 -0.058606125 -0.052654076
-0.042484283 0.057500698 -0.05599357 0.002402608 -0.09737628 0.010157528 -0.017274428 -0.021896224
-0.0628213 -0.00389603 -0.004705557 0.07762711 -0.096362285 0.09731612 -0.044895973 0.029837111
-0.07369749 -0.08317197 -0.061162762 0.014063883 -0.049922697 -0.07419841 0.08897584 0.0119885495
-0.053590722 -0.04713524 -0.046448797 0.02974619 -0.07094083 0.08746368 -0.0044170865 0.027662735
0.022512315 0.0334477 -0.079529166 -0.042013336 -0.020631664 0.032131232 0.033456363 -0.048687045
0.051669277 -0.033857062 0.062192965 0.048067916 0.035064306 -0.0065616104 -0.07782318 0.036375638
-0.05250769 -0.009919565 0.076458685 -0.057096623 -0.04280933 0.018964661 -0.008432919 -0.10356503
-0.03900652 0.05494252 -0.06711934 0.05139204 0.0041112322 -0.070610695 -0.035579063 -0.08230893
0.0357659 0.057421252 -6.341737e-05 -0.064432114 -0.013508026 -0.05441384 0.08971931 0.06940052
0.015251037 0.014213035 -0.074713685 -0.09105862 0.07221094 -0.05049663 -0.0121101765 -0.017086413
0.051505912 -0.051875375 0.012227866 -0.067279674 0.016639903 0.027081298 0.064640716 0.08155754
0.026052864 -0.0010849987 0.06203745 0.005929185 -0.08352874 0.062050972 -0.026765686 0.051908124
-0.04061296 -0.023070203 -0.0564947 0.02308064 -0.04891098 0.078423545 0.030621707 -0.04051306
-0.067933336 -0.059316263 -0.04379382 0.015929833 0.0837786 0.06027121 0.013843188 -0.05281852
0.070922196 -0.083054565 0.034071025 0.059595317 0.0667828 -0.036089048 -0.092249304 0.020264031
0.07534392 -0.017305726 -0.016717225 -0.07650852 -0.0016840931 0.051006563 -0.024562996 -0.027870838
0.10116447 -0.07533572 0.018304061 -0.034138594 -0.0093277665 -0.025859358 -0.041342027 -0.03867764
0.044448216 -0.00026606704 -0.021964418 -0.08970619 -0.08128465 -0.082348876 0.04648722 0.062105954

rnn.bias_ih_l0 f4 [128]
00000000: 8dda 81bd a471 96bd f7d6 513d e891 a8bc
00000010: 82b2 823d de4b b0bd 7463 4dbd 1322 8a3d
00000020: ba95 2a3c cf33 723c aa79 8fbd a644 643d
00000030: 33ac 603d b2c5 6dbd fe3a 2fbd 7b49 86bd
00000040: 4842 1e3c 41b1 613d 37ae a3bd d5e3 7c3d
00000050: 623e b7bd e436 7a3d 0ec8 9a3b 69ea 9abd
00000060: 020f bebb f9af 9dbd 4bcd afbc 7af1 9cbc
00000070: d98c b63c b0f8 dabd 42fc 4c3d 4b9d 623d
00000080: 9d96 9d3d 850c 5bbd 0fd5 e8bb f396 943d
00000090: 98e0 893d 77e6 b0bd 4c8d 163d 236e 543d
000000a0: 61c1 733d 8225 963c bdd0 0a3d d7ec 4e3d
000000b0: cd1f 9e3c 3bdf 873d 37ef abbc 420d 0e3b
000000c0: ea0a 5fbd 9104 813b b6f8 883d e0b1 183c
000000d0: bfd4 90bd 4847 05bd 28aa fdbc a917 87bd
000000e0: 3b17 aabd 54dd 873c 6568 bdbd cd40 5a3d
000000f0: 0bb3 24bd 6bdc c0ba a82b 8bbc d8ff 8cbb
00000100: 662c 8f3d c245 acbd 291e 43bd 0848 93bd
00000110: f186 d53d c4f8 29bd 7278 6dbd 3485 50bd
00000120: 0660 86bd 2b9f 51bc 2ba5 f7bc 68c3 b6bd
00000130: 6078 a03d 940f f7bc aa0c 12bc 1f03 31bc
00000140: 0be4 d03d 6087 0cbd beb2 253d 0caa 5c3d
00000150: 8f77 2f3d 07be 5fbd dbba 2ebd 2418 883c
00000160: 2a57 90bc 70f1 3fbd 9ab1 11bc 6f38 953d
00000170: eb2a f9bb 415a 86bd 9ee2 9bbc d667 703d
00000180: b002 4e3d 0e25 a83d 5724 61bd d2c9 bd3d
00000190: f2d2 533d e084 0dbd b830 343d 81aa 553c
000001a0: 9b0d 6b3c 4549 a4bc bb3f cebd 8511 673d
000001b0: d83a 61bd 1807 a5bb cf93 0cbd 12dc ffbc
000001c0: 739e 27bd 1d1a 913c 3684 7cbd cea7 9a3d
000001d0: 2de9 a73c 0f9e debc 38dc 9d3d 89b6 bdbd
000001e0: d164 93bd b89d aeba b35c 95bc 1917 a6bd
000001f0: d49f f4bc 5c9c acbd e895 493d e6fc 5fbc
-0.063405134 -0.07345894 0.051230397 -0.020577386 0.06381704 -0.086082205 -0.050143674 0.067447804
0.010411674 0.01478286 -0.070056275 0.05572953 0.054851722 -0.058049865 -0.04278087 -0.06556984
0.009659357 0.055100683 -0.07992213 0.061740715 -0.089474455 0.061087504 0.0047235554 -0.075642414
-0.005800129 -0.0769958 -0.021460196 -0.019158114 0.022283958 -0.106919646 0.05004526 0.055325788
0.07694743 -0.053478736 -0.0071054767 0.07255354 0.06732291 -0.08637708 0.036755845 0.051862847
0.059510592 0.018328432 0.033890475 0.050518837 0.019302273 0.06634375 -0.02098809 0.0021675383
-0.054453768 0.003937312 0.06688063 0.009319752 -0.07071828 -0.032538682 -0.030964926 -0.0659631
-0.08305212 0.01658503 -0.09248427 0.053284455 -0.04020981 -0.0014714127 -0.01698859 -0.00430296
0.0699089 -0.08411743 -0.047636185 -0.07191473 0.10426129 -0.041497007 -0.057976194 -0.050908282
-0.06561284 -0.012794296 -0.030230125 -0.089239895 0.0783546 -0.030158795 -0.008914152 -0.010803967
0.10199746 -0.03430879 0.040453665 0.053873107 0.04283863 -0.054624584 -0.042658668 0.016613074
-0.017619688 -0.046861112 -0.008892441 0.072861545 -0.007603993 -0.06560183 -0.019028958 0.058692776
0.05029553 0.082101926 -0.054966297 0.0926701 0.051714845 -0.034550548 0.043991774 0.01304114
0.0143465055 -0.020054469 -0.10070749 0.056413192 -0.05498776 -0.005036246 -0.03432065 -0.031232867
-0.040922593 0.017712647 -0.061649524 0.075515375 0.020496929 -0.027174978 0.07708019 -0.092633314
-0.071969636 -0.001332215 -0.018232679 -0.08109874 -0.029861368 -0.08428261 0.049215227 -0.0136711355

rnn.bias_hh_l0 f4 [128]
00000000: bcde 253d 8128 2b3d 6fbe cebc d2a8 97bd
00000010: 06e7 1abc fd05 a43d d0a6 e23b a06e 8cbd
00000020: 77bd 8ebd b6d1 88bd f68a febc 2488 febb
00000030: 00df 05ba a645 54bd 05ca f0ba b37c 1a3d
00000040: b2fd d73c 3ad9 b63c 29f5 9dbd 625a f53c
00000050: b768 763c 3cd8 b2bd 9c1c 6e3d 3dc9 f7bc
00000060: ce55 6ebd b6e9 5e3d 100c b13d ae22 e63c
00000070: 375e 1bbd ed41 bcba f76f 3c3d 857b 443d
00000080: a5c2 ac3d 578f 8f3d 7fe8 273d 5b2b bd3c
00000090: 6f03 35bd 6a62 96bd ea45 78bb 0322 8dbc
000000a0: 9967 773d 5f56 62bd a7ac 6b3d 971e 38bd
000000b0: d23d 183c 9f06 ac3d b2d4 42bd ae95 9dbd
000000c0: 615e 043d 1348 25bd 10a9 353c a4f2 a7bd
000000d0: b6d6 913d 4fd8 b63b 8010 83bd a405 86b9
000000e0: 9c03 6c3c 0dff 0fbd 582e 873d a6a6 713d
000000f0: fdd4 413d 2629 89bd 4d20 563c 18b1 b0bc
00000100: 5803 e23c cc33 c0bd 2c13 51bd 3a9a 1c3d
00000110: ef3f 923b 4f66 18bd f6b7 66bc 2f05 1e3d
00000120: 9663 b4bc 2b26 053d da16 923c 4265 ef3c
00000130: e185 98bd 40b4 183d 08f7 29bc 39a0 62bc
00000140: 076e 06bd 7045 29bd acfa 583d 7872 b93d
00000150: 7fec b3bb 3b9f 23bd c0ef 5dbd f761 b1bc
00000160: bb18 613d 22ca 4bbd bdd0 afba 6100 88bd
00000170: 8fba 2bbd c441 65bb 6355 ab3d 78b2 5a3d
00000180: 4953 90bd 8308 1fbd e160 503d a9ea 2d3c
00000190: 6dcf aabd 2084 3f3d b9e9 62bd e65a acbc
000001a0: 11c5 78bd e881 15bd 721b 18bd 9997 6bbd
000001b0: 6468 133d 0a5f 5ebd 825c b7bd 0cba 123c
000001c0: 2eb8 b1bc 13c9 0e3c 58f2 72bd e77a 79bd
000001d0: e9f0 893c a998 2cbd 586b 27bb 2ece 20bc
000001e0: f717 523d 1a94 0a3d 8f41 7fbd 298c 523d
000001f0: 9600 9b3d f470 e63c d22f afbc ea5d 3f3d
0.04049562 0.041786674 -0.02523729 -0.07405247 -0.009454494 0.08008955 0.0069168583 -0.068570375
-0.06969731 -0.06680624 -0.031072121 -0.007767694 -0.0005106777 -0.051824234 -0.0018370753 0.03771658
0.026366089 0.022320379 -0.07712776 0.029950324 0.015039614 -0.0873265 0.058132753 -0.030247325
-0.0581873 0.054422103 0.08644879 0.028092708 -0.037931647 -0.0014362909 0.046005215 0.04796936
0.08435563 0.07009762 0.04099321 0.023091963 -0.044192728 -0.0734299 -0.003788347 -0.017228132
0.060401533 -0.05525815 0.0575377 -0.044951048 0.009292083 0.083997004 -0.047566123 -0.07694565
0.03231657 -0.04035194 0.011087671 -0.08200577 0.07121031 0.005579985 -0.063996315 -0.00025562674
0.014405157 -0.035155345 0.06600636 0.05899682 0.047322262 -0.066973016 0.013069225 -0.02156882
0.027589485 -0.093848795 -0.051043674 0.03823302 0.004463188 -0.037206944 -0.014081946 0.038579162
-0.022020143 0.032507103 0.017833162 0.029223088 -0.074474104 0.037281275 -0.010373838 -0.013832145
-0.032819774 -0.041325986 0.052973434 0.09055036 -0.005490839 -0.039946776 -0.05418372 -0.021653159
0.054955225 -0.049753316 -0.0013413649 -0.06640697 -0.041925963 -0.0034981826 0.083658956 0.053392857
-0.070471354 -0.038826477 0.05087364 0.010615029 -0.083403446 0.046756864 -0.055398677 -0.021039438
-0.060734812 -0.03650084 -0.03713555 -0.05751762 0.035988227 -0.054289855 -0.08953191 0.00895549
-0.021694269 0.008714932 -0.05931315 -0.060908224 0.016838508 -0.042137776 -0.002554616 -0.009814782
0.051292386 0.033832647 -0.06231838 0.0514032 0.07568471 0.028130032 -0.021385107 0.046720423

rnn.weight_ih_l1 f4 [128, 128]
00000000: 105b f9bc c47e 80bc 7d4e 2c3d 6af1 613d
00000010: 198f 3dbc e648 d4bd 1ab1 ffbd cbe5 ddbd
00000020: fdbe b63c d82b a33d a5c4 673c ec51 7d3d
00000030: 6672 c93c e865 d33d 3a05 cab9 5c97 b93d
00000040: c067 2a3c 7793 863d a270 1d3d 87d8 1ebc
00000050: f7f5 d83d 7f9e 263d af19 a93d 7de8 b6bc
00000060: 7474 bf3c 68ab 613d 2849 633d e708 23bb
00000070: 6ceb c23d 9f3a d63b d057 2bbd b978 fbbd
00000080: a14a d8bd 8496 88bb b96c 073e 536e 0f3b
00000090: 2330 9f3c d9b7 d43d 4673 83bc 94fd c6bc
000000a0: 3b77 e4bc b869 663b b513 503a fc15 1ebd
000000b0: ca11 183d 3948 03bc 5506 143e 75d1 26bd
000000c0: 3858 b83d 5612 c43d 97d4 ef3b aa57 eebc
000000d0: d040 07be 36c5 05bd 3535 6abd 7926 baba
000000e0: ea89 f9bc 680f 62bd eb09 81bc 3863 b9bd
000000f0: 3770 c0bb 2177 c63d 0c3b 64bc 7b6f 553d
00000100: 568f 85bd 52f7 173d f97c 393e b66e 9d3d
00000110: d015 b23c f18a ee3d 6ea9 653d ba67 13bd
00000120: 22a3 0b3d 8a00 883b a7e6 63bd e519 f43b
00000130: 5bbc 0abd e672 80bd 3dcf 0f3d 44bb 6f3d
00000140: 0022 a1bd fdce ee3d aa3f 833b 330e acbd
00000150: 322e 2c3e 1f0e 2cbd 0768 153e 52be 02be
00000160: ec4e a2bd 49b1 133e 5b5b 79bc 6779 aa3d
00000170: fcde 51bd 0eb6 15bd 570d b9bd 79bc 01bd
00000180: 159d c0bd ccb4 be3d edc3 833c c599 883b
00000190: 41c0 8cbd a317 c5bc e8ca 7b3d 0124 c53d
000001a0: d455 78bd 762a 87bd 789c bb3d 984e ab3d
000001b0: 879f 38bd f2eb e13d 89d0 033e b3ba ed3d
000001c0: 0204 61bd f3b2 a63d 473f aa3c 0f32 94bd
000001d0: 9076 6bbd 3aa4 af3d 8e31 4ebd 889f e53d
000001e0: 00c8 fe3d f174 833d 0e20 93bc 6d7f c53c
000001f0: 7d11 273e 8518 083d 072e 2bbd a5f9 8d3c
00000200: ebc5 34bc d385 fb3c 6ed6 ea3d e439 ba3c
00000210: da8e 593c ba20 a13c 4e82 5e3d a035 803d
00000220: bf6f 153d ec1d 6dbd c2f1 e0bd 007f a6bd
00000230: e36f c63d 2768 fbbb 9ed1 d6bd 65e3 babd
00000240: 5ec9 74bc 3151 ba3d c7f9 b0bd 9f8c d13d
00000250: 0a9b 32bd c9fb 01be 74f5 613c 2a9d 06be
00000260: 1a6b 2cbc 46c1 0cbd 5abb ac3d e1ab 173d
00000270: 432f 8e3d 540f adbd eaef c63c 287f 0e3e
00000280: 1b94 503c 5d49 56bd 8c26 0d39 4e11 86bd
00000290: 5cfc 06be 037f c8bd 1ceb 7ebc 62cf 82bb
000002a0: 44a4 17bc 4be0 44bd 188b ac3d 6152 773d
000002b0: 9ad3 19bd ffd2 093e a5e0 92bd 33ba 03be
000002c0: 1534 b6bc 270e 963c 880d 203e 33bd b9bd
000002d0: d72d b23c ea4b 4f3d 0382 aa3a 84d9 213d
000002e0: f0ef 10be de26 eb3c fc71 02bd c500 df3d
000002f0: eb5e 153d 18d9 cebd d73f d23d 5364 9a3d
00000300: ef7d b33d 1c6f 94bd 1257 e6bd 5a2b 91bd
00000310: 414a 02bc 7a40 d7bd 3e36 e7bc b59b d73c
00000320: 9a73 62bd 1669 8dbd 4743 cdbd 0c9e d9bd
00000330: 8ec7 af3b 2780 3fbc ee00 e13d 121c 903d
00000340: b5cd b73d 8e1b aebd ee1f f93d 5ca2 f63d
00000350: 4106 bdbc bdb1 c13c dc38 82bc 9e8b 963d
00000360: f329 383d cdcc 28be 5bfb e1bd 796b 953a
00000370: 1a13 c7bc 3651 ad3c 2608 923c bb5b 85bc
00000380: 5f79 b13c 3e17 09bb 71db b0bd bd59 363d
00000390: e42d 53bd 011c c5bb 3f6e 07be 88f2 18bd
000003a0: 17bd 9fbd 1cca 4f3c c220 2dbe 847a b7bd
000003b0: 1f93 c93c ae8f 89bd f5b0 c2bd c10b 17be
000003c0: a66d 9a3d a9e4 8abd 5ed0 89bd 8b2b 0e3d
000003d0: c8f8 813c 8570 b9bd 6c88 1bbd 16b5 a2bc
000003e0: a7ca 0dbe b47d b7bd a635 d4bd 49ab 73bd
000003f0: 2bc1 7ebc bb81 883d 1932 2d3d d470 b2bd
-0.03043893 -0.015685447 0.04206704 0.05516187 -0.011569762 -0.10365467 -0.12484951 -0.10834845
0.022307867 0.07967347 0.014146005 0.061845705 0.024590682 0.103221714 -0.00038532336 0.09062073
0.0104007125 0.065710954 0.038437493 -0.009695179 0.10593789 0.040678497 0.08256852 -0.022327656
0.023370959 0.055095106 0.05548969 -0.0024877132 0.095175594 0.00653775 -0.04183179 -0.122788854
-0.10561109 -0.0041683335 0.13225068 0.0021885827 0.019432133 0.10386629 -0.016046178 -0.024290837
-0.027888885 0.0035158228 0.0007937507 -0.038595185 0.03712634 -0.008012825 0.1445554 -0.040727098
0.090012014 0.0957381 0.007319044 -0.029094536 -0.13208318 -0.032658778 -0.05717965 -0.001420214
-0.03046127 -0.055190474 -0.0157518 -0.090521276 -0.005872752 0.09690691 -0.0139300935 0.05210827
-0.0652148 0.037101097 0.1811408 0.07687132 0.021738917 0.11647595 0.056069784 -0.035987593
0.034091122 0.004150455 -0.05563989 0.007449376 -0.033871036 -0.06271915 0.035109747 0.0585282
-0.07867813 0.11660574 0.004005392 -0.08401146 0.16814497 -0.042005654 0.14590465 -0.12767914
-0.079252094 0.14423098 -0.015219535 0.08323937 -0.051238045 -0.036550574 -0.090357475 -0.031673882
-0.09404961 0.09311828 0.016084636 0.0041687214 -0.06872607 -0.024059122 0.061472803 0.09626008
-0.060628727 -0.06599896 0.091607034 0.083646 -0.045074012 0.11031331 0.12872519 0.11607876
-0.054935463 0.081396006 0.020782126 -0.072361104 -0.057486117 0.085762456 -0.050340228 0.11212069
0.12440491 0.06418789 -0.01795962 0.024108613 0.16315265 0.03322651 -0.041791942 0.017330954
-0.011033515 0.03070346 0.114666805 0.022732683 0.013278687 0.019668926 0.054323487 0.06260228
0.036483523 -0.057889864 -0.10983612 -0.08129692 0.096893094 -0.007672328 -0.104892 -0.09125403
-0.014940588 0.09097517 -0.08641391 0.102318995 -0.043604888 -0.12693705 0.013791431 -0.13145891
-0.010523582 -0.034364007 0.08434172 0.03702915 0.06942608 -0.08450189 0.024284322 0.13915694
0.012730624 -0.05231606 0.00013461168 -0.06546269 -0.13182205 -0.097898506 -0.015558984 -0.003992007
-0.009255473 -0.048065465 0.084249675 0.060381297 -0.037555315 0.13459395 -0.07171754 -0.12863998
-0.022241632 0.018317295 0.15630162 -0.0906929 0.021750374 0.050609507 0.0013008717 0.03951408
-0.14154029 0.028705057 -0.031846985 0.10888819 0.036467474 -0.10100001 0.10266083 0.075386666
0.08764254 -0.07247755 -0.11247076 -0.07088347 -0.007952274 -0.10510345 -0.028224107 0.026319364
-0.055286027 -0.06904809 -0.10022598 -0.10625848 0.005364365 -0.011688269 0.109865054 0.07036604
0.089747824 -0.085013494 0.12164293 0.12042686 -0.023074271 0.023644323 -0.015896253 0.073508486
0.04496188 -0.16484375 -0.110342704 0.0011399827 -0.0243011 0.021156888 0.017826151 -0.016279092
0.02166432 -0.0020918394 -0.08635605 0.044519175 -0.051557437 -0.006015301 -0.1322565 -0.03734067
-0.07799738 0.012682464 -0.16907027 -0.08958915 0.024606286 -0.06716858 -0.09506408 -0.14750578
0.07540445 -0.06781895 -0.06729196 0.034709495 0.015865698 -0.090546645 -0.0379719 -0.01986174
-0.13846837 -0.08959523 -0.10361795 -0.059489522 -0.0155489845 0.06665369 0.042284105 -0.087129265

rnn.weight_hh_l1 f4 [128, 128]
00000000: 211d 663d 0c12 3cbd bfda 2fbd ae9b dbbb
00000010: 358d 96bc bb04 8cbd 79ff 8a3c 2987 8abd
00000020: 3889 a33d 0cf5 b0bd 52c0 353c 01d9 da3c
00000030: 9563 59bc 83a6 ffbc 8ef2 5ebd 48e7 efba
00000040: 457d 983d 8449 c2bd 5840 933b db32 253d
00000050: 6309 543d d612 993d ca47 49bd 592b d93c
00000060: c602 d8bc 61c3 b43d 5c1b 283d bdd5 013c
00000070: 6118 e7ba 5592 78bc d0fa 85bd f686 99ba
00000080: 6102 ec3b 6269 963d 480d 9abb 5eab 18bc
00000090: 0687 d9bc 3333 11bc beff ecbc 6692 fc3c
000000a0: 6fe4 d6bc fbe7 02bc 5337 953d ce2e 183d
000000b0: 69fa 95bc 844f 32bd e77f 9c3d 214f d93c
000000c0: dc0a 703d 92b2 9638 9b34 95bc e064 9cbd
000000d0: 34be 10bd 3d23 71bd 574d 2cbd 1502 60bd
000000e0: 9ba0 973d 73f2 aabd 2005 143d 8e6a 353d
000000f0: aecb 5fbd 1433 2dbc 858b e4bc 74ba 6e3a
00000100: 9090 b3bd d7db a5bd b1f9 b83d b05f 243b
00000110: e465 8fbd e61a a33d a84c b13d 471c c9bd
00000120: 4557 a33c 3ab2 863d 72f7 ef3c 16a3 9c3b
00000130: 279c 86bd 594e 853d 5bf1 2abd 367f 7e3d
00000140: a138 a03d bd12 95bd 01b0 34bd 90da 953d
00000150: 523d b7bb cca0 68bc a0cd dbba 00a5 95bd
00000160: 6772 63bd 29b5 06bd 92ba 91bd 4719 bbba
00000170: fc35 493c 527f 0c3a 5a97 493b be1f e03c
00000180: 7686 ac3d db0f ed3c 6b8f 733d e516 f83c
00000190: 72e1 38bd f25e b93d 185f 40bd c9cf 273d
000001a0: eef8 643c 5f97 103d 2b32 51bd 5561 a8bc
000001b0: 5512 9d3d 58d0 a73d c2ab 9f3d fc02 e93c
000001c0: ff35 ae3c 9614 bfbc 414b 83bd 1565 a9bd
000001d0: 4bda a23d 7c65 a33d 1b51 83bd fbde b3bc
000001e0: aee9 0fba 3425 863d 60b2 29bc 3e80 bfbc
000001f0: 39a2 263d ea62 2b3d 9134 a9bd ee8c 40bd
00000200: 9f1e 60bb 20e2 813d 0cad 8dbd 8ca9 43bd
00000210: 0e2f a4bc 69c7 58bd e074 3ebb 50ab 983d
00000220: ede6 c4bd 3eaa a2bd f69a ed3c 77e3 bebb
00000230: f4ff 293c 4dc2 7abd 240f a03c 9a1d 8fbd
00000240: 964e 85bd 5adb 90bd a3fc 703d db50 f7bc
00000250: 0064 d6bc 40dc 703d 4382 c4bd 5a7a 4ebd
00000260: dc7e c3bc 26cc 70bc a23c 1bbd 8276 92bd
00000270: d18c a13d affa 873c ebdb aa3d e5cc b33d
00000280: efa8 85bd 1b9e 593d 2ba9 81bd 5429 563a
00000290: fe5b 33bd a659 da3b f540 b9bc 8166 41bc
000002a0: eb7f 8d3c ea07 9fbd 61fd d33c 49cd 96ba
000002b0: 3356 723d 1fdf 69bb 38b1 00be c093 5a3d
000002c0: 0e7d ba3d 3f0a b43c 883a 64ba 7c48 80bd
000002d0: 9c78 f8bc 5175 653c 49fb 473d a52a 82bc
000002e0: 7735 603d fcbd 62bd eb84 b9bb a49c a4bb
000002f0: 2bd1 12bc e214 293d d1fb dd3d 1d74 2c3d
00000300: a068 21bc b09b d6bd 0d26 183d 636b 31bd
00000310: 6d68 593c a2a5 d63c aeeb 8cbd 0f6a c13d
00000320: 89f7 993d c01f 933c b671 943a 1d6f 38bd
00000330: 3ab2 92bd 85f1 d2bb 3d6b 31bd 3b1a a53b
00000340: 8ea1 48bd ae70 f2bc d6f4 5a3d b1d2 7fbc
00000350: 3bfe 773d 8e91 44bd cd7d 163c 3d9e 45bc
00000360: a3e1 61bd 7111 c83c 6f27 4e3d d495 603d
00000370: c467 3fbd 2235 c93a 52ef 07bd a85b 963d
00000380: 2755 9bbd 0117 b83d 0986 80bd b61a 273c
00000390: 044b f03b 9e2b aebd d006 853d d61d 943d
000003a0: 81b9 b9bd f273 c3bc 5b18 793c 15b9 86bb
000003b0: 488d 62bd c470 943c 5284 233d 8492 55bc
000003c0: 9a0d 463d ffa9 b63d b7fe f1bc 2ecd 18bd
000003d0: af39 73bd 2fc9 d73c bd10 0ebd 7158 723d
000003e0: 918c b5bd 49d5 933d 1fd9 23bd 14b4 1d3d
000003f0: ce7d 06bd 53d0 143d 803d 0d3d 2754 07bc
0.056180123 -0.04591565 -0.042933222 -0.006701908 -0.01837788 -0.0683684 0.016967522 -0.06764061
0.07985157 -0.08640489 0.011093216 0.026714804 -0.013268371 -0.031207329 -0.054430537 -0.001830318
0.07445768 -0.09486678 0.0044937544 0.040331703 0.051766764 0.07474296 -0.04914073 0.026509928
-0.02636851 0.08826328 0.041041717 0.007924494 -0.0017631167 -0.015171607 -0.06541979 -0.0011713195
0.007202432 0.07344319 -0.0047012903 -0.009318201 -0.026553642 -0.0088623045 -0.028930541 0.030831527
-0.026231973 -0.007989879 0.07285943 0.03715401 -0.018307881 -0.043532863 0.07641583 0.02652699
0.058604106 7.185819e-05 -0.01821356 -0.07636428 -0.03533764 -0.058871496 -0.042065945 -0.054689486
0.0740368 -0.08347025 0.0361377 0.04429107 -0.054637603 -0.01057126 -0.02789856 0.0009106763
-0.087678075 -0.08098572 0.09032 0.0025081448 -0.07001856 0.07964115 0.08657199 -0.098198466
0.019939074 0.06576963 0.029292796 0.0047801835 -0.065727524 0.06509084 -0.04173408 0.062133037
0.07823301 -0.07278965 -0.044113163 0.07317078 -0.0055920267 -0.014198493 -0.0016769655 -0.07306862
-0.055529024 -0.03288761 -0.071156636 -0.0014274501 0.012280937 0.00053595484 0.0030760379 0.027358886
0.08424084 0.028938225 0.059462946 0.030284354 -0.045136876 0.090513125 -0.04696569 0.040969644
0.013975365 0.03530061 -0.051073235 -0.020554224 0.07669512 0.08194035 0.07796432 0.028443806
0.021265982 -0.023325246 -0.06410838 -0.08271233 0.07951792 0.07978341 -0.06411954 -0.021956911
-0.0005489838 0.06550065 -0.010357469 -0.02337658 0.04068205 0.04184238 -0.08261979 -0.0470094
-0.003419794 0.06341958 -0.06917772 -0.047769114 -0.020041969 -0.052924547 -0.0029061362 0.0745455
-0.09614358 -0.07942627 0.029004555 -0.0058254558 0.010375965 -0.061220456 0.01953847 -0.06988068
-0.0650913 -0.07073088 0.058834683 -0.030189922 -0.02617073 0.058803797 -0.09595158 -0.050409652
-0.023864202 -0.01469711 -0.03789962 -0.0715151 0.07888187 0.016599027 0.08342727 0.08779315
-0.06526362 0.053129297 -0.06331094 0.00081696105 -0.043788902 0.006663519 -0.022613982 -0.011804224
0.01727291 -0.07765181 0.025877656 -0.0011505272 0.059164237 -0.003568597 -0.12567604 0.05336356
0.091058835 0.021977542 -0.00087062316 -0.06263825 -0.030330949 0.014005021 0.04882363 -0.015889475
0.054738488 -0.055356964 -0.005661597 -0.005023556 -0.008961002 0.04127968 0.10839046 0.04210292
-0.009851605 -0.10478914 0.037145663 -0.043315303 0.013269526 0.026202027 -0.0688089 0.09444057
0.07517917 0.017959476 0.0011325392 -0.04502784 -0.071629 -0.006437483 -0.04331516 0.0050385273
-0.048982196 -0.029594745 0.05345615 -0.015614198 0.060545187 -0.047990374 0.009185267 -0.012061653
-0.055146825 0.02442238 0.050330576 0.054830387 -0.046729818 0.0015350918 -0.033187218 0.07341701
-0.07584601 0.08988763 -0.06275565 0.0101992395 0.0073331613 -0.08504413 0.0649544 0.07232253
-0.09068585 -0.023858998 0.015203561 -0.004111419 -0.055310518 0.018120177 0.039921112 -0.01303542
0.048352815 0.08919143 -0.029540403 -0.03730505 -0.059381183 0.026341049 -0.03468393 0.059166376
-0.088647015 0.07218415 -0.040001985 0.038501814 -0.03283482 0.036331486 0.03448248 -0.00825981

rnn.bias_ih_l1 f4 [128]
00000000: 6742 c4bd 7652 da3d 4ca1 843d acdc 91bd
00000010: f5e9 3cbd c871 2e3d 8703 dbbb c6c4 a9bd
00000020: 318b 683d 9867 93bd c7b7 b5bd e050 16bd
00000030: c8f5 d93c 7fea 99bc 8aaa c53d ae7b 893d
00000040: a759 89bd a5d2 92bd 662a 3c3d 4b52 1a3d
00000050: 2295 63bd 80d0 da3b 0dc4 c23c 17bf 63bd
00000060: eb60 523d cdb9 32bd 607b 5bbc d3c8 433c
00000070: 1303 233d 41f5 abbb 8c79 2c3d ce1a 1fbc
00000080: b8f2 dc3d 09f3 8ebc 34ca 683c 1417 013d
00000090: d422 a1bb 02d4 cfbd 60e3 683d 5fe4 103d
000000a0: 53dc 5abd 0f16 d3bb 0f15 903d 31d7 683c
000000b0: 96e5 c73c 6c66 a33d c32a 83bd 12e6 82bd
000000c0: b88f 1b3d 9fde 62bd 63c7 47bd 5b20 88bd
000000d0: 5523 98bd 79ab 4cbc b85e bc3c 7531 6a3d
000000e0: aabb 8f3c e19d b23d 04d4 af3d 9b90 473d
000000f0: c552 b13c 61b7 24bd 1fe4 c43d f13e 29bd
00000100: 86f6 e63c e4c3 3dbd 36bc 183d c031 9e3d
00000110: cc58 a83d edf1 af3d 72c9 78bc 3028 5e3d
00000120: 55f7 61bd 0913 cc3d 7cc0 cdbd f41a fe3c
00000130: 9262 afbd 4fd6 7f3b c9bd a93d 5665 f3bd
00000140: 3786 8cbd fc6d f3bc 6239 b1bd bcbe 92bd
00000150: 1814 d73c 30c6 153b 7693 d9bc d4f0 cabd
00000160: da39 d13d 5ff9 c2bd 7752 7fbd 88f9 613d
00000170: 8e6d 2ebd 48dc 983d 75ec 61bd c76f e13d
00000180: a097 d13c 169d dc3c 063a 9dbd ddae 4cbd
00000190: a98f abbd 35e8 86bd 37c2 8bbd 8778 243d
000001a0: f2d2 b03c 6aab a93c 60c0 b0bd 723e 6dbd
000001b0: 7951 0a3c 1ec3 183b d5c3 9c3d 700c 11bc
000001c0: c995 e93c 28a5 87bc d399 0cbd 7107 cabd
000001d0: e789 afbd 5496 0abd 4412 1c3d 69b1 a2bd
000001e0: fe6a 953d bfbd 28bc d4e3 e33b cf57 9abd
000001f0: aab3 febd e576 d03d 80eb 12bc 8fc2 d5bc
-0.09582978 0.106602594 0.064760774 -0.07122168 -0.046121556 0.04258898 -0.00668377 -0.08289485
0.05677337 -0.07197493 -0.08872943 -0.036698222 0.026606455 -0.018788574 0.09651668 0.06713043
-0.06706553 -0.071690835 0.04593887 0.037676137 -0.055562146 0.006677687 0.023775125 -0.05560216
0.05136196 -0.043634225 -0.013396114 0.011949736 0.039797854 -0.0052477424 0.042108104 -0.009710981
0.107884824 -0.017449873 0.014208365 0.03151615 -0.004917482 -0.10147859 0.056857467 0.03537404
-0.053432774 -0.0064418386 0.070352666 0.014211462 0.024401467 0.0797852 -0.064046405 -0.06391539
0.037978858 -0.05538809 -0.048774134 -0.06646796 -0.07428614 -0.012492054 0.022994384 0.057176072
0.01754554 0.08721519 0.08585361 0.04872189 0.021645913 -0.040213946 0.09613823 -0.04131979
0.028193723 -0.046329394 0.037288867 0.07724333 0.08220062 0.085910656 -0.015184747 0.054237545
-0.055167515 0.09964568 -0.10046479 0.031018712 -0.08563723 0.003903765 0.08288152 -0.11884563
-0.06861537 -0.02971553 -0.08653523 -0.07165286 0.026254699 0.0022853725 -0.026559573 -0.099092156
0.102161124 -0.0952022 -0.062334504 0.055169612 -0.04258495 0.0746389 -0.055157144 0.11007648
0.025584996 0.026930373 -0.07677083 -0.04997145 -0.083770104 -0.06587259 -0.06824153 0.040154006
0.021584962 0.02071162 -0.086304426 -0.05792088 0.008442276 0.0023309658 0.076545395 -0.008853063
0.028513806 -0.016558245 -0.034326386 -0.098647006 -0.08571225 -0.03383477 0.038103357 -0.079439946
0.07295798 -0.010299145 0.0069546495 -0.075362794 -0.12436612 0.10178927 -0.00896728 -0.02609375

rnn.bias_hh_l1 f4 [128]
00000000: dfc1 983c 4ff0 f63d beae d23d f231 cbbd
00000010: a81b afbc d2c1 1cbd b9ab 4b3c 3c7b 80bd
00000020: 4070 0a3e 15c0 173c 293e e0bb 835f c23d
00000030: 466b fbbc b78e 413c bcbd 473d 7698 23bd
00000040: ca11 eb3c 05a3 54bb a9db 59bd 59a7 39bc
00000050: 102c 11bd 1a31 87bd 7801 453d f97a b9bd
00000060: 2c19 8f3d 1724 8bbd ef01 9fbc cc24 283d
00000070: 025d 2f3d 84a8 0c3d b94f 063d f6bb 063d
00000080: 7093 ab3c b1d9 ecbc 836e 60bd 79ac a23c
00000090: b41b 983d 9cbd c6bd 4ded 8f3d 8866 853d
000000a0: 2a50 7a3c 810c 0c3d 0241 b7bc 7fe1 9ebd
000000b0: 819d 263a c3ca 8fbd 2c54 643d 87ed df3c
000000c0: 60e1 a73c 87ed 2b3d 1fc5 26bd 3092 98bc
000000d0: 790f b8bd 3f9d 20bd 922e f5bd cc14 323d
000000e0: 2828 f8bc b632 dc3d 17a5 c83d 776a 0cbd
000000f0: 1a07 ab3d 4901 d9bd 2886 083e d71a 873d
00000100: 108c 873c 685b 80bb 3cb5 95bd 4922 b9bc
00000110: b54e 62bd 663b f4bc 74a5 19bd ec1b f1ba
00000120: 6451 7cbd 08e6 87bd 4274 d3bd 814c d93d
00000130: f8e1 afbd 2cb2 1e3c c6b1 72bc ce6a cb3c
00000140: 9bba 8abd 04ea a3bd 0452 a53c fbfb 9dbb
00000150: a309 833d f9f8 75bd fd6f 903c 467b 24bc
00000160: 587f a7bc 7cca 66bd 2408 c23d ffab 5f3d
00000170: f8a1 c8bd 0bb7 c6bc b27f d5bb 909a 52ba
00000180: 9658 c73c 2ce6 66bd 7a1f 15bd 1075 8b3b
00000190: a1ba a9bd b7e1 8e3d 9b7b 903c 8554 ae3d
000001a0: 3e00 083d 5874 583d 9270 6ebd 99b6 29bd
000001b0: 2591 003c ce5f 803d 4acb 533d c5ef 5cbc
000001c0: 7dd1 a03d 8a49 31bc a99b 333c 689b d0bd
000001d0: a119 f13c 998f b1bd a82f 6d3d 9521 173b
000001e0: cbb6 3dbb 3c0a 9b3d 7daf d1bd e769 3bbc
000001f0: ecd3 113d ca63 01bd 6e2a d23d 53af 4abd
0.018647132 0.12057554 0.10287236 -0.09921636 -0.021375492 -0.03827078 0.012431079 -0.06273505
0.13519382 0.0092621045 -0.0068433476 0.09490874 -0.0306908 0.011813811 0.04876493 -0.03994032
0.028695006 -0.00324458 -0.053188 -0.011331403 -0.035442412 -0.06601162 0.048097104 -0.09056658
0.06987223 -0.06793993 -0.019410102 0.041050717 0.04281331 0.034340397 0.032790873 0.032894097
0.020944327 -0.028912397 -0.054792892 0.019857632 0.07427159 -0.09704134 0.070276834 0.06513697
0.015277902 0.034191612 -0.022369865 -0.07757854 0.00063558674 -0.070210956 0.055744335 0.027334942
0.02049321 0.04197457 -0.040715333 -0.018624395 -0.08987326 -0.03921246 -0.11971773 0.043476865
-0.030292585 0.1075186 0.097971134 -0.03428122 0.08350964 -0.10595948 0.13332427 0.06596916
0.01654628 -0.0039171465 -0.07309958 -0.022599356 -0.055250842 -0.02981348 -0.037511304 -0.0018395162
-0.061601058 -0.06635672 -0.10324909 0.10610295 -0.08588022 0.009686034 -0.014812892 0.024831202
-0.067738734 -0.08003619 0.02018071 -0.004821298 0.063983224 -0.060051892 0.017631525 -0.010039156
-0.020446464 -0.056345448 0.09474209 0.054607388 -0.09796518 -0.024257204 -0.0065154666 -0.0008033896
0.024334233 -0.056371853 -0.03640697 0.0042558983 -0.0828755 0.069766454 0.017637065 0.085122146
0.033203356 0.05284533 -0.058212824 -0.041433904 0.007847105 0.06268273 0.051707543 -0.0134849
0.07852457 -0.010820756 0.010962405 -0.101858914 0.029431166 -0.08669967 0.057906777 0.0023060788
-0.0028948064 0.075703114 -0.1023855 -0.011438823 0.035602495 -0.031589307 0.10261999 -0.04948361

fc.weight f4 [3, 128]
00000000: 2837 68bd e78d cb3d 6950 043e 7a54 e2bd
00000010: 80bf bcbc a9b9 babd b44c 243d 8de7 9abd
00000020: ed12 fe3d f6ea eebc 0325 65bd 82b8 d53d
00000030: 0abb da3d 24a8 a53d 1656 0b3e 30fc 833d
00000040: bb50 c73d 3273 8f3d f21d 923d 6ecd 9cbd
00000050: 5567 33bd bf35 f9bc f5e6 af3d aa1a ebbd
00000060: e69b b6bb 0a9b ebbd 8d3e 01be 3beb a3bd
00000070: 744c e53d 1a16 acbd 39ab ab3c 0ad5 ba3c
00000080: 0ea0 2a3d 5981 fc3d c0f0 163e b3de 0f3e
00000090: 61b5 de3c a654 ccbd aa21 9bbd 33c5 b0bd
000000a0: 3bca d1bd 7aca 74bd f5e3 973d 4301 1e3d
000000b0: 6fe0 2d3d a7cf 6c3c d35f 813d eef0 03bc
000000c0: 2352 93bc 754d dbbd a2f3 a0bd 1ea6 883c
000000d0: 3f8b 82bd 709c bbbd fc3e b7bb 26e4 9dbd
000000e0: f2cd f1bd 8ead 8a3d 23c5 2d3d 30dd 69ba
000000f0: 6c0d 12bd 4fdc 11be b931 e1bc 2418 6fbd
00000100: b30d 913d 0b08 16bd 2db5 f63d 5ac2 8fbc
00000110: 5fcc 323d d428 e33d 3e03 ba3c 5d5b 5d3d
00000120: d45d b23d e222 033e 3b35 a6bd ad15 d63d
00000130: 6913 0bbd c1e9 683d 887d 51bd b69c eabd
00000140: 5fb2 493c 9d18 6abd 85ab 00be f07f 03be
00000150: 495c ae3d bb21 d73c 6ea1 5a3d 7918 ecbc
00000160: 2d1b 5b3d 6f3a ccbd ab34 c33d e52b 8a3d
00000170: a5b7 e4bd f3f7 c4bd 4d07 b0bb 4527 8d3d
00000180: a5b1 a8bd faca 323b ed51 b5bd 65d4 c03d
00000190: 01e1 14bd 0bc0 423c 8d95 c53d 64d8 3f3d
000001a0: 9e72 893d c82d dd3d 8eb8 cbbc 9eee 863d
000001b0: de1d 4abd eeab 4e3d 77ab 9c3d fc4a 0dbd
000001c0: 06bf 383d 47b0 f8bd e0f0 533c 2653 d0bd
000001d0: 922b ebbd eb66 b7bd 3078 d03d 9d0a d8bd
000001e0: b8e2 803d 8b94 3a3c 1a21 b93c 54e0 8abd
000001f0: 7f44 c9bd 8361 c23d 6303 123e 27d4 1e3c
00000200: 6d7d 513d 98ba 9e3c 6c05 fdbd c6c0 d83d
00000210: b527 2a3e 1864 e23d 5673 dbbd edfd 0e3e
00000220: 7bcb a5bc 24ad 1bbd 5f2b b23d 6c77 b4bd
00000230: 5801 5fbd 1fc4 12be aa0d a339 4391 983d
00000240: 8cae 253b 5005 9bbd 88f6 bd3d 37e5 833d
00000250: 3864 a3bd 56cb 583c 2a22 3abd 4dbf 1a3c
00000260: e4df 50bd d006 03bd 47ea 293e 9521 a03d
00000270: f0b1 953d d892 323d ff60 14be 4095 693d
00000280: edab babd 1c35 debd 45dc 03be a189 1fbc
00000290: a35b d53d fdc6 1f3d 5358 903d 4914 86bd
000002a0: ebf4 ad3d c6d8 a33d b36b aebd 2156 163c
000002b0: 41b1 4a3d 92b5 003e a116 f6bd 1162 ae3d
000002c0: 679d ddbb bd66 7dbd 6704 b73d 6b44 b9bc
000002d0: b455 73bd 12f1 a63d 0ed6 cabc d261 fe3c
000002e0: 7d19 9b3d 5f09 bcbd 3d3e a53c d624 8fbd
000002f0: 7f6f b53d 89d3 edba 419e 083e b1d4 b23d
00000300: c08c 5fbd 3ee4 9cbd 7b9c 9cbd 46a3 b8bd
00000310: 9b4b 163c 137c 893d aea8 acbd ba37 983d
00000320: ecf8 fcbd 72d3 72bd 02f6 bc3d 1589 f1bd
00000330: c77b 943d d5dd 20bd a5b9 9d3d 5d42 083e
00000340: 9358 8ebc b330 b93d 538c 723d 28f1 483d
00000350: 5c2b fabd eb40 e63a 59a0 df3d d5c7 70bc
00000360: 412a c23d 367e 4bbc 1e00 c33c b457 b63d
00000370: 2441 54bd 0254 f63d a00a e03d 6a6e a63d
00000380: 6f26 243d 2ad8 d8bd 5e12 adbc 5f65 16bd
00000390: 08c4 f4bc ebbc d4bd 564f 84bd 1eca b6bd
000003a0: 2b8c 33bc 1f6f 0cbe 6a8a b4bc d1c6 2c3d
000003b0: 6467 6a3d 8f75 933c aee9 3f3d 39e4 063e
000003c0: 6feb cc3d 623e f63d 93bc 60bd 6207 b73c
000003d0: 0e40 b63d b07a 693d efcc edbc 0ef4 c4bd
000003e0: aada 06be 3ac5 41bb a9d8 593c 8dca 02bd
000003f0: 3479 4d3d 2cb0 efbd 06df 8dbd 53d9 70bd
-0.056693226 0.09939175 0.12921299 -0.11051269 -0.023040533 -0.09117443 0.040112212 -0.07563696
0.124059536 -0.029164772 -0.0559435 0.10435583 0.10680206 0.08088711 0.13607058 0.06444585
0.09732195 0.07004394 0.07134618 -0.0765637 -0.043799717 -0.030421136 0.085889734 -0.11479695
-0.0055727838 -0.11504181 -0.12621517 -0.08003851 0.11196223 -0.08402653 0.020955669 0.022806663
0.041656546 0.123293586 0.14740276 0.14049797 0.027186098 -0.09977083 -0.0757478 -0.08631363
-0.102436505 -0.05976341 0.07416526 0.038575422 0.042450365 0.014453805 0.06317105 -0.008053048
-0.017983502 -0.10708133 -0.07858969 0.016680773 -0.06374215 -0.091606975 -0.005592225 -0.077095315
-0.11806859 0.06771384 0.042424332 -0.0008921204 -0.03565733 -0.14244197 -0.02748953 -0.05837263
0.07082691 -0.036628764 0.12046275 -0.017548729 0.043651935 0.11091772 0.022706624 0.05404221
0.087093025 0.12806275 -0.08115622 0.10453353 -0.033954058 0.05686355 -0.051145107 -0.114556715
0.012310593 -0.05715238 -0.1256543 -0.12841773 0.08513696 0.026261201 0.053376608 -0.028820263
0.053492714 -0.09972083 0.0953153 0.067466535 -0.1116784 -0.09617605 -0.005371964 0.06892256
-0.08237008 0.0027281628 -0.08853517 0.09415511 -0.036347393 0.011886607 0.09647665 0.046837226
0.067113146 0.10799748 -0.024868276 0.06588481 -0.04934489 0.050456934 0.07649892 -0.03449534
0.04510405 -0.12142997 0.012935847 -0.10172109 -0.1148292 -0.08955177 0.10179174 -0.10548899
0.06293243 0.0113879545 0.022598792 -0.067810684 -0.09827518 0.09491255 0.14259104 0.009694136
0.051145006 0.019376084 -0.1235455 0.105836436 0.1661671 0.110542476 -0.10715358 0.13964052
-0.020238629 -0.038006917 0.08699679 -0.088118404 -0.05444464 -0.14332627 0.00031099963 0.074495815
0.002528104 -0.07569373 0.09275538 0.06440204 -0.079780996 0.013232073 -0.045442738 0.009445024
-0.05099477 -0.03198892 0.16593276 0.07818905 0.073093295 0.043597072 -0.14490126 0.0570271
-0.091148235 -0.108499736 -0.12876995 -0.009737403 0.10417869 0.03900813 0.070480965 -0.06546838
0.0849398 0.080003306 -0.08516636 0.009175808 0.04948545 0.12569264 -0.12016035 0.085147984
-0.0067631486 -0.061865557 0.089363866 -0.022615632 -0.059407905 0.08151449 -0.024760272 0.031052504
0.07573221 -0.09181475 0.02017128 -0.06989448 0.08859157 -0.0018144707 0.13341619 0.08731974
-0.05457759 -0.07660721 -0.07647034 -0.09015517 0.009173299 0.067131184 -0.084306106 0.07432504
-0.123521656 -0.05928368 0.0922661 -0.117937244 0.07250171 -0.039274056 0.077014245 0.13306566
-0.01737622 0.09042492 0.059215855 0.04905811 -0.122153014 0.0017566954 0.10919256 -0.014696081
0.094807155 -0.012420228 0.023803767 0.08903447 -0.051819935 0.12027742 0.109395266 0.081265286
0.040075716 -0.10588105 -0.021126922 -0.03671777 -0.029878631 -0.10387596 -0.06460445 -0.089252695
-0.010958712 -0.13714264 -0.022038657 0.042181794 0.057227507 0.018000392 0.046853714 0.13172998
0.10005843 0.12023617 -0.05486734 0.022342388 0.08898936 0.05700177 -0.029028384 -0.09616862
-0.13169351 -0.002956702 0.013296285 -0.03193145 0.050164416 -0.11703524 -0.06927304 -0.058801007

fc.bias f4 [3]
00000000: 1213 5e3c 1a02 653d 5344 cebc
0.013554351 0.055910207 -0.025179064
